ResNet-PyTorch/ResNet/pnet.pth (torch, 688136 bytes, 10 tensors)

conv1.weight f4 [128, 1, 5]
000000 c5 67 9a be ee 73 b8 3d f7 ba e9 bb 2d 8c 03 3e
       -0.30157295 0.09006487 -0.0071328836 0.12846442
000010 4f 1f 80 be 71 d3 35 be cc fe cb be c4 a8 00 3e
       -0.25023887 -0.1775644 -0.39842832 0.12564379
000020 e1 4c 22 3c e6 36 06 bf 74 51 0a 3e d8 5d 0f 3e
       0.009906025 -0.5242752 0.13507634 0.14000642
000030 96 f8 18 bd e2 3b 97 bd 41 c6 66 3c 42 bc 7d be
       -0.037346445 -0.073844686 0.014085353 -0.24778846
000040 fa 52 7f 3e 67 fc 11 bf bc 54 cf be b5 85 84 3e
       0.24933997 -0.5702576 -0.40494335 0.2588326
000050 ca 79 b0 3e 89 81 b3 3e 86 ef 12 bd 1c 30 b0 3e
       0.34467918 0.35059765 -0.03587296 0.34411705
000060 e7 4c a1 bd 38 d6 ce 3d 70 20 97 be d4 b1 9a 3d
       -0.07875996 0.10099453 -0.29516935 0.07553449
000070 e0 45 4b 3e c7 42 1d bd fe fa 4a bd 58 fe cc 3e
       0.19850874 -0.038393762 -0.04955577 0.400378
000080 26 6b 2f be 5e 80 c2 be a3 6a 09 be 86 d3 b7 3e
       -0.17130718 -0.3798856 -0.13419585 0.35903567
000090 c7 63 58 be 13 82 f9 bd 77 57 ab 3e 7f 86 62 be
       -0.21131812 -0.12183013 0.33465168 -0.22121619
0000a0 31 7b 05 3e 3b c9 c5 be 9d 08 dc bd ff f3 80 3e
       0.13035275 -0.3863009 -0.1074383 0.25186154
0000b0 22 c9 20 bd 5f a3 8e 3e 2b 83 2b 3e 0e 36 63 be
       -0.039254315 0.27859017 0.16749255 -0.22188589
0000c0 4c bc a7 be 76 5f ab 3e ec 50 8b be aa 53 67 3e
       -0.32760847 0.33471268 -0.27210176 0.22590509
0000d0 e4 6e 24 be 79 e8 b0 be 18 87 e9 be 58 5d db be
       -0.16057926 -0.34552363 -0.4561088 -0.42844653
0000e0 88 3a c5 3e e7 20 08 3e 05 fb 38 3e 74 b2 53 be
       0.38521218 0.13293801 0.18064506 -0.20673543
0000f0 cb f2 d5 3d 21 74 08 3e 84 8e 54 3e 52 72 26 be
       0.104467 0.1332555 0.2075749 -0.16254547
000100 42 8e 91 3e 0b fa 36 be f0 52 38 be 8a 6a 11 3e
       0.28428847 -0.17868821 -0.18000388 0.14200798
000110 bf 4d ab 3e 90 54 b1 3e 23 57 c6 3e 50 07 6f 3e
       0.33457753 0.3463483 0.38738355 0.23342633
000120 7f 86 37 3d 25 dc 9c 3e 76 ee d8 3d 8f 25 2c 3e
       0.044806 0.30636707 0.10592358 0.16811202
000130 b2 e0 2e 3e e5 f6 9b be 47 c8 2e be 81 1a a0 3e
       0.17077902 -0.30461803 -0.17068587 0.3127022
000140 46 46 d4 3e 7e 33 9f be 64 31 f3 3d 97 41 94 be
       0.41459864 -0.31093973 0.11874655 -0.2895629
000150 2b 7f b4 bd 53 a8 03 bf a1 b4 94 3e ff 6f 72 3e
       -0.08813318 -0.5142872 0.2904406 0.23675536
000160 03 8b 4c be d8 12 c6 3e ed 7c bb 3e 33 dd 51 3d
       -0.19974904 0.38686252 0.36618748 0.051236343
000170 fc 0e 46 be f7 8f 25 3e 1c a6 e2 3d f7 69 84 be
       -0.19341654 0.161682 0.11066839 -0.25862095
000180 58 ff 7b 3d fd de d3 3d 4d 96 9e bd a5 11 89 3e
       0.06152281 0.10345266 -0.07743511 0.26771274
000190 6a b1 96 3e 4b 82 71 3d 19 91 80 be ba ee 66 bd
       0.2943223 0.058962148 -0.251107 -0.05638001
0001a0 e1 19 9e be 21 8f 5a be c8 13 2e be af d5 98 be
       -0.3087912 -0.21343662 -0.16999733 -0.29850528
0001b0 16 64 5d bd 8b b9 53 3e 34 93 32 3e 4b a7 83 3d
       -0.054050528 0.20676248 0.17438966 0.06428393
0001c0 57 2a 20 3e d8 6d a4 be da 2c 82 3e 23 15 28 3d
       0.15641151 -0.32115054 0.25424844 0.041035783
0001d0 5b 20 ef bc 61 b3 df 3e ac 12 7f 3d a1 65 ab 3d
       -0.029190233 0.43691543 0.062273666 0.083689936
0001e0 25 1a ea 3d 21 d2 8d be b2 cf 9a 3d e7 4e 3f be
       0.11430768 -0.27699378 0.07559146 -0.18682443
0001f0 0b 93 e1 bd e3 6d d4 bd 0c 85 dc be b2 89 d9 bd
       -0.11014374 -0.10372522 -0.43070257 -0.106219664
000200 09 b1 67 3e 0d 7d 69 3e 5e 62 13 3e c1 d7 b5 3e
       0.22626127 0.2280161 0.14392993 0.3551617
000210 1f a3 55 3e ca b6 27 be fd cc 25 3e 88 af ac be
       0.20863007 -0.16378322 0.16191478 -0.3372767
000220 c9 92 b5 be 21 5a 32 be 71 c7 95 be e8 73 8a be
       -0.3546355 -0.17417194 -0.29253724 -0.27041554
000230 82 69 46 3d e5 91 c1 3d 1c 04 19 be 49 3d c9 be
       0.048440464 0.09451655 -0.14942974 -0.3930457
000240 49 99 b1 3e 66 97 05 3e c2 80 73 bc 16 bd d3 3d
       0.3468726 0.13046035 -0.014862241 0.103388
000250 31 a0 9a 3e c0 b1 95 3e a0 15 3a be ef 06 fc be
       0.3020034 0.29237175 -0.18172312 -0.4922404
000260 6f 46 cd be 6d 11 04 bf 56 89 5a 3e ea a2 e2 be
       -0.400928 -0.5158909 0.21341452 -0.4426492
000270 e2 6e 17 3e 09 42 18 3d ef e0 90 be 69 ea e6 3e
       0.14788392 0.03717235 -0.2829661 0.45100716
000280 ae 15 be 3e 88 79 50 3e fb c5 b9 be 0a 6b 5e be
       0.37125915 0.2035886 -0.3628386 -0.2172052
000290 66 19 7b be 96 df 0c bc 2e ed 6a 3e 83 22 df 3e
       -0.24521407 -0.008598229 0.2294204 0.43581018
0002a0 55 27 b3 be 55 91 55 be aa 6f 4c 3e c2 9d b8 3e
       -0.34990945 -0.20856221 0.19964471 0.3605786
0002b0 e7 f8 44 3e 86 d6 5c 3d 9d 50 ab be d1 eb 53 3d
       0.19235574 0.053915523 -0.3345994 0.051738564
0002c0 b4 73 96 3e f3 8f a1 be b5 62 6c 3c 71 f7 8c be
       0.2938515 -0.31555137 0.01442783 -0.27532533
0002d0 f7 bd a8 be 88 52 72 3e 71 ce c8 be fc cc f7 bd
       -0.32957432 0.23664296 -0.39220002 -0.120996445
0002e0 e1 ce 8b bd 7a 26 46 be f9 90 16 be 80 6c db bd
       -0.068265684 -0.19350615 -0.1470374 -0.10714054
0002f0 05 7e c6 bd 31 62 bb be 66 08 e4 be f8 1a fb be
       -0.09692005 -0.36598352 -0.44537657 -0.49044013
000300 ea 91 7c be 1f a7 2a bb 94 eb 8e 3e 72 80 80 3d
       -0.24665037 -0.0026039553 0.27914107 0.06274499
000310 a3 65 82 3e fc 58 13 3e 58 71 31 be 8b 2f f4 bd
       0.25468168 0.14389414 -0.17328393 -0.119231306
000320 f3 54 a9 be bf 4f e7 be cc fe e2 bc 2a ae 88 3e
       -0.33072624 -0.4517803 -0.027709387 0.26695377
000330 4c ad cc be 03 f5 48 be cc 60 e5 3e 8b a9 bc bd
       -0.39975965 -0.19624715 0.44800413 -0.09212025
000340 ba 3b 64 3e a4 8d 53 be b6 b2 5e be c9 70 15 3e
       0.22288409 -0.206595 -0.2174786 0.14593805
000350 1b 1c 03 3e 86 5f c7 3e ba 1f d9 be 83 bf 7d 3d
       0.1280369 0.38940066 -0.42407018 0.061950218
000360 f5 1a 79 3e 8c 7c 36 3e 08 90 dc be d9 dc a5 bd
       0.2432669 0.17820948 -0.43078637 -0.08098764
000370 42 9b 73 3e 84 a0 d9 be 57 00 d0 3d b6 48 f5 be
       0.23789695 -0.42505276 0.10156315 -0.47907037
000380 25 a0 ef bc c9 ed 93 3e 4f 0d 57 3e 18 c7 b9 be
       -0.029251168 0.28892353 0.2100117 -0.3628471
000390 7a 4f 67 be 9e 82 64 3e 15 c7 80 be ec ac 45 3e
       -0.22588912 0.22315452 -0.25151888 0.19304246
0003a0 d0 c9 15 3e 15 0c 00 be cb 60 8b 3e ca 65 81 be
       0.14627767 -0.12504609 0.27222285 -0.2527297
0003b0 0f 72 c7 bd 18 6c 94 3d d6 d8 fb bd 62 2d 78 3d
       -0.09738552 0.0724718 -0.122972175 0.060590155
0003c0 87 9c 19 3d 79 55 b4 be 3e e2 f3 3d 3f eb ff 3d
       0.03750279 -0.3522146 0.11908387 0.124960415
0003d0 24 a2 0b 3e a2 41 dc be ca 73 0f be bf 6b 8b 3e
       0.1363607 -0.43018824 -0.14009014 0.2723064
0003e0 c0 8a 06 3e 34 c4 da 3e 74 8e 87 3e 84 ec 23 be
       0.13138866 0.42727816 0.2647587 -0.16008192
0003f0 cb 27 a9 be a6 9c 4b 3e d3 a0 0a 3d a3 4e 2d be
       -0.33038172 0.19883975 0.03384478 -0.16924529

conv1.bias f4 [128]
000000 f9 24 b1 be cd b8 67 3e 40 0e a5 3e bc e1 50 bd
       -0.3459852 0.2262909 0.32237434 -0.050996527
000010 9b 38 ea be 24 51 03 3f 01 f1 9f be 6a 04 69 3c
       -0.45746312 0.51295686 -0.3123856 0.014222244
000020 d1 84 c9 3e 53 3a d7 3e 39 90 bc be 7a 84 15 3c
       0.39359143 0.42036685 -0.36828783 0.009125823
000030 20 a2 8e be 90 49 49 3e cc 4f be 3d 3b 4b 47 be
       -0.27858067 0.19656968 0.09292564 -0.19462292
000040 83 9a 76 3d 4e 2c 5c 3e 7c 76 6e be 81 b7 8d be
       0.060205948 0.21501276 -0.23287386 -0.27679065
000050 e7 ac 90 3e 45 98 76 be 93 71 4e be b4 a5 db bd
       0.28256914 -0.24081524 -0.20160513 -0.10724965
000060 98 e9 b0 be 3e 66 8c be 37 b6 af be a8 b4 1f be
       -0.34553218 -0.27421755 -0.34318706 -0.15596259
000070 11 6b d6 3e a9 e7 ce be 5c 4b 51 3e 24 97 08 3d
       0.4187856 -0.40411118 0.20438904 0.033347264
000080 08 ba b8 be 7a d1 1d 3d a3 41 68 bd 6b 48 cc be
       -0.3607943 0.03852985 -0.05670322 -0.39899
000090 e6 e7 c8 be 23 f8 fd 3e 9b 04 a1 3c d6 04 a9 be
       -0.39239424 0.49603376 0.019655516 -0.33011502
0000a0 81 29 ac be a8 9e 94 3e 07 c1 04 bd 8a 03 b4 3e
       -0.33625415 0.29027295 -0.032410648 0.3515895
0000b0 59 03 0b 3e ae 17 dc 39 03 b3 ca 3e 74 59 a3 be
       0.13575496 0.00041979313 0.395897 -0.31904185
0000c0 4d e5 cc 3e b4 6e 25 be 59 01 bc bd 32 32 50 3e
       0.40018693 -0.16155511 -0.091799445 0.20331648
0000d0 85 33 98 3e 5c b4 de be ec bd 7e 3c d3 c6 ae be
       0.29726806 -0.43496978 0.015548211 -0.34136066
0000e0 3b 73 a3 3e c2 23 a3 bd 8f 6c 4d be a2 19 ab be
       0.3192385 -0.07965805 -0.20060943 -0.33417994
0000f0 15 17 8d 3e ae 15 6b 3d a7 40 91 bd ee 16 d8 bd
       0.27556673 0.057393722 -0.070924096 -0.105512485
000100 41 e5 08 3e c4 72 96 3b f3 0e d0 be 1e 15 36 bd
       0.13368703 0.004591318 -0.40636405 -0.044453733
000110 b9 13 9b be b0 55 82 3d 75 4b 7c 3e ae 2d 9b be
       -0.30288485 0.06364 0.2463816 -0.30308288
000120 ac 32 e3 be e7 57 5d be 0b a8 9e 3e 36 b5 e8 bd
       -0.44374597 -0.21615563 0.30987582 -0.11362688
000130 aa e6 0b 3e 8b d4 34 3d 8a 76 3d bd d6 81 7c 3c
       0.1366221 0.04414801 -0.046255626 0.015411815
000140 bb bd c7 3c 5d 54 a1 be 2f d4 ab 3b 3f c7 9c bd
       0.024382463 -0.31509677 0.0052438 -0.07655191
000150 92 d8 9a 3e 79 38 11 be ef e5 de 3e 54 77 3a 3c
       0.30243355 -0.14181699 0.435348 0.011380989
000160 cb 9a 99 be 6f f7 61 3e 25 a5 7b be a9 e5 8e be
       -0.3000091 0.22067045 -0.24574716 -0.27909592
000170 67 70 9a bd bc 7c 78 be c0 cd 9a ba 49 5d c9 ba
       -0.0754097 -0.24266332 -0.0011810586 -0.0015362884
000180 1c 71 5e 3e af a7 d4 3c f3 3d 24 3e 90 17 9c be
       0.21722835 0.025958864 0.16039257 -0.30486727
000190 c9 e2 9c 3b 45 2a 88 bd da 27 8a be b2 97 53 bd
       0.004787777 -0.06648687 -0.2698353 -0.05165834
0001a0 5e bf 51 3e 32 89 9d 3e 34 3d 99 bd 87 84 6e 3e
       0.20483157 0.30768734 -0.07482377 0.23292743
0001b0 2f 34 72 3e 14 ec c5 be b3 59 56 3d ff e0 3c 3e
       0.23652719 -0.38656676 0.052331638 0.18445204
0001c0 3d 9f c0 be 90 9a 8b be 6a 96 f0 3e f2 85 b7 be
       -0.3762149 -0.2726636 0.46989757 -0.3584438
0001d0 95 08 cd be 09 1c 3e bd 1a 4b 0d bd 6d 94 52 be
       -0.4004561 -0.046413455 -0.03449545 -0.20564432
0001e0 67 0d b8 3c 37 77 a9 3c 06 27 db be fc 67 8a 3e
       0.022467328 0.020686729 -0.4280321 0.2703246
0001f0 0d c2 4b be 19 72 e3 be 06 91 8b 3d d7 59 68 3e
       -0.19898243 -0.44422987 0.068147704 0.22690521

batch_norm1.weight f4 [128]
000000 d9 46 8d 3f 78 cd 19 3f 27 06 4d 3f 0a 7a 5e 3f
       1.1037246 0.60079145 0.8008751 0.86904967
000010 1d 44 91 3f db 36 3d 3f 8e f1 93 3f c9 26 81 3f
       1.1348912 0.7391183 1.1558092 1.0089961
000020 72 05 2e 3f 87 cf 41 3f 2c 4c 9d 3f 63 30 98 3f
       0.6797706 0.75707287 1.2288871 1.1889766
000030 7d 4f 82 3f 60 70 81 3f e4 91 69 3f 00 00 80 3f
       1.0180508 1.0112419 0.91238236 1.0
000040 e9 26 6a 3f 4b 2f 50 3f 59 b5 94 3f 00 00 80 3f
       0.9146562 0.81322163 1.1617843 1.0
000050 71 01 50 3f 98 70 92 3f f6 0e 9d 3f 8f e1 88 3f
       0.812522 1.1440611 1.2270191 1.0693835
000060 ee 79 92 3f d7 d2 9b 3f f1 b4 8f 3f 06 85 54 3f
       1.144346 1.2173718 1.1227094 0.8301548
000070 4f a1 51 3f c7 69 8e 3f 54 b3 2c 3f 83 13 4a 3f
       0.8188676 1.1126031 0.67461133 0.7893602
000080 cc 2d 90 3f d8 75 8d 3f fa 84 7d 3f 00 00 80 3f
       1.1263976 1.1051588 0.9903103 1.0
000090 a0 fd a8 3f f3 1e 2c 3f 19 61 34 3f 00 00 80 3f
       1.32024 0.67234725 0.7046066 1.0
0000a0 d4 ca 89 3f a6 80 50 3f 46 71 8e 3f 9f c0 47 3f
       1.0765023 0.814463 1.1128318 0.7802829
0000b0 f0 d1 41 3f 47 eb 7f 3f d3 ec 5d 3f 25 e4 86 3f
       0.75710964 0.9996838 0.8668949 1.0538374
0000c0 a1 1b 58 3f 38 a3 ac 3f 0f af 85 3f 16 52 2d 3f
       0.8441716 1.348731 1.0444049 0.6770338
0000d0 00 a2 5c 3f ea 48 97 3f 36 6e 35 3f 00 00 80 3f
       0.8618469 1.1819127 0.70871294 1.0
0000e0 92 d7 35 3f b3 8a 5c 3f 4e 26 90 3f 68 c5 98 3f
       0.7103206 0.8614914 1.126169 1.1935244
0000f0 10 68 5e 3f d1 f3 43 3f 77 09 87 3f 9a 09 56 3f
       0.86877537 0.7654391 1.0549763 0.836084
000100 1a 4b 3e 3f b8 e2 4f 3f 00 00 80 3f f0 5f 92 3f
       0.74333346 0.8120532 1.0 1.1435528
000110 8e 92 7d 3f 4f ab 7d 3f 89 39 26 3f df 42 86 3f
       0.9905175 0.9908952 0.6493154 1.0489157
000120 00 00 80 3f 3f c2 88 3f 9b 51 1e 3f c2 20 9e 3f
       1.0 1.0684279 0.6184327 1.2353747
000130 8c 38 79 3f dd 5f 64 3f 75 7b 7e 3f d0 7a 83 3f
       0.9735191 0.89208776 0.9940713 1.0271854
000140 7e 51 9b 3f 55 6e a4 3f 8c 54 a7 3f fa 9c b5 3f
       1.2134244 1.2846171 1.3072677 1.418853
000150 69 b8 2c 3f db fa ae 3f 6d b0 5a 3f 57 35 93 3f
       0.6746889 1.3670305 0.85425454 1.1500653
000160 1a b1 86 3f 91 67 2d 3f 00 00 80 3f 0c 1c 95 3f
       1.0522797 0.67736155 1.0 1.1649184
000170 33 4b 7f 3f 09 df 81 3f 4e e0 a2 3f b4 a3 4f 3f
       0.9972412 1.014619 1.2724702 0.81109166
000180 1d 80 73 3f 72 08 8d 3f 68 ca 75 3f 00 00 80 3f
       0.9511736 1.1018202 0.9601197 1.0
000190 6f 45 39 3f da b0 7e 3f a6 bd 91 3f db 65 8c 3f
       0.7237157 0.99488604 1.1386001 1.0968584
0001a0 ef 18 3f 3f 36 99 57 3f e9 9b ac 3f 64 06 4a 3f
       0.7464742 0.84218156 1.348508 0.78916
0001b0 dc b3 31 3f a7 5d 96 3f 3a 7a a1 3f 64 6f 7d 3f
       0.6941507 1.174733 1.2615426 0.98998094
0001c0 00 00 80 3f 00 00 80 3f 4f 41 25 3f 00 00 80 3f
       1.0 1.0 0.6455278 1.0
0001d0 b1 82 92 3f a4 81 4a 3f 12 59 b2 3f 82 05 89 3f
       1.1446134 0.79104066 1.3933432 1.0704806
0001e0 b3 31 78 3f d2 0c 41 3f 00 00 80 3f 52 58 51 3f
       0.96950835 0.7541019 1.0 0.8177539
0001f0 05 86 8a 3f 00 00 80 3f b8 a2 3b 3f 4f 95 4f 3f
       1.082215 1.0 0.73295164 0.810872

batch_norm1.bias f4 [128]
000000 d1 52 cb 3c 59 27 36 be e3 79 f2 bd a1 34 0d bd
       0.024819763 -0.17788447 -0.11839654 -0.03447402
000010 85 4e 2a 3e b8 21 79 be a2 d6 de 3b 5a b9 54 3d
       0.16631515 -0.24329269 0.0068004886 0.051934578
000020 9b c0 8c be 90 bd e0 bd af 73 43 3d fe 9d ff 3c
       -0.27490696 -0.10973656 0.047717746 0.031203266
000030 ae 12 28 3e 73 86 62 bd be 4e 18 3e ba 63 de bb
       0.16413376 -0.055304002 0.14873788 -0.0067867907
000040 c3 42 1f be 66 dd ea bd f7 40 08 3e aa 01 8d 3c
       -0.15552811 -0.1146801 0.13306032 0.017212708
000050 40 e2 88 be 00 e7 75 3d 5e ed f3 3d 0d 00 2e 3e
       -0.26735115 0.060034752 0.119105086 0.16992207
000060 b6 1a 41 3d 22 28 d5 3c df 78 1d 3e 8d f8 9c bc
       0.047144614 0.026020113 0.1537814 -0.019161487
000070 78 c3 89 be ea 38 20 3e cb 62 d7 bd 85 72 05 be
       -0.26906943 0.15646711 -0.1051689 -0.13031967
000080 b1 99 ed 3b 42 ec 9d bd 98 2a 3f 3e ca 3b 96 3c
       0.0072509875 -0.07711078 0.18668592 0.018339057
000090 4b 01 3d 39 ea e2 52 be 58 e1 b5 bd f5 e4 74 3c
       0.00018024926 -0.20594373 -0.088808715 0.014947166
0000a0 dc 18 81 3d 0d aa 69 be 72 2c 23 3e bc 65 4b be
       0.0630357 -0.22818775 0.15934923 -0.19863027
0000b0 6b ae 1d be ff 19 b6 bb 6a 66 1f be 52 62 5b 3d
       -0.15398566 -0.005557298 -0.15566412 0.053560562
0000c0 18 a6 2f be 6a 81 05 3e 29 10 29 3d 79 6d 50 be
       -0.17153203 0.13037649 0.041275177 -0.2035426
0000d0 83 c5 85 bd b4 e1 d1 3c c0 6e bb bd dd 86 1e bb
       -0.06531813 0.025620319 -0.09151983 -0.0024189271
0000e0 8d 4d 18 be 59 57 61 3e 03 ad 15 3d 6d 96 06 3e
       -0.14873333 0.22005977 0.03654195 0.1314332
0000f0 72 71 5e be 17 d3 c5 bb 2b b0 33 3e 2e ad 61 3c
       -0.21722963 -0.0060371268 0.17547671 0.013774199
000100 4b 04 15 be 74 5c e2 bc ac b7 54 3c 7f 86 29 3e
       -0.14552419 -0.027631976 0.012983244 0.16555212
000110 23 b0 34 bb e5 0d 5d 3c 20 fe 16 be 2b b1 5c 3d
       -0.0027570806 0.013492082 -0.14745378 0.053879898
000120 e5 71 29 bb 83 9a 60 3d 0c 05 3e be 8f d0 2f 3e
       -0.002585524 0.054834854 -0.18556613 0.17169403
000130 7f 9d 7a 3d fa 6e 1b 3e 59 ab 1f 3e f9 ff bc bd
       0.061185356 0.15179053 0.15592708 -0.092285104
000140 2e ed 0d bb 49 0a dc 3c 14 57 b6 3d f2 b1 de 3d
       -0.0021656263 0.026860373 0.089033276 0.10873784
000150 06 d3 27 be e3 6e f2 3d c7 2f cb bd 91 ed 06 bd
       -0.16389093 0.11837556 -0.09921222 -0.032941405
000160 d5 be 36 3e 85 ca 2c be 04 88 1b bc 7e 37 ae 3d
       0.17846234 -0.1687413 -0.009492878 0.08506678
000170 dc f8 68 3e 66 c7 01 3d 16 23 19 be 8c 4c 1e bd
       0.22751182 0.0316843 -0.1495479 -0.03864722
000180 61 d7 50 bd b8 c4 94 bb a0 da af 3d c7 b4 9d 39
       -0.05098665 -0.0045400523 0.08586621 0.00030080063
000190 ae 42 9b bd 6a 2a 33 3e be 13 44 3d b2 50 2f 3e
       -0.075810775 0.17496648 0.04787039 0.17120627
0001a0 3c 1b 6a be ab 87 c5 bd 2e 4c d2 3d dd d8 67 be
       -0.22861952 -0.09645017 0.10268436 -0.2264132
0001b0 50 75 57 be 9b 15 0d 3e 1f 80 1c 3d 41 14 14 be
       -0.21040845 0.13777773 0.038208123 -0.14460851
0001c0 18 64 1f 3c 67 f2 bb bb 68 81 73 be 59 fd 27 bb
       0.009728454 -0.0057356837 -0.23779833 -0.0025633185
0001d0 f6 3a 48 3d 87 e0 e6 bc 80 c6 3b bd a9 50 37 3e
       0.048884355 -0.028183235 -0.0458436 0.17901863
0001e0 70 38 4c 3e 96 5e 92 bd 0d c9 23 3c 67 32 44 bc
       0.19943404 -0.07146947 0.009996665 -0.0119749075
0001f0 37 7f 9e 3d eb 20 53 bc 23 b8 46 be fe 7f 5d bd
       0.07739108 -0.012886266 -0.1940618 -0.05407714

batch_norm1.running_mean f4 [128]
000000 04 00 00 00 3e b8 e0 3e 7a 77 8e 3e 59 52 21 3e
       6e-45 0.43890566 0.27825528 0.1575407
000010 9e a4 06 3b b4 3b 03 3f 04 00 00 00 f9 0c 63 3c
       0.0020544897 0.51262975 6e-45 0.013858073
000020 7e 49 da 3e c3 69 bc 3e 5d e6 97 3d b3 8d 8e 3c
       0.42634195 0.3679944 0.07416985 0.017401552
000030 3a a3 c2 3a 40 a7 27 3e 8a 9b d1 3d 00 00 00 00
       0.0014849671 0.16372395 0.10234745 0.0
000040 ef d1 a0 3d 0f 36 50 3e b4 a8 a4 3a 00 00 00 00
       0.07852542 0.20333122 0.0012562484 0.0
000050 37 34 9f 3e 0c f4 e7 3c 25 65 6d 38 57 34 87 3c
       0.31094524 0.028314613 5.65994e-05 0.01650445
000060 04 00 00 00 bc 39 c9 39 1a 7d f7 3a 18 fa 8f 3e
       6e-45 0.00038380723 0.0018881888 0.28120494
000070 e7 ff e0 3e ff 83 15 3b 01 81 0c 3f cd cf ac 3d
       0.43945238 0.0022814272 0.54884344 0.08438072
000080 b2 da 0d 36 b5 3c d2 3c 2e 1a 93 3c 00 00 00 00
       2.1137935e-06 0.025663713 0.01795682 0.0
000090 bf 06 10 3c 7f 54 2d 3f bc 33 90 3e 00 00 00 00
       0.008790671 0.67707056 0.2816447 0.0
0000a0 04 de 98 3d 17 cc 83 3e 5a f8 e5 3a 8c 60 b0 3e
       0.07464221 0.25741646 0.0017545328 0.3444866
0000b0 76 fd 80 3e 67 f1 1a 3c c6 da ba 3e 04 00 00 00
       0.25193375 0.009456969 0.36495036 6e-45
0000c0 8a 4a cc 3e 8a 10 da 3b 04 00 00 00 2b c2 bd 3e
       0.3990062 0.0066548036 6e-45 0.370622
0000d0 66 c3 58 3e bb 80 91 3b 57 c7 b5 3e 00 00 00 00
       0.21168289 0.0044403947 0.35503647 0.0
0000e0 f1 75 14 3f 30 5e c5 3c a1 ae ab 3c 20 4f e7 3a
       0.57992464 0.024092764 0.020957293 0.0017647482
0000f0 32 b2 84 3e 6c 2d 46 3d 77 96 08 3d 84 ca 01 3d
       0.25917202 0.04838316 0.03334662 0.031687275
000100 63 cb 86 3e 3e 86 60 3e 00 00 00 00 48 2d 63 3c
       0.26327047 0.2192621 0.0 0.013865776
000110 04 00 00 00 61 3e 79 3d 75 66 01 3f 73 a7 41 3d
       6e-45 0.060850505 0.5054696 0.047278833
000120 00 00 00 00 1e 32 02 3d 4b db 0b 3f df e1 a7 3c
       0.0 0.031786077 0.5463149 0.020493446
000130 3e bf 00 3e 0f 5e 46 3d 32 ac ea 3b 5b cc 25 3d
       0.12572953 0.048429545 0.0071616406 0.04047809
000140 b8 04 46 3d 4c 4c b2 3b 7d fd a4 3c c9 0c 74 3c
       0.048344344 0.005441224 0.020140404 0.014895626
000150 c8 f2 f9 3e 3b 38 27 3c 18 be c7 3e 4b cf f7 3c
       0.4881804 0.0102062775 0.39012218 0.030250212
000160 f3 ec db 3c 9b 4b ea 3e 00 00 00 00 a9 ba 27 3a
       0.026846385 0.45760807 0.0 0.0006398359
000170 90 5f 01 3d e2 04 61 3e 59 0f 2b 3d 90 dc bc 3e
       0.031585276 0.21974519 0.041762684 0.36887026
000180 ef 63 3d 3e 1a 26 8c 3d 87 3a 14 3e 00 00 00 00
       0.18495153 0.06843205 0.14475451 0.0
000190 bd 5c ab 3e fa ec c8 3b 04 00 00 00 e5 11 49 3c
       0.3346919 0.0061317654 6e-45 0.012272333
0001a0 24 84 a0 3e b0 a9 87 3e 39 37 8f 3b ab af 87 3e
       0.31350815 0.2649665 0.0043705967 0.26501212
0001b0 35 4b 7d 3e 39 6d 09 3b 37 66 10 3d 49 1a 14 3e
       0.2473572 0.0020969643 0.03525373 0.14463152
0001c0 00 00 00 00 00 00 00 00 16 56 fa 3e 00 00 00 00
       0.0 0.0 0.48893803 0.0
0001d0 0f 3e 09 3d 7d a6 87 3e 9b 95 e1 3c fe 88 5b 3a
       0.03350645 0.26494208 0.027537158 0.00083746004
0001e0 03 f5 8a 3d 3f d6 a0 3e 00 00 00 00 4d 92 4d 3e
       0.067850135 0.31413457 0.0 0.2007534
0001f0 04 00 00 00 00 00 00 00 00 4b 03 3e 96 93 17 3e
       6e-45 0.0 0.12821579 0.14802393

batch_norm1.running_var f4 [128]
000000 04 00 00 00 d8 13 50 3e 7e 55 1d 3d 74 7b 3b 3d
       6e-45 0.2032007 0.03841161 0.04577203
000010 de 70 93 39 da 5a e3 3d 04 00 00 00 ac 2b 73 3a
       0.00028122118 0.11101313 6e-45 0.0009276222
000020 50 28 ab 3d 36 1c 86 3d c1 35 9f 3c ab 9d 97 3a
       0.083572984 0.065483496 0.019434812 0.0011567374
000030 8d 60 fe 38 74 b5 2c 3d c7 f5 38 3d 04 00 00 00
       0.00012129648 0.042165235 0.045156267 6e-45
000040 c5 aa 12 3c 34 92 f9 3c d5 46 ca 38 04 00 00 00
       0.008951847 0.030465223 9.645304e-05 6e-45
000050 42 ee 71 3d 19 6f 80 3b 65 67 21 36 ae 3c 59 3b
       0.05906511 0.003919494 2.4051053e-06 0.003314774
000060 04 00 00 00 dc 92 0e 38 db 3f 4e 39 b9 96 21 3e
       6e-45 3.399221e-05 0.00019669479 0.15780152
000070 ce b6 9f 3d 7a 0e 8f 39 94 0e b4 3e b6 f8 0c 3c
       0.07798539 0.0002728587 0.35167372 0.008604219
000080 c2 d8 69 33 f6 21 1f 3b 21 a5 52 3b 04 00 00 00
       5.444668e-08 0.0024281717 0.0032141882 6e-45
000090 21 22 87 3a 5b 5a a7 3e d6 5b f8 3d 04 00 00 00
       0.0010309854 0.32686123 0.12126891 6e-45
0000a0 cb 7c 93 3c d8 fe 06 3d ec a8 bf 38 e5 c9 58 3d
       0.018003842 0.03295788 9.139054e-05 0.052926917
0000b0 f2 7a 9a 3d 3c 8e 13 3a 7c 3c 8b 3d 04 00 00 00
       0.07542981 0.00056287996 0.06798646 6e-45
0000c0 2a c0 90 3d cd 96 77 3a 04 00 00 00 be 09 0b 3e
       0.070679024 0.00094447733 6e-45 0.13577935
0000d0 44 b6 2f 3d f1 c3 df 39 87 6b 4a 3e 04 00 00 00
       0.04289843 0.00042679862 0.19767581 6e-45
0000e0 89 9a aa 3e 77 e9 bb 3b 52 2a 0a 3b c3 9c 4d 39
       0.33321026 0.0057346183 0.0021082354 0.00019608722
0000f0 cd 1d 33 3d a2 8b e4 3b 87 10 ff 3b eb 36 41 3b
       0.043729592 0.0069746533 0.0077839526 0.0029482197
000100 5d b5 a7 3d 5f af a6 3d 04 00 00 00 c2 64 c0 3a
       0.08188889 0.08138918 6e-45 0.0014678466
000110 04 00 00 00 29 a6 34 3c 12 48 96 3e c6 e2 10 3c
       6e-45 0.011025944 0.2935186 0.0088431295
000120 04 00 00 00 2d 16 8c 3b 2a 72 94 3e 4b 79 77 3b
       6e-45 0.0042751045 0.2899335 0.0037761505
000130 79 bb 78 3d eb b3 19 3c 70 0f 31 3a cc 53 88 3b
       0.060725663 0.009381275 0.00067543145 0.00416038
000140 2a 82 e2 3b f9 06 0d 3a 08 bd 44 3b f4 d0 f2 3a
       0.0069124894 0.0005379762 0.0030019898 0.0018525408
000150 aa 7b 69 3e 0b 50 fc 3a 70 cd a4 3d e9 3b 19 3b
       0.2280108 0.0019249929 0.080469966 0.0023381657
000160 a6 42 3b 3c a3 ea 62 3e 04 00 00 00 53 12 b0 38
       0.011429464 0.2215982 6e-45 8.395747e-05
000170 94 15 0d 3c 28 2a ec 3d 0f 35 66 3b b8 57 63 3e
       0.008611102 0.11531478 0.003512684 0.22201431
000180 27 90 a8 3d 54 6d 49 3c e0 7a a7 3d 04 00 00 00
       0.0823062 0.012294132 0.081777334 6e-45
000190 2f e2 23 3e 82 58 0e 3a 04 00 00 00 bc 5d a0 3a
       0.16004251 0.0005430059 6e-45 0.0012234966
0001a0 0a 65 97 3d ed a1 56 3d 8b d9 b1 39 7a 82 1e 3d
       0.073923185 0.05240052 0.00033922153 0.03869865
0001b0 3d 86 fd 3c ef 10 89 39 55 9f 9a 3b 25 b8 ac 3c
       0.030947799 0.00026143293 0.004718701 0.0210839
0001c0 04 00 00 00 04 00 00 00 7c 02 d7 3d 04 00 00 00
       6e-45 6e-45 0.10498521 6e-45
0001d0 61 98 cb 3b 6d af 03 3e cb 7f 74 3b ae a0 3b 38
       0.0062132333 0.12859888 0.0037307616 4.473392e-05
0001e0 25 f0 bc 3c 5e e0 12 3e 04 00 00 00 4c 13 bf 3d
       0.023063729 0.14343402 6e-45 0.093298525
0001f0 04 00 00 00 04 00 00 00 a5 b4 b4 3c 74 f0 0b 3d
       6e-45 6e-45 0.022058794 0.03416486

dense1.weight f4 [100, 1664]
000000 a7 99 87 bc 4d 84 93 bc 5c b8 7c 3c 8e 00 4b 3b
       -0.01655276 -0.018007422 0.015424814 0.0030975672
000010 b5 76 02 3c fd b1 8d bc 17 c9 f0 3b a0 bd 69 3c
       0.007962872 -0.017296785 0.0073481905 0.0142664015
000020 c2 45 8d 3c ca 9e 02 bc b7 66 9b 3c ea a0 c2 bb
       0.017245177 -0.007972429 0.018969877 -0.0059395926
000030 e5 a0 c4 3b 42 07 40 3c 09 a6 84 39 48 47 6b 3c
       0.0060006254 0.01172048 0.00025300708 0.0143602565
000040 4a 02 d4 3a 1b 73 f7 3c 37 f0 7b 3d 20 b5 98 3d
       0.0016174999 0.030206254 0.061508384 0.07456422
000050 a0 64 d5 3c 48 da 3e bc 04 8f 92 bc 26 04 7a bd
       0.026048958 -0.011648722 -0.01789046 -0.061039113
000060 87 2c 5b 3d 26 61 2e bc a4 7b a0 3d 37 08 84 bd
       0.05350926 -0.010643279 0.078360826 -0.06446879
000070 62 50 84 3c 64 ac 2d 3d dd cf 0b 3c e8 ac 16 3d
       0.01615161 0.042400733 0.008533445 0.03678599
000080 5f c7 8f 3c 28 45 93 bc a0 e4 1c bd cf 39 02 3d
       0.017551122 -0.017977312 -0.03830397 0.03179341
000090 bd eb 14 bb e5 58 06 3d 88 49 75 bc 31 64 36 3d
       -0.0022723519 0.03279962 -0.0149711445 0.044529144
0000a0 5a 2c c4 bd 2a d3 88 bd 19 02 50 3d 3b bc c3 3d
       -0.09578772 -0.06680901 0.05078325 0.095573865
0000b0 87 d6 96 3d 70 ea c3 3b 5f d7 0e 3c cf 4d be bc
       0.073651366 0.005978875 0.008718341 -0.023230461
0000c0 a4 30 00 3c 72 60 64 3c 61 0a 82 3c 65 3d be 3d
       0.007824097 0.01393901 0.01587409 0.09289054
0000d0 fd 3c 44 bd 60 3a d7 bc 4b cb 0f bd b7 6c 34 bd
       -0.047909725 -0.026272953 -0.035105985 -0.04404899
0000e0 f5 55 88 bc ba 75 80 3d 6c c5 23 3d 9a 13 08 3d
       -0.01664255 0.062724546 0.039983198 0.03322182
0000f0 bf 19 a4 3c d2 ed 0d 3d 32 0b a1 3a 0b ae e2 3c
       0.020031808 0.03465063 0.0012286662 0.02767088
000100 48 7c 4d 3c 43 ba 0d 3c f3 6f e6 3d 28 6b b6 bc
       0.012541838 0.008650365 0.11251821 -0.022267893
000110 af 21 58 bb f8 b7 1f 3c 3e 04 33 bd b5 4c 9e bd
       -0.0032979061 0.009748451 -0.043705218 -0.077294745
000120 0e 90 55 bd a7 b4 ec bb 3d 20 3e bd 58 da 33 bd
       -0.052139334 -0.007223684 -0.046417464 -0.0439094
000130 26 5b c3 3b 6e 7c 66 ba 30 81 6d bc cb 04 22 bc
       0.0059617935 -0.0008792345 -0.014496133 -0.009888838
000140 39 93 5c 3b 87 8e d4 3c 1d 39 b3 3c a1 2c 98 3c
       0.0033657087 0.025946869 0.02187782 0.018575968
000150 c8 ac be 3c 90 c3 ee bb f6 73 75 37 f1 08 0b 3c
       0.023275748 -0.0072864965 1.4630137e-05 0.0084860185
000160 a6 8e 21 bc 5d b1 5a bd 00 d5 49 bd 6e 61 b9 3c
       -0.00986067 -0.053391803 -0.0492754 0.022629466
000170 d2 ec 00 3c cb a5 73 bc 48 e5 cd 3d f7 77 76 3d
       0.007868962 -0.014871071 0.100534976 0.060173
000180 a4 e6 20 3d 99 35 7f 3d 4b cf bb bd bb b4 8a bd
       0.039282456 0.062306974 -0.09170397 -0.06772753
000190 26 59 d6 bc 18 f9 2d bc 7a 86 e1 3c cc 88 74 3c
       -0.026165556 -0.010618471 0.027529944 0.014925193
0001a0 42 6a 55 bc d5 12 93 3d 50 63 1d 3d 7e 27 a0 bd
       -0.013025822 0.07181326 0.03842479 -0.078200325
0001b0 05 cb 9e 3d 7e d5 e0 bd cb 8a 4a 3c 80 ff ad 3a
       0.07753567 -0.109782204 0.012362192 0.0013274997
0001c0 c3 15 4a bd af 5c 09 bd 78 54 8d bd aa 9f 6b bd
       -0.04933716 -0.033535656 -0.06900877 -0.057525314
0001d0 30 1b 6a bd 24 a4 8b 3d a7 aa 0f 3d 34 c0 ba 3c
       -0.057154834 0.06818417 0.035074856 0.022796728
0001e0 2d 71 5d bd 56 be 81 3d 99 be 69 bd 3f 0f 23 bc
       -0.05406301 0.06335132 -0.057066534 -0.009952365
0001f0 ae 4b 91 bb 4e 80 20 bc 03 9a 53 bc af 9d ed 3c
       -0.0044340705 -0.009796215 -0.012915137 0.029005853
000200 dc 7a ec bc d7 f0 a0 3c 24 6a 68 bd f3 c8 84 bc
       -0.028867178 0.019646091 -0.05674185 -0.016209101
000210 5a 4a e4 3a 2b 38 01 bd a4 a3 1d bd bc cd fa 3b
       0.0017417178 -0.031547707 -0.038486138 0.00765392
000220 cf 48 7a bb b3 4f 9e b9 05 85 4a 3c 06 8d f3 bc
       -0.003819037 -0.0003019549 0.012360816 -0.029730331
000230 db 7b ca bc cc 9f f6 3b 24 cb a5 3c e4 49 d2 bd
       -0.024717262 0.0075263735 0.020238467 -0.10268
000240 bb 24 c6 3d 6c b8 7f 39 8a 18 33 bd c2 48 ec bc
       0.096749745 0.00024387398 -0.043724574 -0.028843287
000250 6c 25 a3 bd 2d 24 2e bd da eb 02 3c a0 f4 2c 3d
       -0.07966122 -0.04251497 0.007990802 0.04222548
000260 8e 17 99 3d 85 90 23 3b e1 92 f4 3a d0 09 2a 3c
       0.07475196 0.0024957967 0.0018659496 0.010378316
000270 aa 6c 28 bd 46 cb 60 bd f7 67 16 3c fc 5c 38 3c
       -0.041119255 -0.054881357 0.009180061 0.011252638
000280 60 ae 6f 3d 83 1f 90 3d 98 7e bd 3d 1b 9a 79 3d
       0.058515906 0.070372604 0.092526615 0.060937982
000290 70 2f 2d 3d 5d 79 9e 3c a5 30 1c 3c 07 ed 96 3c
       0.042281568 0.01934498 0.009533082 0.01842357
0002a0 89 ca 46 3c 0c 7a 6c 3c b6 6c d7 3c c1 cd 70 bd
       0.012133249 0.014433395 0.026296955 -0.058789972
0002b0 8c ee 90 bc 67 61 d0 bd dd 25 5d bd 13 1d 08 bd
       -0.017691873 -0.10174828 -0.053991187 -0.033230852
0002c0 a7 f6 8c 3c 48 ba f6 3c 69 ab b6 3a 61 31 af bc
       0.017207457 0.030118123 0.0013936582 -0.02138585
0002d0 49 8c 7f bd cf e5 1c bd c8 e3 c2 bc 72 00 30 bd
       -0.062389646 -0.0383051 -0.023790255 -0.042969175
0002e0 d3 eb 1b bc 85 35 a3 bb 67 63 09 bd eb 1d b7 bd
       -0.009516674 -0.0049807453 -0.033542063 -0.08941253
0002f0 da 05 a1 bd 55 fd d6 3b 19 b2 35 bc d6 59 e5 3b
       -0.07862444 0.0065609613 -0.011089825 0.0069992347
000300 0c e7 33 3d 92 07 30 3b bd 60 d6 3b a0 9c 70 3d
       0.043921515 0.002685998 0.006542294 0.05874312
000310 1a 14 74 3d 91 56 82 3d 48 37 bc 3d 81 a7 7c 3d
       0.059589483 0.063641675 0.091902316 0.06168318
000320 a5 3c 6f 3d 8b b8 aa 3d 4d 3e 88 3d a1 74 b7 3d
       0.058407445 0.0833598 0.06652508 0.08957792
000330 b1 e5 b3 3d f2 e6 76 3d 6d 1b 65 3d f8 db 8f 3d
       0.087840445 0.06027884 0.05593436 0.070243776
000340 34 7d cc ba 6f 4f 03 bd f6 54 38 bc 8e d6 3d 3d
       -0.0015601278 -0.032058176 -0.011250725 0.046347193
000350 9a c8 2c 3d 1d e7 b4 3d 6e bd 4e bc 8b e7 67 bc
       0.042183496 0.08833144 -0.012618406 -0.014154325
000360 37 62 00 be 83 e5 07 bd b9 27 ba bc d3 61 12 3d
       -0.12537466 -0.033177864 -0.02272402 0.035737824
000370 d2 58 36 3d 9a d5 a2 bc 00 58 8c 3c 24 20 f9 3c
       0.0445183 -0.019877244 0.017131805 0.030410834
000380 db 9a 72 bd ba f0 a1 bc df fd 4e 3c e6 e0 da bd
       -0.059229713 -0.019768108 0.01263377 -0.10687427
000390 51 01 57 3d bb 0c 04 3d 05 7d 84 3c f1 ae 8c 3c
       0.05249149 0.032238703 0.016172895 0.017173262
0003a0 c9 75 a8 bd da db 6b bc d1 89 ca bc 58 19 de bc
       -0.08225591 -0.014395678 -0.02472392 -0.027111694
0003b0 6e 25 3f bd 0a fb 2d bd 12 ad 4f 3c 47 e9 09 3c
       -0.046666555 -0.042475738 0.0126755405 0.008417434
0003c0 c3 87 ab 3d 97 b0 7d 3d 1d 51 76 3d 38 ea 81 3d
       0.08375504 0.061935987 0.06013595 0.06343502
0003d0 37 3d a6 3c 60 4e e6 bc e5 f6 47 3d 90 44 18 3c
       0.020292861 -0.028113544 0.04881944 0.00929369
0003e0 43 de 84 3b 88 d3 7f 3c 98 76 33 3b 24 c2 ab bc
       0.004054816 0.015614398 0.002738392 -0.020966597
0003f0 9a 63 4b 3c 45 69 b1 3c da 78 ef 3b 80 52 b9 3c
       0.012413884 0.021656642 0.007308108 0.022622347

dense1.bias f4 [100]
000000 30 87 d8 bc 1a a4 ca bb 4f 7e db 3d 1a a1 e3 ba
       -0.02643165 -0.006184113 0.10717451 -0.0017366738
000010 8e f4 2b bd 09 1c 4d bd ae 37 9a bd 5a 74 a1 bc
       -0.041981272 -0.050075565 -0.07530151 -0.019708801
000020 df 30 08 3c d1 20 0e 3d 03 9f 99 bc 66 12 b1 3b
       0.008312433 0.034699265 -0.01875258 0.0054038046
000030 d3 a7 81 3b d2 31 27 bc 97 26 4a bd 3a 96 f3 bb
       0.003956774 -0.010204749 -0.04935321 -0.00743368
000040 63 3d 1e bc f6 e7 95 3c 38 b1 63 bc d5 ff 72 bc
       -0.00965819 0.018299084 -0.013897233 -0.014831503
000050 63 3c 8b 3d 6a 98 65 bc 68 fb 7b bd 02 4f e5 3c
       0.06798627 -0.014013389 -0.061519057 0.027991775
000060 8a fe ab bc 0b 15 92 3d d3 5d 2e bd 86 39 66 3c
       -0.020995397 0.0713292 -0.042569946 0.014051801
000070 a9 bb 12 bd ca e5 2a bd fe ad cc bb da 95 2b bc
       -0.035823498 -0.04172305 -0.0062463274 -0.010472739
000080 3e be 41 bd d6 64 a0 bd 64 9f fe 3c 41 fb c3 3b
       -0.04730057 -0.07831733 0.031081863 0.0059808795
000090 f1 fe eb bc 12 94 3f bd f8 49 39 bc fe b3 d0 bd
       -0.028808089 -0.04677207 -0.011309139 -0.10190581
0000a0 1f a4 e2 3a 2b 26 24 bd 5f b5 61 3c 72 f1 01 3d
       0.0017291344 -0.040075462 0.013776152 0.0317244
0000b0 83 33 5c bd 00 4e 1e 3d 93 96 39 3d de 27 61 bd
       -0.053760063 0.038648605 0.045309614 -0.05496966
0000c0 13 05 86 3c 0f ae 03 bd d5 99 77 3d 64 66 af bc
       0.016359841 -0.032148417 0.06044944 -0.021411128
0000d0 14 b0 cd bb 8f d3 52 bd 03 51 1d bd 3c 79 83 3c
       -0.0062770937 -0.05147129 -0.038407337 0.01604902
0000e0 2a 51 8f bc 2f 73 e6 b9 5f 60 bb bc 8f cd 44 3c
       -0.017494757 -0.00043954837 -0.022873102 0.0120119
0000f0 4a 1d 45 3c 1a 00 b2 3c 9b 74 7c bc e2 c2 29 bd
       0.012030909 0.021728564 -0.01540866 -0.04144562
000100 df 77 b3 bc ff 1b 30 bd 7f 0b 9c bc 3d e2 1e 3d
       -0.021907745 -0.04299545 -0.01904845 0.038789976
000110 16 ea ab bd 60 51 17 3d ed bf 94 bd f8 0d 0c bd
       -0.08394258 0.03694284 -0.072631694 -0.03419301
000120 70 79 e8 bc 44 6c b6 bc 28 22 01 bd fe 5a 63 bd
       -0.028378218 -0.022268422 -0.031526715 -0.0555067
000130 bb 27 02 bd 25 13 08 3d 11 d2 72 bc 9e 92 02 bc
       -0.03177617 0.033221383 -0.014820592 -0.007969527
000140 d9 93 63 3d 38 b7 34 3c 18 b6 d1 3c 26 28 2d 3d
       0.05556092 0.011030011 0.025599524 0.042274617
000150 2c 91 60 bd b3 dc e2 bc 84 0d c2 3c 50 37 d7 bc
       -0.054825947 -0.027693128 0.023688085 -0.026271492
000160 e2 50 a0 bc cc a2 0e bb 29 18 06 3d 6e da 26 bc
       -0.019569818 -0.0021764515 0.032737885 -0.010183914
000170 95 25 8a bc 18 3e a8 bb fb 66 16 bd da b3 8e 3c
       -0.016863624 -0.0051343553 -0.036719304 0.017419744
000180 17 90 9f bc 8f 05 bd 3a e4 31 ca bc eb aa db 3c
       -0.019477887 0.0014421212 -0.024681993 0.026814898

dense2.weight f4 [33, 100]
000000 27 13 6b 3d 7a 29 ef 3d 4c 1b 17 be b1 8d ea ba
       0.057391312 0.11677833 -0.14756507 -0.001789501
000010 93 80 3c 3d 15 15 aa bd de 70 37 bd de cd 98 3d
       0.046021055 -0.08304802 -0.044785373 0.07461141
000020 40 e3 09 be d5 71 35 be 17 0f 60 bd 1a c2 02 3e
       -0.13465595 -0.17719205 -0.05470189 0.12769356
000030 5b 32 c2 bd 7e 0e 0e be c8 e8 ad 3c a4 ae 93 3d
       -0.09482261 -0.13872716 0.021229163 0.072110444
000040 08 bf 85 3d f8 a9 86 bd 11 e2 fa bd bd 24 1f bd
       0.06530577 -0.06575388 -0.1225015 -0.038853396
000050 d7 19 85 be 18 35 9e 3d b9 3e cc bd 1f 71 25 bd
       -0.25996277 0.077249706 -0.09972901 -0.040391084
000060 51 17 ac bd 88 c2 b2 3d 10 23 36 bd e4 32 eb 3d
       -0.08402885 0.0872851 -0.044467032 0.11484316
000070 8b fe 89 bd 78 ff f7 bc fb 64 12 be 45 b0 2d 3c
       -0.06738003 -0.030273184 -0.14296333 0.010601108
000080 6e ee 0d 3e 53 79 ba 3d 58 b1 87 bd 6d 48 5f 3c
       0.13860485 0.09105172 -0.066256225 0.0136281075
000090 da c8 b2 bc 6b 39 6e bc 68 af de bd ed 39 37 3d
       -0.02182429 -0.014540057 -0.108733 0.044732977
0000a0 a6 ef 8c 3d ef 8a 10 be 14 e9 82 bd 1b ce b0 3c
       0.06881647 -0.14115499 -0.063921124 0.021582654
0000b0 36 eb 73 bc f2 7f 95 bd 59 4a e6 bd 34 ab 4e 3b
       -0.014887622 -0.07299794 -0.112446494 0.003153515
0000c0 91 2f 9d bd 72 e3 aa 3d 44 51 c5 bd 71 b3 20 3b
       -0.07675088 0.08344163 -0.09634641 0.0024521018
0000d0 84 a8 01 be 41 c6 0d 3e 62 eb d6 bc 58 14 d5 bd
       -0.1266194 0.13845159 -0.026235286 -0.10404271
0000e0 52 91 20 3c 7f 68 45 bd ad 72 17 bd 93 84 c5 3d
       0.009800272 -0.04819536 -0.036974598 0.09644427
0000f0 c2 7b 2d 3d b5 46 41 bd 02 3b ea bd b8 06 7b 3d
       0.042354353 -0.047186572 -0.11437036 0.061285704
000100 78 86 38 be af 05 19 be a2 8c a4 3c f4 e0 bb 3d
       -0.18020046 -0.14943574 0.02008659 0.09173766
000110 25 81 c4 bd 52 fc a2 bd 1c 2c 05 bd 13 10 08 be
       -0.09594945 -0.079582825 -0.03251277 -0.13287382
000120 ca fa d6 3d 27 15 20 bd 9e 1a 17 bd fc 75 8a bb
       0.10497053 -0.039082672 -0.03689062 -0.0042254906
000130 e3 73 d3 3c 14 d1 ff bd a7 f9 bd 3c 40 8c ea bd
       0.025812095 -0.1249105 0.023190333 -0.11452532
000140 62 67 06 3c 06 33 5f be d6 2e eb bd 68 a3 3b be
       0.008203359 -0.21796808 -0.114835426 -0.18324053
000150 e8 f2 cb bc 71 09 d4 3d 05 e1 b1 3d a6 a6 b4 bd
       -0.0248961 0.10353363 0.08685497 -0.08820848
000160 6f a4 28 be 15 a9 23 be 33 c3 39 3d 5b 9b c5 bd
       -0.16468976 -0.15982468 0.045352172 -0.09648772
000170 47 89 f4 bd d4 81 33 3d f8 e7 1b be 31 cd f5 bd
       -0.11940246 0.043824986 -0.15225208 -0.12002028
000180 b0 d6 12 bd 54 0d d1 3d e9 e1 05 be b7 cf 37 be
       -0.035849273 0.1020762 -0.13074459 -0.1795033
000190 2e df d1 bd 31 1a d2 bd c8 24 0a 3d cf d3 2f 3d
       -0.10247646 -0.10258902 0.033726484 0.042926606
0001a0 a5 9f ef bd 88 a9 8c 3d 2a 4e 30 3d eb e5 28 be
       -0.11700372 0.06868273 0.043043293 -0.16493957
0001b0 2a b6 d8 3b db 6f 0a 3c a2 79 0a bb 2c 43 19 be
       0.0066135125 0.00844952 -0.0021129628 -0.1496703
0001c0 b1 a3 d4 39 a3 e3 22 3d 00 2e d2 bc e8 97 c3 3b
       0.0004055775 0.039767873 -0.0256567 0.0059690364
0001d0 aa ec f2 bc e5 fc 48 3c e1 af b6 3c 0b a3 91 bc
       -0.029653866 0.012267326 0.022300662 -0.01777794
0001e0 0d e6 a0 bd f3 d1 f3 bd 2f e2 96 bd dc 8d af bd
       -0.07856379 -0.11905279 -0.0736736 -0.085719794
0001f0 ab 85 0f be d4 ea 5d bd fd bc 8d bc a0 66 6d bc
       -0.14015834 -0.054179028 -0.01730203 -0.0144898
000200 de c2 25 be 88 ee a4 bd a5 16 f6 bd d7 87 d2 bd
       -0.16187617 -0.08053309 -0.12016038 -0.10279816
000210 e0 b4 74 bd 25 02 4b 3d 67 04 c4 bd f0 bd 8a bc
       -0.05974281 0.049562592 -0.09571152 -0.016936272
000220 5b ce 09 bd 6c a7 46 3b 68 d9 8e 3c ed 0b 24 3c
       -0.03364406 0.0030312194 0.017437652 0.010012609
000230 cd 2e 35 be e6 9c 86 3d 52 06 c0 bd f4 c6 59 3c
       -0.17693634 0.06572895 -0.093762055 0.013292063
000240 24 e7 13 be 1a 4a 13 bd 46 96 c7 bc 6f 03 94 bd
       -0.14443642 -0.03595934 -0.024363648 -0.072272174
000250 eb d5 8c 3c 46 78 d2 3c 13 89 3b bd 41 ba bf bd
       0.017191848 0.025692116 -0.04578502 -0.09361697
000260 4e 5b 98 3c 93 0f 0b 3d 87 89 92 3d 81 1e 1d 3d
       0.018598225 0.0339504 0.071551375 0.03835917
000270 b2 26 0b 3c 8c 3d 1c be ea db d5 bd aa 7f ad bd
       0.008493112 -0.15257853 -0.10442336 -0.084716156
000280 17 49 8f bd 6e 6a 39 3d 93 0a 0f bd fd ea d7 bd
       -0.06996363 0.045267515 -0.034922194 -0.10542867
000290 b6 66 0a be c2 36 f0 bd 71 da ea 3c c8 3b e2 ba
       -0.13515744 -0.11729194 0.028668614 -0.0017260248
0002a0 03 52 d1 bd 45 30 30 bd a1 31 e3 bd 08 af e4 bd
       -0.102207206 -0.043014783 -0.1109345 -0.11166197
0002b0 1b 4d 24 bb 01 b2 05 3d 69 1f 80 3d 41 b8 5e bd
       -0.0025070373 0.03264046 0.06255991 -0.054374937
0002c0 27 74 b7 bc f3 d3 63 be 81 d3 fb bd 67 33 8e bd
       -0.022394253 -0.22248821 -0.122962005 -0.06943398
0002d0 44 6e 8b bc 9f ea 4f bd 2a 2d b3 bd a5 49 b7 3c
       -0.017020352 -0.05076086 -0.08748849 0.022373984
0002e0 5d 29 8e 3d 7b af 33 bb 78 ef 92 bd a1 2a 1b bd
       0.06941483 -0.0027417827 -0.07174581 -0.03788245
0002f0 8f 10 a2 bd eb c0 ef bd 1d a4 8f bd 43 a9 18 3d
       -0.079133146 -0.11706718 -0.07013724 0.037270796
000300 1c 66 0e be 0d 78 4e bc f4 b3 8a bd 54 e4 57 bd
       -0.13906139 -0.0126018645 -0.067726046 -0.052707985
000310 b1 31 06 be e6 9e 96 bd a9 7d ed bd 08 31 16 be
       -0.13104893 -0.07354526 -0.115962334 -0.14667141
000320 83 38 e7 bd a4 f5 66 bd 61 33 c9 bd 0e 56 32 3d
       -0.11290076 -0.056386605 -0.09824253 0.0435391
000330 93 5b fb 3c 44 50 19 3d 2e 3c 8c bd a2 1e 9f 3c
       0.030683314 0.037430063 -0.06847416 0.019423787
000340 e8 2d c0 bd 05 de 2e bb 14 23 7b bd ec 57 e5 bd
       -0.09383756 -0.0026682627 -0.06131275 -0.111984104
000350 da 2c b4 3c f5 91 bf bc 25 c6 ca bd fa a0 2f bd
       0.021994043 -0.023385027 -0.09901074 -0.04287813
000360 a0 f6 78 3b 7d 19 dc bd 80 c5 99 bb c4 77 91 bd
       0.0037988797 -0.10747049 -0.0046927333 -0.071029216
000370 bc 21 50 bd 75 39 74 bd 6e 2e fa bd 4e a2 aa bd
       -0.05081342 -0.059625108 -0.12215887 -0.083317384
000380 8c f3 c1 bd 4f 36 53 3c ce f7 3e 3c 96 53 f8 bd
       -0.09470281 0.012891366 0.011655761 -0.12125318
000390 e6 59 05 be ea c6 b3 bb ba 2e e7 bd 52 90 a6 bd
       -0.13022575 -0.005486359 -0.11288209 -0.08132996
0003a0 88 6e b4 bd 45 e2 f1 bd 4c 68 b6 bd a7 97 30 3d
       -0.08810145 -0.118107356 -0.08906612 0.043113377
0003b0 f0 0d 23 be e0 4e 1e 3b 16 dd 20 be 4a 21 45 3d
       -0.15923285 0.00241559 -0.15709338 0.04812745
0003c0 50 dd 3d bd 08 4f 9c bd 18 ef d9 bc aa a7 b0 bc
       -0.04635364 -0.076322615 -0.026603267 -0.021564323
0003d0 e6 78 3f bd 5f 9c ea bb a5 bf 13 be 99 23 f6 bd
       -0.046746157 -0.007159754 -0.14428575 -0.120185085
0003e0 38 b6 18 3d 93 8c 86 bd 39 16 94 3c 70 6e 5d bd
       0.037283152 -0.06569781 0.018077003 -0.0540604
0003f0 37 f5 ba bc f0 2f 1c bd b4 1d 8c bd 36 62 79 bd
       -0.022822006 -0.038131654 -0.06841603 -0.060884677

dense2.bias f4 [33]
000000 97 11 cd bd bb 25 2e be dc 68 e9 3c 4f cb 4a 3c
       -0.100131206 -0.1700658 0.028492384 0.012377574
000010 d8 14 e4 bd ca 9d b0 3c f7 49 fb bd 14 99 51 3d
       -0.11136788 0.021559615 -0.12269967 0.051171377
000020 a9 f9 9e 3d c9 b4 d5 bd 55 a9 95 bd f0 15 16 be
       0.07762463 -0.10434873 -0.07307688 -0.14656806
000030 a1 f9 d7 bd b0 bb a7 3b 7a a3 4f 3c 79 e7 c3 3d
       -0.1054566 0.0051188096 0.012673253 0.09565634
000040 69 d5 02 3d d3 7b 75 3d 5b b5 fb bc 66 c4 da 3b
       0.031941805 0.05993254 -0.030726125 0.0066762445
000050 1a a0 09 3d ae b5 c8 bd dd 4a c4 3d a5 26 1c bc
       0.03359995 -0.09800278 0.095845915 -0.009530698
000060 1c d4 d1 bd 19 13 a7 3d fc e3 4b bd 21 2e b1 bd
       -0.10245535 0.081579395 -0.04977797 -0.086513765
000070 77 fd 78 bd c6 10 9e bc b9 03 0b be ed ac 84 3c
       -0.060788598 -0.019295108 -0.13575639 0.016195739
000080 31 41 7b 3d
       0.06134147
