ResNet-PyTorch/ResNet/pnet.pth (torch, 688136 bytes, 10 tensors)

conv1.weight f4 [128, 1, 5]
000000 b9 3a 14 be 2e 36 6b 3e 38 9f 66 3e 15 4d d3 3d
       -0.14475526 0.22969887 0.22521675 0.103174366
000010 80 81 d3 3e ce 1c b2 be e6 32 fc bc 88 1b 4a 3e
       0.41309738 -0.347876 -0.030785989 0.19737065
000020 94 35 56 3e 5c 14 78 3d 05 e4 91 3e ac 31 cb be
       0.20918876 0.06056629 0.28494278 -0.39686334
000030 53 b7 b3 3d 92 66 ec be 8f 17 03 3e 73 85 c3 3e
       0.08775201 -0.46172005 0.12801956 0.3818775
000040 76 28 df 3e 5b d0 de 3e 51 a4 ba be 65 75 db 3e
       0.43585557 0.43518338 -0.36453488 0.42863002
000050 ea 2e 31 3e 52 40 a6 3e eb 53 f3 be 86 6e 8c be
       0.17303053 0.32470948 -0.47524962 -0.27428073
000060 85 f9 64 3d 50 fd 94 3e 29 35 f9 be 6b f0 13 3e
       0.055902023 0.29099512 -0.4867337 0.14447181
000070 4c 64 b7 bd c3 2c a8 3e cd c7 31 3e 31 2b 68 3e
       -0.08954677 0.3284665 0.17361374 0.22672726
000080 c7 22 9f 3c 21 02 86 be 3b 23 11 bd 74 15 b8 be
       0.019425763 -0.261735 -0.03543399 -0.35953867
000090 f4 18 44 bc 52 fc 70 3e b5 7a d3 bc a5 ff 21 3d
       -0.01196884 0.23533753 -0.025815347 0.039550442
0000a0 6f 18 76 3e e3 e1 cb 3e 32 0a 33 3e 5b e7 bd be
       0.24032758 0.39820775 0.17484358 -0.37090573
0000b0 e1 94 ba be 95 7e b1 3e 47 08 17 be 80 dc 36 3e
       -0.3644171 0.34666887 -0.14749251 0.17857552
0000c0 6e c2 89 3e 60 38 5a be e5 58 80 bc 37 5c 7e 3e
       0.2690615 -0.21310568 -0.015667388 0.24839865
0000d0 55 2f 8f bd ed 23 80 3d 8f 4a 7c be 11 39 5f 3e
       -0.0699145 0.06256852 -0.24637817 0.21799113
0000e0 2e 43 2a 3e 07 cc 3f 3e b5 8f ae bd 8c 55 ed be
       0.1662719 0.18730174 -0.08523504 -0.4635433
0000f0 9a 3a aa be a8 20 a6 be 34 57 f8 bd 39 9a c5 3d
       -0.33247834 -0.3244679 -0.12126008 0.09648556
000100 44 5e ff 3d 5d 00 cf 3e 23 c0 1a be 46 20 2f 3e
       0.124691516 0.40429965 -0.15112357 0.17102155
000110 de b4 2f be 96 02 5e 3e da 18 91 bd 8b 3d 8a be
       -0.17158839 0.21680674 -0.07084818 -0.2700008
000120 38 c9 29 be ab d6 40 be 86 5e b2 be 20 52 e2 3d
       -0.16580665 -0.1883189 -0.3483774 0.1105082
000130 61 1f 3e be 91 ae 3f be 49 69 d6 be 52 7b 10 be
       -0.18566658 -0.18718936 -0.418772 -0.14109543
000140 7b 6a 0e 3f f1 f2 b6 3e 16 b1 04 be e2 c9 3d be
       0.55631226 0.35732225 -0.12958178 -0.18534043
000150 c2 92 a5 3e 19 b5 53 3e 7a a7 c4 be 9b b9 ae be
       0.3233853 0.20674552 -0.38409024 -0.3412598
000160 94 44 a7 3e 9d f5 09 3e 36 ca ba 3e e4 8f a9 3e
       0.32669508 0.134726 0.364824 0.33117592
000170 8b e3 78 3d 6a 08 e0 3d 4b c4 3c be 91 76 02 be
       0.060763877 0.10939105 -0.18434255 -0.12740542
000180 ed c5 14 3e a3 62 28 3d f6 c5 ba 3e 76 11 dd be
       0.14528628 0.041109692 0.36479157 -0.43177384
000190 c8 47 40 3e 40 93 5e 3e 26 94 c6 be 3f ac 06 3f
       0.18777382 0.21735859 -0.38784903 0.52606577
0001a0 43 df fa 3e e9 a6 cc 3e 12 25 9e 3e b4 80 03 be
       0.4899846 0.39971092 0.30887657 -0.12842065
0001b0 cc a8 c9 bd fe 7f f8 3d ac 36 22 3e d6 32 b8 be
       -0.098466486 0.121337876 0.15841168 -0.35976285
0001c0 f9 e5 54 3d 36 13 ad 3e bd d4 8e be fd a7 c6 bd
       0.05197713 0.3380372 -0.2789668 -0.0970001
0001d0 74 44 cb 3e 02 02 8b bd 28 1a ca 3d e8 7a e5 be
       0.39700663 -0.06787492 0.0986827 -0.44820333
0001e0 cb 57 89 3e 3a 09 e3 be 46 b5 de 3c ab a4 c8 3d
       0.26824793 -0.44342977 0.027186047 0.09797033
0001f0 4f a6 f0 bd 4c a3 02 be df 03 b7 be f5 2a 9b 3e
       -0.11750471 -0.12757605 -0.3574514 0.3030621
000200 53 ea 49 bd fb e5 40 bd c5 27 59 be 46 d5 54 3d
       -0.049295735 -0.047094326 -0.21206577 0.051961206
000210 88 6e a0 3e 37 a5 bf bd 98 52 b0 be 82 14 1a be
       0.3133433 -0.09357684 -0.34438014 -0.15046886
000220 82 c2 74 be 10 e2 b5 3e b8 e8 2b 3e 8f 89 5a be
       -0.23902324 0.35524035 0.16787994 -0.21341537
000230 4d f3 53 bd cc 89 84 3e be b5 a4 bc c6 ba 9d be
       -0.0517457 0.2588638 -0.020106193 -0.3080656
000240 7e 6a fa bd 16 f9 3c 3e 39 14 e5 3e af d9 ee bd
       -0.12227343 0.18454394 0.4474199 -0.116626136
000250 ed 83 ec 3d 5f 91 5e be 98 c7 17 bd 64 2b 3a be
       0.115486 -0.21735142 -0.03705558 -0.18180615
000260 ba 34 4c 3e 80 b1 0a 3e 89 6d 43 be 4c f9 71 be
       0.19941989 0.13544273 -0.19084753 -0.23630255
000270 ec b9 85 be fe 50 11 3e fe e9 ff bd d9 29 af 3e
       -0.2611841 0.14191052 -0.12495802 0.34211615
000280 0f 6b 14 be 44 7c ef 3d 2e b3 45 3e 85 fd a7 3d
       -0.14493965 0.11693624 0.19306633 0.08202652
000290 5f 58 98 be 6a aa 74 3e 7c a1 a2 be fa bc 96 3d
       -0.29754922 0.23893133 -0.31763828 0.07360263
0002a0 51 e5 8f 3d 12 80 e9 bd 2c 90 df 3e 03 c8 96 3d
       0.070261605 -0.114013806 0.43664682 0.07362368
0002b0 f2 14 6d be 55 9a 19 3e 90 1f ff bd f3 12 52 3e
       -0.23152521 0.15000279 -0.12457192 0.20515041
0002c0 a8 1c b6 3d 07 c2 95 3e 31 56 10 3f f3 ee 27 3e
       0.088921845 0.29249594 0.5638152 0.16399746
0002d0 5b e3 b4 3e 15 d0 51 be e6 9c 72 be 64 98 9c be
       0.35329708 -0.20489533 -0.23692665 -0.30585015
0002e0 a4 1e 48 be 77 3f b8 3e 75 a1 d7 be af 7d 9c bc
       -0.19542938 0.3598592 -0.4211537 -0.0191029
0002f0 2a c3 58 bd 65 e3 5e bd 93 14 dc be 92 6d fa be
       -0.052920498 -0.05441608 -0.42984447 -0.4891172
000300 0c 3c c9 be 62 1f 92 ba 5a 72 c4 3e 62 55 25 3e
       -0.39303625 -0.0011148269 0.38368493 0.16145852
000310 0c 0f 3c bd a4 48 84 be 63 13 80 3e 92 67 00 be
       -0.045912787 -0.2583667 0.2501479 -0.12539509
000320 fa bc 8e 3e a2 3f e7 be 40 61 4d be 5c a4 58 be
       0.27878553 -0.45165735 -0.20056629 -0.21156448
000330 6f 7d e2 3e b0 49 86 3d fe 35 04 3e b3 3b 47 be
       0.44236323 0.065570235 0.12911221 -0.19456367
000340 00 52 ed 3c fe d1 6b be 90 27 c1 be fc 90 79 3e
       0.028969765 -0.23029324 -0.37725496 0.24371713
000350 5d d8 75 3e 1b 97 c0 3e f4 e9 40 be 68 3a e9 3e
       0.24008317 0.37615284 -0.18839246 0.45552373
000360 2c a9 2e 3e 3e f8 51 be a7 ba b6 3e 5b 32 7a be
       0.17056721 -0.20504853 0.3568928 -0.24433272
000370 20 61 b2 3e c7 2e e8 bd e2 57 f2 3e 7c 10 b3 be
       0.34839725 -0.11337047 0.47332674 -0.34973514
000380 8d 4f 20 3c a4 42 09 be 1d c7 bf 3e ea e6 f9 3e
       0.009784591 -0.13404328 0.374566 0.48808986
000390 d9 44 b1 bd bb a4 70 3d 28 17 5f be a7 33 8a be
       -0.0865571 0.05875085 -0.21786177 -0.26992533
0003a0 2d a1 db 3e 61 31 ba 3e 4a c6 5b be 6d 6b 7f be
       0.42896405 0.36365798 -0.2146236 -0.24943323
0003b0 c9 3e 03 3d f0 74 9f 3e 72 e0 a2 3e ae ca 49 3e
       0.0320423 0.31143904 0.31811863 0.19706222
0003c0 95 2d 00 3f 98 55 a4 be c7 38 95 be b3 96 9b be
       0.5006955 -0.32096553 -0.2914488 -0.30388412
0003d0 7c 07 b6 3d f7 f9 8d bd 05 d8 93 3e 40 d7 96 3e
       0.08888146 -0.06932443 0.28875747 0.29461098
0003e0 0c 95 4c bc 56 da 91 be 4e c7 e0 be 06 25 65 3e
       -0.012486707 -0.2848689 -0.43902057 0.22377405
0003f0 43 84 3d 3d 75 04 d6 3e d8 f1 71 be aa 9f f7 3e
       0.046268713 0.41800275 -0.23627412 0.48364002

conv1.bias f4 [128]
000000 6f c6 cc bd 40 7c 2a be 16 db ca 3d 08 15 f8 3d
       -0.09998786 -0.1664896 0.099050686 0.121133864
000010 41 62 cf be b7 c1 f1 be 18 53 ec bc 5b 2e d3 3e
       -0.4050465 -0.47218105 -0.028848216 0.41246304
000020 fc b7 b7 be ac d0 07 3d cc 87 be be d8 0d 89 3e
       -0.35882556 0.03315799 -0.3721298 0.26768374
000030 6a 24 26 be fc 8a f6 be d8 f0 89 3d df 0f c4 3e
       -0.16224828 -0.48152912 0.067353904 0.3829336
000040 6f de 13 3e fb de 26 bd fd 1e b0 3e 59 45 ad be
       0.1444032 -0.040739994 0.34398642 -0.3384197
000050 b5 7a 23 bd 5e bf a8 be 47 c4 66 be 48 cb b4 3e
       -0.039911944 -0.32958502 -0.22535811 0.3531134
000060 c3 c9 9a 3e d4 23 93 3e 5e af 1b be 82 4c 73 be
       0.30232057 0.28738272 -0.15203616 -0.23759654
000070 a3 7a 59 be 0a b2 b4 3e e3 f8 bc 3e 3a 53 da bc
       -0.21238188 0.35292083 0.36908635 -0.026651014
000080 b4 8e 52 be e3 61 86 be 86 b9 b7 be d1 d7 81 3e
       -0.2056225 -0.26246557 -0.3588373 0.25359967
000090 17 a4 c4 3e d5 89 26 3e cc a1 a9 3e 4d 42 c8 be
       0.3840644 0.16263516 0.33131254 -0.39113083
0000a0 12 18 6e bd fe 2a f1 be 30 77 6a be 01 69 8c be
       -0.058128424 -0.47103113 -0.22897029 -0.27423862
0000b0 cc 48 da be 49 31 ef 3c 61 ba 99 bd 8f 62 29 3d
       -0.42633665 0.029198306 -0.07506252 0.04135376
0000c0 4c 5c 59 3d 07 ef 98 be 56 70 63 3e b5 bf d0 3d
       0.053066537 -0.29869863 0.22210822 0.10192815
0000d0 ac c9 37 be ea 52 99 be ce 57 84 3e 71 ab e4 be
       -0.17948025 -0.2994607 0.2584824 -0.4466205
0000e0 f0 e1 9d 3e 62 a3 60 3e 76 cf c2 be 94 ef cf 3d
       0.3083644 0.21937326 -0.38048905 0.10153118
0000f0 ed 78 b0 be cc 5c a0 bc 23 2f 8f 3e cb a5 08 3d
       -0.3446726 -0.019575499 0.2796565 0.033361237
000100 f7 0f 85 3e 49 c6 e0 be 98 ba b5 3e 0b 14 5a 3e
       0.25988743 -0.4390128 0.35493922 0.21296708
000110 be b8 99 3e ff 6f 27 3d 2a b1 4f be 6d 20 ad be
       0.3002376 0.040878292 -0.20282426 -0.338138
000120 ce ad c0 be 7d 18 2a 3e 22 c7 5a 3e 15 68 e0 3d
       -0.37632602 0.16610904 0.21365026 0.10957352
000130 62 0e d2 bd 3c 39 37 3c b6 15 36 3e 67 b7 ab 3e
       -0.102566496 0.011183079 0.1778172 0.33538362
000140 72 3e 9e bb fd ed b4 3d e2 a3 e1 3d 0a 5b 7e 3d
       -0.0048292214 0.08834455 0.11017586 0.06209854
000150 83 d2 62 be 56 f5 fb bc e5 9e c4 be a0 03 b7 be
       -0.22150616 -0.030756634 -0.38402477 -0.35744953
000160 8c c7 81 be 0c 6e 5c bc cc 85 b8 bd b8 48 b9 3c
       -0.25347555 -0.013453972 -0.09009895 0.022617683
000170 77 b1 b1 be 8e 02 4f 3e 74 f4 71 3d 94 18 d2 be
       -0.34705707 0.20215818 0.05907102 -0.41034377
000180 98 75 f4 3d 6a d1 6e 3e c9 14 a4 be e0 57 39 3e
       0.11936492 0.23322073 -0.32047108 0.18099928
000190 f5 8d 37 be f5 f4 e7 be 76 7a d2 3c f7 6d ca 3e
       -0.17925246 -0.45304075 0.02569316 0.39537022
0001a0 f5 a2 20 be 15 60 ee bd 5d 74 2f 3e d1 6e 78 bb
       -0.15687163 -0.1163942 0.17134233 -0.0037907849
0001b0 61 40 a3 3d bd 48 91 bc f2 94 d1 be 03 3d 91 3e
       0.07971264 -0.01773488 -0.4093395 0.2836686
0001c0 39 ba 8f be 9c 06 a0 3e f5 3d bb be 9e 0e b3 be
       -0.28071764 0.31255043 -0.36570707 -0.3497209
0001d0 e5 43 22 3e ec cb 4b 3e 11 f8 84 3e 67 b6 d2 be
       0.15846212 0.19902009 0.2597051 -0.41154787
0001e0 74 77 7d 3d 40 9e dd bb 6a 38 d7 be 03 b3 7f bd
       0.061881498 -0.0067632496 -0.42035228 -0.06242658
0001f0 68 ba ec be 87 c2 af be dd af cb 3e d2 53 17 bf
       -0.46235967 -0.343281 0.3978261 -0.59112275

batch_norm1.weight f4 [128]
000000 8c 18 62 3f ba c8 a7 3f 29 9c 44 3f ee f0 61 3f
       0.88318706 1.3108132 0.7680078 0.88258255
000010 89 fb 9b 3f 3d 98 87 3f 53 a0 89 3f 55 24 5b 3f
       1.2186137 1.0593334 1.0752052 0.85602313
000020 6b 1e 81 3f 25 62 42 3f 00 00 80 3f 78 3e 8f 3f
       1.0087408 0.75931007 1.0 1.1190939
000030 2c a2 41 3f e7 db 94 3f 96 95 31 3f a8 8b 27 3f
       0.7563808 1.1629609 0.69368875 0.65447474
000040 13 e9 41 3f be ba 8f 3f 57 73 42 3f 00 00 80 3f
       0.7574627 1.1228864 0.75957245 1.0
000050 cb 7e 58 3f 4b 2b 7d 3f ca 42 82 3f 98 11 43 3f
       0.8456847 0.98894185 1.0176632 0.7619872
000060 36 1d 48 3f 7a 9f 36 3f 98 c1 55 3f a0 ae 8a 3f
       0.7816957 0.7133709 0.83498526 1.0834541
000070 03 3a 7c 3f 4f 0d 3e 3f 91 ff 3d 3f 21 4e 6a 3f
       0.9852602 0.7423906 0.7421809 0.91525465
000080 7c 58 92 3f a2 ea 71 3f 48 9d 99 3f 5d 8a 4d 3f
       1.1433253 0.94498646 1.2001123 0.8028925
000090 f7 62 2e 3f 12 a4 42 3f dc 72 51 3f 00 00 80 3f
       0.6811976 0.760316 0.81815886 1.0
0000a0 a4 1d 8e 3f 41 b4 83 3f a2 1b 92 3f eb 2a 81 3f
       1.1102796 1.0289384 1.1414683 1.0091223
0000b0 4b 39 9f 3f 1d 1d 60 3f b3 a6 98 3f b8 d2 55 3f
       1.243936 0.87544423 1.1925873 0.83524656
0000c0 8f 18 60 3f 6a 5b 8c 3f 98 f7 5f 3f f3 83 50 3f
       0.87537473 1.0965397 0.87487173 0.8145134
0000d0 8b 52 73 3f a0 58 92 3f 0d 4f 38 3f 3c f9 8f 3f
       0.95047826 1.1433296 0.7199562 1.1247935
0000e0 74 14 31 3f a2 d9 2e 3f b7 b4 87 3f 4f 17 3f 3f
       0.69171834 0.6830083 1.0602025 0.7464494
0000f0 6a 96 91 3f a7 85 9e 3f fb 2b 4b 3f 0e 15 89 3f
       1.1374028 1.2384537 0.79363984 1.070955
000100 58 71 6b 3f 50 16 a7 3f 00 8c 62 3f ad 87 5e 3f
       0.91969824 1.3053684 0.88494873 0.86925775
000110 31 a2 29 3f 26 fa 93 3f 8a 24 54 3f 0a de 77 3f
       0.6626311 1.1560714 0.82868254 0.9682318
000120 ac e0 7d 3f 1b cf 90 3f fe 2b 40 3f f5 45 82 3f
       0.9917095 1.1313204 0.75067127 1.0177599
000130 63 9e 49 3f e6 aa 72 3f 41 56 3e 3f 5b ee 43 3f
       0.78757304 0.9479202 0.74350363 0.76535577
000140 23 d7 78 3f 8c c3 91 3f 85 32 6c 3f 99 95 49 3f
       0.9720327 1.1387801 0.92264587 0.7874389
000150 74 0b 96 3f 99 3e b9 3f 41 a3 5a 3f bc 03 98 3f
       1.1722245 1.4472228 0.85405356 1.187614
000160 00 00 80 3f 5b c6 aa 3f 7a 70 96 3f 92 b5 5a 3f
       1.0 1.3341783 1.1753075 0.85433304
000170 26 54 9d 3f be f3 91 3f 40 3a 8a 3f 6a 54 78 3f
       1.2291305 1.1402509 1.0799026 0.97003806
000180 bc 25 42 3f e4 81 45 3f e8 45 6f 3f 5b 2b 5a 3f
       0.7583883 0.7715132 0.93466043 0.85222405
000190 31 29 a5 3f 84 23 a3 3f 84 13 30 3f 2a 14 26 3f
       1.2903196 1.2745214 0.6877978 0.6487452
0001a0 dc cc 8b 3f de 4d 6b 3f cf 70 9e 3f 36 e4 11 3f
       1.0921893 0.9191569 1.2378176 0.5698885
0001b0 95 39 66 3f f1 27 6a 3f 6c ce 73 3f 82 46 5f 3f
       0.89931613 0.91467196 0.9523685 0.8721696
0001c0 7f 7d 9a 3f 68 c1 4d 3f 8c 49 85 3f 26 01 63 3f
       1.2069548 0.8037324 1.041307 0.8867363
0001d0 48 bc 97 3f 59 f6 52 3f 76 e1 50 3f 83 f2 9a 3f
       1.1854334 0.82407147 0.81594026 1.2105259
0001e0 c8 38 83 3f bd c6 90 3f 08 82 89 3f 55 68 47 3f
       1.0251703 1.131065 1.0742807 0.77893573
0001f0 09 e4 9c 3f ca 25 8c 3f 34 d1 55 3f e9 0b b0 3f
       1.2257091 1.0949032 0.83522344 1.3753635

batch_norm1.bias f4 [128]
000000 a2 94 c1 bb 5d 7c 19 bc 2c d8 42 bd b4 e1 04 bd
       -0.005907611 -0.009368029 -0.04756944 -0.03244181
000010 7e a6 a6 3c 85 e1 5f 3d b1 b4 7f bc 79 9f 47 be
       0.020343062 0.05465843 -0.015607045 -0.19494428
000020 b3 0b ac 3d 4a 12 0e 3a 94 44 23 bc 2e da 84 bd
       0.08400669 0.00054195954 -0.009965081 -0.06486927
000030 9a 97 df bc c2 07 e6 3c 07 e8 b1 39 4f 6c 8e bd
       -0.027293969 0.028079871 0.00033932945 -0.06954252
000040 d8 73 0d bd 3b 73 5d 3d 58 a7 0c bd f7 d2 6c bb
       -0.034534305 0.05406497 -0.03433928 -0.0036136487
000050 69 0b 02 bc 96 53 80 3d b9 dd fc 3c db fc 15 be
       -0.007937291 0.06265943 0.030867444 -0.14647238
000060 b2 22 3d be 1c d5 01 be a0 84 95 3c 96 bd 46 3d
       -0.18470266 -0.12678951 0.018251717 0.048520647
000070 71 ec 21 3d 53 0c 94 bd 72 c3 33 be 4b b4 a8 bd
       0.03953213 -0.07228913 -0.17555025 -0.08237513
000080 bc 2f 33 3d 19 2f 25 3d 94 b6 38 3d 01 05 6e bd
       0.043746695 0.04032812 0.045095995 -0.05811024
000090 7a 47 78 bd b3 00 d8 bd b1 f3 4c bd e7 52 15 3c
       -0.06061504 -0.10547008 -0.05003709 0.009114004
0000a0 3e a0 14 be f7 cd a2 3d fd be 0b 3d f9 ec 3a 3d
       -0.14514253 0.07949441 0.034117687 0.04563615
0000b0 c4 56 3f 3d f3 aa 03 bc b5 21 0d bd 37 b0 20 bd
       0.046713606 -0.008036363 -0.034455974 -0.03923055
0000c0 4f 22 27 bc 4c 87 f2 3c c3 3c 42 be 5c 05 b0 bc
       -0.010201051 0.02960553 -0.18968491 -0.02148693
0000d0 9d d6 1d 3d 93 fd 83 3d 3b 6e 42 bd 4d 97 56 3d
       0.03853475 0.0644485 -0.047468405 0.052390385
0000e0 e9 0e 67 bd 46 b4 00 bd 41 f0 c9 3c 02 20 a6 bc
       -0.056410704 -0.031421922 0.024650695 -0.020278934
0000f0 08 5e 7e 3d 22 60 60 bc 84 8a 17 be 2b f3 94 bd
       0.062101394 -0.013694795 -0.14798933 -0.07272943
000100 69 5d be bd 89 9a 4f 3d a6 a6 44 be be d9 46 be
       -0.0929516 0.050684486 -0.19204196 -0.19419
000110 b6 84 15 be ba e2 f7 bd 96 28 a1 bc d9 90 06 3d
       -0.14601406 -0.121037915 -0.019672673 0.03285298
000120 b6 e0 10 3c 80 15 cc bc f1 39 8b bc 15 22 1a be
       0.008842638 -0.024912596 -0.016995402 -0.15052064
000130 22 13 a4 bc e8 fa 90 bd 70 12 20 bd 93 83 23 be
       -0.020028654 -0.070791066 -0.039080083 -0.1596816
000140 84 0a 57 3c e3 b7 2a be 54 9e d3 bd 4c a0 5f bc
       0.013125066 -0.1667171 -0.10332933 -0.013649058
000150 5a d3 99 3d 16 89 4c ba 1a 1b f2 3c ec 3a c1 3c
       0.07511015 -0.000780241 0.029553939 0.023587666
000160 d2 5f 97 bb ac 68 e5 bc 75 cb 9f 3c 68 72 66 bc
       -0.004619577 -0.028004013 0.019506196 -0.0140653625
000170 ae 22 fd 3c bc 88 77 bd 93 19 e4 bb 4c 8f e0 3c
       0.030900326 -0.060433134 -0.0069610565 0.02741208
000180 19 a3 3f bd 79 9f ff bc ac 8a d7 3c 05 51 23 bd
       -0.0467864 -0.031203972 0.026311241 -0.039872188
000190 7c b8 04 3d 59 95 0e 3d 2d c7 b9 ba ea 6e 80 bd
       0.0324025 0.034810398 -0.0014173739 -0.06271155
0001a0 59 ee 97 3c 4b 8a ac 3c da c8 ed bd a0 a3 ec bb
       0.01854627 0.021062037 -0.11610575 -0.007221654
0001b0 e1 75 1e be 28 03 97 3c e0 36 0e 3d eb 08 e8 bc
       -0.15474655 0.018434122 0.0347203 -0.028324565
0001c0 2a 90 42 3d 88 59 44 be b3 96 8c 3d 6e 4b 6a 3d
       0.047500767 -0.19174778 0.06864681 0.05720084
0001d0 0e 08 2b be ee 7f 64 bd f8 31 46 be ed 4b b3 3c
       -0.16702291 -0.055786066 -0.19354999 0.02188679
0001e0 f2 19 dd bd 70 6c aa bb 82 f4 87 3d 28 10 9b 3c
       -0.10795964 -0.005200915 0.06638433 0.018928602
0001f0 4f 9e 38 3d 4c a9 68 3d 0f c9 40 be 6d 45 2a 3d
       0.04507285 0.05680208 -0.18826698 0.041570116

batch_norm1.running_mean f4 [128]
000000 a7 a5 ac 3e 7c c3 45 3c 3b 69 40 3e 8e c9 2d 3f
       0.33720133 0.012070533 0.18790142 0.67885673
000010 2a b0 66 3a f8 bf 2e 3a 59 e5 63 3d 8b 82 c9 3e
       0.0008800054 0.0006666179 0.055638645 0.3935741
000020 c1 aa 33 3c 3a 09 6a 3e 00 00 00 00 8b 45 8b 3e
       0.010966004 0.22855082 0.0 0.27201495
000030 e3 9b 18 3e 81 ea 55 3d 74 ff d8 3e e7 85 06 3f
       0.14903216 0.052225593 0.42382395 0.5254807
000040 e9 8d 01 3f da 3c c8 3c 35 05 0b 3f 00 00 00 00
       0.5060716 0.024443079 0.5430482 0.0
000050 2b 4c eb 3e c0 7d 12 3e 97 48 49 38 f8 d9 aa 3e
       0.4595655 0.14305782 4.798974e-05 0.33369422
000060 b1 af 92 3e 02 38 95 3e 18 2f 44 3d ae 04 88 3a
       0.28649667 0.29144293 0.047896475 0.0010377371
000070 0f ca c3 3c 4e 45 d6 3e 74 50 b7 3e 6c ea 79 3d
       0.02390006 0.4184975 0.35803568 0.061014578
000080 b2 91 ad 39 04 00 00 00 51 7b e2 3c 43 27 3f 3f
       0.00033105683 6e-45 0.027646692 0.74669284
000090 ea 35 dd 3e 23 2b 3a 3e fc ca 08 3f 00 00 00 00
       0.43205196 0.18180518 0.5343473 0.0
0000a0 67 15 39 3d 04 00 00 00 ae 29 71 3d 20 a6 0b 3e
       0.045186426 6e-45 0.05887764 0.1363759
0000b0 d7 00 18 3d e4 bc b4 3e 3a a6 01 3d 50 2e a3 3e
       0.037110176 0.35300362 0.031652667 0.3187127
0000c0 5d bc 22 3e dd 65 97 3c f9 e8 61 3e c8 b4 1f 3f
       0.15892167 0.01848119 0.22061528 0.62385225
0000d0 5d 40 60 36 62 4c 21 3c a6 47 46 3f 08 8b 3d 3e
       3.3416065e-06 0.009844871 0.77453077 0.18510067
0000e0 d0 dd 13 3f b6 34 ec 3e 04 00 00 00 06 ba cb 3e
       0.57760334 0.46133965 6e-45 0.39790362
0000f0 36 99 e9 3c 0d 79 93 3d a6 d6 91 3e db 65 82 3e
       0.02851544 0.07200823 0.28484076 0.25468335
000100 14 15 87 3e 0c 99 8b 3c f7 9c ac 3e 8a 0c 53 3e
       0.2638327 0.017040752 0.33713505 0.20610252
000110 e6 46 9a 3e 08 5a d0 3d e5 43 b4 3d f6 e9 92 33
       0.30132216 0.10173422 0.08802012 6.841212e-08
000120 93 8e a9 3c ac 7d 51 3e ac 7c a8 3e 3c 9e 00 3e
       0.020697867 0.20458096 0.32907617 0.12560362
000130 c8 91 02 3e f6 a3 c1 3d 6f 6e c6 3e 55 e3 aa 3e
       0.12750924 0.09455101 0.3875613 0.33376566
000140 a3 93 ba 3d 8d 8e fb 3d a1 e5 02 3e 9c b6 c3 3e
       0.09110191 0.12283049 0.12782909 0.38225257
000150 86 d7 3c 3c 86 dc 37 3d de ef 6d 3d a2 f3 65 3a
       0.011525994 0.044888042 0.058090083 0.0008771961
000160 00 00 00 00 7c 04 6b 3d e4 f2 c9 3c 74 2c 73 3e
       0.0 0.057377324 0.024651952 0.23747426
000170 2e 22 00 3d ab ab 59 3e 9d e4 11 3e 04 00 00 00
       0.031282596 0.21256892 0.14247365 6e-45
000180 c1 de f7 3e b0 b7 da 3e 91 81 26 2c f0 a2 27 3f
       0.48412135 0.42718267 2.3661943e-12 0.65483
000190 1f 03 a6 3c 5c a4 17 38 a6 cc 3c 3e 91 21 f6 3e
       0.02026516 3.6154277e-05 0.18437442 0.48072484
0001a0 47 d3 c3 3b 72 11 1a 3d e9 52 4f 3e fa a7 e0 3d
       0.005976114 0.037614293 0.20246471 0.10969539
0001b0 24 e3 1e 3e cc 7d ad 3d 90 36 67 3d 14 ec 9f 3e
       0.15516335 0.084712595 0.05644852 0.312348
0001c0 6f 31 f3 3c 30 e1 9e 3e 40 9a ff 3d 04 00 00 00
       0.029686658 0.3103118 0.12480593 6e-45
0001d0 50 6c 3d 3e 1c 8d bf 3e cb ae 84 3e f3 6e 2f 3d
       0.18498349 0.37412345 0.25914606 0.04283042
0001e0 cf 66 bd 3d 62 e2 64 3d 3a b2 81 3d a2 bb 75 3e
       0.09248125 0.055879958 0.06332822 0.23997357
0001f0 ee b8 8b 2b 08 3a 20 3e 7d a0 cc 3e 1a d4 6c 3c
       9.927872e-13 0.15647137 0.39966193 0.014454866

batch_norm1.running_var f4 [128]
000000 73 50 a4 3e 32 18 11 3b 03 5c a1 3d 48 92 8b 3f
       0.32092628 0.0022139666 0.07878878 1.0904016
000010 b3 f9 a9 38 10 03 4b 39 82 80 3b 3c e0 94 ca 3d
       8.105058e-05 0.0001936073 0.011444213 0.09891677
000020 ce 54 76 3b d4 47 fd 3d 04 00 00 00 2c c7 95 3d
       0.0037587169 0.12367216 6e-45 0.0731338
000030 1a 49 91 3d bf f4 ac 3c b1 5f e3 3e ca 4e ff 3e
       0.07094021 0.021112798 0.44408944 0.498648
000040 fa 9b 10 3f 58 d9 8f 3b b1 aa fc 3e 04 00 00 00
       0.56488 0.004389923 0.49348977 6e-45
000050 57 a2 0c 3f 08 9b c3 3d d1 16 e5 35 b7 b0 ac 3d
       0.5493521 0.09551054 1.706847e-06 0.08432143
000060 b6 ea 8e 3d 95 9c cc 3d 33 af 27 3c 47 c3 89 39
       0.06978361 0.09990803 0.010234642 0.0002627617
000070 a8 fc 82 3b b0 62 7e 3e 1f 43 84 3d 95 4e 53 3c
       0.003997404 0.24842334 0.06458115 0.012897153
000080 a0 71 f7 37 04 00 00 00 05 ea fc 3b 30 b9 9a 3f
       2.9497605e-05 6e-45 0.007718327 1.2087765
000090 00 72 ab 3e d6 77 37 3d e6 ac 10 3f 04 00 00 00
       0.33485413 0.04479202 0.5651382 6e-45
0000a0 1f 80 03 3c 04 00 00 00 d3 f8 9f 3c 29 a0 aa 3d
       0.008026152 6e-45 0.019527828 0.083313294
0000b0 a5 68 4b 3c c8 68 9b 3e 68 1f fd 3b fc 14 72 3e
       0.012415086 0.3035338 0.007724691 0.23640817
0000c0 2c 27 81 3d 72 cc 8a 3b 6b 05 11 3d 9b fe 78 3f
       0.063062996 0.0042357976 0.035405558 0.972635
0000d0 53 1e 9f 34 a6 d6 96 3a 8e 4e a0 3f cd 69 17 3e
       2.9638122e-07 0.0011508062 1.2523973 0.14786454
0000e0 47 cb 22 3f b1 b8 f3 3e 04 00 00 00 0a b7 ae 3e
       0.63591427 0.47601846 6e-45 0.34124023
0000f0 be 38 ae 3b 67 af b9 3c 31 ae 72 3d 25 17 20 3e
       0.005316823 0.022666646 0.059248153 0.15633829
000100 67 42 73 3d 7c f1 90 3b 42 52 c1 3d 6a db 26 3d
       0.059389498 0.0044233184 0.094395176 0.040736593
000110 fe 6a 43 3d 3f 9f b5 3c aa 66 10 3d af a2 6e 31
       0.047709458 0.022170661 0.035254158 3.4726033e-09
000120 cb 51 a2 3b 1f d5 86 3d 9b 89 63 3e b4 4d b5 3c
       0.004953598 0.065836184 0.22220461 0.022131778
000130 c1 d3 61 3d dc 4a c6 3c f7 d5 ac 3e a6 65 54 3d
       0.055133585 0.024205618 0.33756992 0.051854752
000140 68 b4 d2 3c 88 82 05 3d e8 d2 d4 3c 17 57 b2 3e
       0.02572079 0.032595187 0.025979474 0.3483207
000150 f8 b3 6f 3b f7 e5 35 3c da 7e 95 3c 1c 5f 02 39
       0.0036575776 0.011102191 0.018248964 0.00012433197
000160 04 00 00 00 9a ea 74 3c d5 9f 6a 3b 6d 65 17 3e
       6e-45 0.0149485115 0.0035800834 0.14784785
000170 2d b3 09 3c bf 64 78 3d 46 13 68 3d 04 00 00 00
       0.008404535 0.060642954 0.056659006 6e-45
000180 d4 a4 0a 3f 1e 55 ce 3e 81 83 fc 2a 6a ff 7b 3f
       0.5415776 0.40299314 4.4855442e-13 0.98436606
000190 19 45 85 3b a8 f3 db 35 7a 6e bd 3d 05 4c c0 3e
       0.004067075 1.6387685e-06 0.09249587 0.37557998
0001a0 af 26 82 3a 3c 56 13 3c 05 b5 7b 3d c0 12 f3 3c
       0.0009929741 0.008992728 0.06145193 0.029672027
0001b0 b4 2b 44 3d 2e d1 b4 3c db 6c 95 3c 84 b9 1a 3e
       0.04789324 0.0220724 0.018240383 0.15109831
0001c0 f6 5d d5 3b 6b 67 35 3d 12 b4 9f 3d 04 00 00 00
       0.006511445 0.04428808 0.077980176 6e-45
0001d0 8e 9c 5f 3d 68 81 9a 3e 6e a5 18 3d 02 c4 72 3c
       0.05459266 0.30176854 0.03726714 0.01481724
0001e0 af 08 ac 3c d9 a1 5b 3c 43 a4 b6 3c 54 9e 30 3e
       0.021000234 0.013405287 0.022295123 0.17247897
0001f0 8e c2 27 28 02 fb df 3d 2a eb b3 3d ee 28 35 3b
       9.31255e-15 0.10936548 0.08785088 0.0027642804

dense1.weight f4 [100, 1664]
000000 b2 49 53 bb d2 63 46 bd 03 ff bb bb 98 58 23 bc
       -0.003223997 -0.04843504 -0.005737187 -0.009969853
000010 59 d6 03 bd 65 2b 2c bd be a2 41 3c 4c b2 93 bc
       -0.03218684 -0.04203357 0.011818586 -0.018029355
000020 ab 35 35 bd 0c f5 65 bd 6d 6b e4 bc ce 4d 30 bc
       -0.044240635 -0.056141898 -0.027883256 -0.010760738
000030 e7 d7 dd bd e1 9e 3f 3c 9c 0e 50 3b 2e 0c 94 3d
       -0.10832196 0.0116955945 0.003174699 0.072288856
000040 9e b6 dd 3c 5d d0 eb 3b dd ae db bd e5 df 1e bd
       0.027064618 0.0071964697 -0.10726712 -0.03878774
000050 0f b3 9e bc fd 09 45 bd b1 5f e0 bc 43 32 97 bd
       -0.019372491 -0.04810523 -0.02738938 -0.073826335
000060 98 7b 3a bd 85 35 ec bd eb 11 cd bd 3a fe 9d bd
       -0.045528024 -0.115336455 -0.10013183 -0.077145055
000070 a0 c9 07 bd 6c 76 91 3b c0 d7 07 3d 17 cc 8f bc
       -0.03315127 0.004439166 0.03316474 -0.017553372
000080 ee bb b7 bc d4 45 46 bd 41 d1 7c bd 4c fb b5 3c
       -0.022428479 -0.048406437 -0.061722998 0.022214554
000090 60 ed dd 3d 81 1b a6 3d ee e9 fa 3c 3e da 5d bd
       0.10836291 0.08110715 0.030629124 -0.05416321
0000a0 ee 48 be 3c 07 27 0d bc 45 eb 9e bd 10 02 22 bd
       0.023228135 -0.008615262 -0.07759718 -0.03955275
0000b0 23 6b 14 bb 8d 69 a7 bd c7 dd 87 3b 07 36 1b 3b
       -0.0022646866 -0.08174429 0.004146311 0.0023683326
0000c0 c3 59 66 bd 8d 94 b2 bd 32 24 90 bd 48 c5 d9 bd
       -0.056237947 -0.0871974 -0.07038154 -0.106333315
0000d0 87 c9 6b bd 2b 92 0a be 3f 3f 13 bd 43 8f 4b 3c
       -0.05756524 -0.13532321 -0.035948988 0.012424293
0000e0 58 f7 f1 bc 7e e0 d4 3a d0 ce 57 bc 08 d7 69 3c
       -0.029536888 0.001624122 -0.013171867 0.014272459
0000f0 42 68 02 3d a2 98 a3 3d 07 cd 71 3d d0 07 ee bc
       0.03183771 0.07988097 0.05903342 -0.02905646
000100 cb e8 aa bd ce dd 38 bd e2 77 7e 3c 62 58 08 3d
       -0.08345183 -0.045133404 0.015531512 0.033287413
000110 fb 7b 3f 3d f1 6b 2e 3c 6b b3 c5 ba e2 da 2d bc
       0.046749096 0.010645852 -0.0015083378 -0.010611268
000120 bd b6 84 3c 08 e1 c7 bc 6f 15 0d 3c 8f 41 21 3d
       0.016200418 -0.024399295 0.008611067 0.039369162
000130 06 e3 51 3d 4d 3b 51 3c 39 52 a8 bc 99 e6 da 3c
       0.051241897 0.012770486 -0.02054702 0.026721286
000140 d8 91 b3 bc 72 c1 21 3d ef 5d c1 39 4f df 29 bc
       -0.02192013 0.039491124 0.00036881815 -0.010368182
000150 21 69 2a 3a 03 55 a4 3c 4d 38 2d 3e c9 00 28 3e
       0.0006500651 0.020060068 0.16916008 0.1640655
000160 1c d8 43 bd 4d 0b 36 bd 7c 18 9e bd 95 71 cb 3c
       -0.04781352 -0.04444437 -0.07719514 0.024834434
000170 da e4 cc 3c 3f d3 35 3d b3 dc 6f bd 6c c4 18 3d
       0.025011469 0.044390913 -0.058560085 0.037296697
000180 9b f4 63 3c e6 15 2e 3d 8f 8e d5 3d a5 d7 75 bc
       0.013913299 0.042501353 0.104275815 -0.015005027
000190 4c 54 9e 3c 15 60 1b bc 51 50 2f 3d 9b 68 85 3d
       0.019327305 -0.009483357 0.042801205 0.065140925
0001a0 72 37 98 3c b9 20 15 3c c0 e8 98 3d 19 d1 28 3e
       0.018581126 0.00910204 0.074662685 0.16486014
0001b0 54 ed f3 3d 5f bd e5 3d 09 d5 1c 3e 78 55 1d 3e
       0.11910501 0.1121776 0.15315641 0.15364635
0001c0 ea d2 ef 3d 60 dc f1 bb 9f 20 2f bd 91 5b 2e bd
       0.117101505 -0.007381007 -0.04275572 -0.042567793
0001d0 22 88 b1 3d 21 58 d4 bb 6b 2b aa bc c0 f3 f1 3c
       0.086685434 -0.0064802323 -0.020772656 0.029535174
0001e0 1c 94 e5 bc fd 22 d0 bd 4b f8 b1 bc 7c 26 a4 bd
       -0.028024726 -0.101629235 -0.02172484 -0.08015153
0001f0 bb b9 be bc 5d ea 42 3d 4b 39 2a bd d6 c4 bc bd
       -0.023281923 0.047586787 -0.041558545 -0.09217231
000200 92 88 0c bd 3b 31 8a bd 5e fa c3 bc 1a 83 36 bb
       -0.03430993 -0.06747671 -0.023923095 -0.0027849139
000210 7b 5d b0 ba 4f c3 02 bd 71 bd 12 bd 88 27 8e bc
       -0.0013455594 -0.031924542 -0.035825197 -0.017352834
000220 c1 a6 5a bc e3 85 f9 bb 24 d9 d4 bc d4 a1 14 bd
       -0.013345421 -0.0076148375 -0.025982447 -0.036287144
000230 44 e0 13 bc 51 c0 9a 3a ac d4 19 bc 8c ef 00 3d
       -0.009025637 0.0011806582 -0.009389084 0.03147845
000240 56 17 96 3d 6b e4 36 3c 8b 94 90 3d 1c 66 82 3c
       0.0732867 0.0111628575 0.07059582 0.01591783
000250 4c 8e 84 bd 32 c2 f2 3c 3b d7 ad 3c a7 c6 c0 3d
       -0.064724535 0.029633615 0.021220794 0.0941289
000260 43 14 85 3d 1c 88 5e 3d 8a ea 9b 3c 9e b7 d9 3c
       0.06498005 0.054329023 0.019032735 0.026576813
000270 49 0d 0b be 06 0b ad bd 27 55 24 bd 12 79 6b bd
       -0.13579287 -0.08449368 -0.04012027 -0.05748851
000280 39 ab 2d bd 11 0e a7 bd 20 97 55 bd 99 01 80 bd
       -0.04239962 -0.0815698 -0.052146077 -0.06250305
000290 0b 6c 24 bd 07 bf 82 bd 8a 13 05 3c 8e 97 6f 3d
       -0.0401421 -0.06384092 0.008122334 0.058494143
0002a0 02 bf b5 3c 78 cb b7 bc be 99 af 3d a7 78 42 3d
       0.022185806 -0.022435889 0.08574246 0.047478344
0002b0 91 1f b8 3c c1 cc 10 3d c1 79 6d 3d ea 4c 6a 3c
       0.02247599 0.03535152 0.05797744 0.014300564
0002c0 8f a7 3a 3d 33 1f 64 bc d5 b5 4e ba 58 ef 46 3d
       0.045569953 -0.013923454 -0.00078853715 0.0485681
0002d0 db 3e 4f 3d a5 a0 13 3d 66 1e a9 bd cf 61 a0 bd
       0.050597053 0.036041874 -0.08257751 -0.078311555
0002e0 92 f0 0c bd 07 e9 24 bc 95 46 99 bd 25 6c ad bc
       -0.034409113 -0.010065324 -0.074841656 -0.021169731
0002f0 32 63 97 bd e6 14 7b bd 12 0a 4a bc 11 97 23 bc
       -0.07391967 -0.061299227 -0.0123315025 -0.0099847475
000300 9f 18 92 3d 48 1f 58 3d 0a 1f b6 3d d3 c2 48 bd
       0.07133602 0.052764207 0.08892639 -0.049013924
000310 2f fc 5c bd 90 e7 ef bc 24 12 1f bd 40 6c 3d 3d
       -0.05395144 -0.029285222 -0.03883566 0.046245813
000320 00 55 2e bc 90 9a 4a bd 43 07 2e bc b4 48 26 bc
       -0.010640383 -0.04946381 -0.0106218485 -0.01014917
000330 1c a4 4d 3c 4d 65 d7 3d 85 cd 68 3d 53 b9 68 3d
       0.012551334 0.105173685 0.056836624 0.056817364
000340 84 04 03 bd 39 dc ce 3c be ce 00 3d 31 57 af bd
       -0.03198673 0.025251495 0.031447165 -0.08561552
000350 88 fc 61 bd 47 e9 44 bc 4b 17 2c bd 98 26 e0 3c
       -0.055172473 -0.012018508 -0.0420144 0.027362153
000360 7e 9e 19 bd 34 5f bf bb 62 6c aa bd 2e af b1 bd
       -0.037504666 -0.0058402065 -0.08321454 -0.08675991
000370 6a d1 0e be 1a 85 2b bd 18 16 c6 bd be bb c2 bd
       -0.13947073 -0.041874982 -0.09672183 -0.09508465
000380 ce d8 04 be 78 8a ef bd 12 77 de 3c 46 44 94 bc
       -0.1297333 -0.11696333 0.027156387 -0.018098962
000390 20 54 b7 bd ca cc 16 be 05 9e aa bd 00 98 25 bb
       -0.089515924 -0.14726558 -0.08330921 -0.00252676
0003a0 17 04 b0 bc 56 32 a2 bd c7 d0 e0 3c 85 b9 4e 3c
       -0.021486325 -0.07919757 0.027443303 0.0126174735
0003b0 3f 97 21 3c 8b 2d 1e 3d ff 02 a0 3d a7 84 b6 3d
       0.00986272 0.038617652 0.078130715 0.0891202
0003c0 a8 6c 75 3d 17 24 ba 3c ee d6 2c 3d b5 1d 11 3d
       0.059918076 0.022722287 0.04219716 0.03542872
0003d0 02 17 82 bd b8 42 9a bd e3 0b 9b bd f6 45 5b 3c
       -0.06352045 -0.07532257 -0.075706266 0.013383379
0003e0 f2 be bc 3c 78 ba b5 3c c1 f8 2f 3d 6d 9e 1b 3d
       0.023040269 0.022183642 0.04296184 0.037992883
0003f0 de fb 11 3d e1 55 ec 3b 91 a6 ab 3c f9 09 2f 3c
       0.03564059 0.007212386 0.020953448 0.01068353

dense1.bias f4 [100]
000000 d4 0c 20 3d 07 6b 0b bc 02 27 e1 3c 6b de b5 3a
       0.039074734 -0.008509404 0.02748442 0.001387549
000010 b4 34 6c bc 2f b9 2c bd ca 60 6e 3d 88 43 76 bc
       -0.014416862 -0.042168792 0.058197774 -0.015030749
000020 5e c0 d0 bd 4c 13 6e bb e4 3d a8 bd 9d 87 88 bc
       -0.10192941 -0.003632742 -0.0821493 -0.016666228
000030 24 93 a3 bd 1e fb 60 bd 0e f1 77 bd 65 c4 70 bd
       -0.07987049 -0.054926984 -0.060532622 -0.058781046
000040 ce 39 a7 3d ba 50 be bd e2 d0 a6 bd 5d b7 9c 3d
       0.08165322 -0.09292741 -0.0814531 0.07652161
000050 a5 8b 04 3d e8 ea bb bc 7d 56 35 3c a6 c9 84 3c
       0.032359738 -0.02293916 0.011067984 0.016209435
000060 10 e7 9b 3a 3c ba 03 3d 70 78 01 bc a7 c8 4b bd
       0.0011894424 0.03216003 -0.00790225 -0.049751904
000070 3a 86 45 3b 70 12 80 bc 08 69 fe bc e7 bc c5 bd
       0.003013982 -0.015633792 -0.031055942 -0.09655171
000080 3e 71 61 bd eb 69 3d ba 1b 3e ff bb 94 07 37 bd
       -0.055039637 -0.0007225561 -0.007789386 -0.04468496
000090 4d 22 ad bc e8 51 59 bc b2 68 14 3b 54 a3 6f 3d
       -0.02113452 -0.013264157 0.002264541 0.05850537
0000a0 0d 6f 9c bd e8 4e b5 3c ca cf da 3c 2e a5 7e bd
       -0.07638369 0.022132352 0.02671041 -0.062169246
0000b0 86 8a 28 bd 17 74 4e bb 7e 5b 18 bd e7 eb da bc
       -0.04114773 -0.00315023 -0.03719663 -0.026723815
0000c0 36 63 1c bd 61 ea 93 3d be f2 bf bd db c1 b0 3d
       -0.038180552 0.072224386 -0.09372471 0.08630725
0000d0 b6 be 6f bd bc 44 b7 bb 69 7a cf 3b 4f c9 7f 3d
       -0.058531485 -0.0055929106 0.006331731 0.062447842
0000e0 3e 53 1c 3d e3 d4 a4 bd 70 37 f3 bc 05 1d 79 bc
       0.038165323 -0.080484174 -0.02968952 -0.015204673
0000f0 d8 fa 72 3d 48 c1 97 bd 62 33 8b bc 86 18 f7 bb
       0.059321254 -0.07409912 -0.016992275 -0.007540765
000100 78 1c d5 3b 33 c7 97 3c 87 2e 2d 3d 3d a8 ef bc
       0.006503638 0.018527603 0.0422807 -0.029255027
000110 75 64 55 bd 14 88 1c 3d 3c 7e be bd e2 cb d8 bc
       -0.052097756 0.03821571 -0.09301421 -0.026464406
000120 02 8f 65 bd a5 94 51 bc e1 08 ca bc 9c 38 ed 3d
       -0.056044586 -0.012791787 -0.024662437 0.11583063
000130 09 de e3 bc 85 7a 9d 3c 8d 43 fd bc 9e ba 72 bc
       -0.027815836 0.01922346 -0.030916 -0.014815001
000140 f4 a2 2a 3c 09 88 29 bc 4f d6 04 3d 86 6e 17 3d
       0.010414828 -0.010347375 0.032430943 0.036970638
000150 22 0c d1 bc 26 5a 98 3c 5e 0a 8a bc 19 41 80 bc
       -0.02551848 0.018597674 -0.016850647 -0.015656041
000160 14 08 8b 3d 87 3d 70 bc 4e 06 cc 3d d8 f1 9f 3d
       0.0678865 -0.014663107 0.0996214 0.078098
000170 80 56 a2 3c 0b 58 a6 bc 88 79 c0 bc b9 52 de b9
       0.019816637 -0.020305654 -0.02349545 -0.00042404773
000180 aa 04 5a bc 3b 12 8e bc 06 aa 49 bd 69 a2 5e bd
       -0.013306776 -0.017342677 -0.049234413 -0.054354105

dense2.weight f4 [33, 100]
000000 d2 a3 07 be 0d f2 49 bc 0c 23 60 3c bb 4a 27 bc
       -0.13246086 -0.012325776 0.013680231 -0.010210688
000010 66 68 a5 bd ed ed f1 3c 4e 82 03 3c 60 cc d5 bc
       -0.08076553 0.029532397 0.0080266725 -0.02609843
000020 22 06 c9 bd 64 c0 a4 bc d6 d0 68 bd 63 ab 9e bc
       -0.09815623 -0.02011127 -0.056839786 -0.019368833
000030 e7 20 f8 bd 77 e1 48 3d 65 db 8e bd 6f 1b 82 3c
       -0.121156506 0.049043145 -0.0697544 0.015882222
000040 4e 22 e0 3a a0 76 e6 bd 52 87 9f 3b 76 70 1c 3d
       0.0017100067 -0.11253095 0.0048684264 0.03819319
000050 2c af 74 3c 5a 1e 6f bc 56 ec cf bd 9f 73 d8 bc
       0.014934342 -0.014594639 -0.101524994 -0.02642232
000060 9d 0f df 3b 87 85 81 3b 1f 1d 69 bd 73 94 14 3c
       0.006807281 0.0039526853 -0.056912538 0.009068596
000070 d5 15 8a bd fd 8e 12 bc 8e 43 25 3c 96 d9 51 bc
       -0.067424454 -0.008945224 0.010086907 -0.012808224
000080 76 99 dc bd 95 db 0e be 58 29 74 bd 35 5d 02 be
       -0.10771458 -0.13950951 -0.05960974 -0.12730868
000090 20 34 12 be 86 ff f5 3c 35 26 ea 3c 86 c1 20 3d
       -0.14277697 0.03002907 0.028582672 0.03924706
0000a0 a9 ce cf bd 19 2e 70 bd 11 33 e4 bd 9a 41 fa bc
       -0.10146839 -0.058637712 -0.11142553 -0.03054886
0000b0 72 53 a6 bd 62 4c 0d be 53 55 d0 3b 69 f8 ce bb
       -0.08121385 -0.13798669 0.0063578277 -0.006316234
0000c0 85 2c dd bd 47 b8 94 bd f7 56 4f 3b 48 05 e4 bd
       -0.10799507 -0.072617106 0.0031637528 -0.1113382
0000d0 3f 04 98 3a a4 73 96 3b 38 8f fc bd ce bc 87 bd
       0.0011597945 0.004591422 -0.12332004 -0.066278085
0000e0 bc 9d 23 bd a3 a9 3b 3c 35 93 ee bd 2e 51 80 3b
       -0.03994535 0.011454019 -0.11649171 0.0039159274
0000f0 9d c0 5d bd 5c c7 98 bd 87 0b 0a bd c9 ec e0 3b
       -0.05413877 -0.074599 -0.0337024 0.0068641645
000100 21 5c 06 be f9 0c 3a bd 47 3b 0f bd d5 e9 e2 bd
       -0.13121082 -0.045422528 -0.03496864 -0.11079756
000110 e8 0e 27 3c 5f 08 1d 3d 97 bb 9f bd 19 bc 4d bd
       0.010196425 0.03833806 -0.07799452 -0.050228212
000120 2c 56 4d 3d fd 16 7d bd 78 4c 15 bd 8f 80 2e be
       0.050131008 -0.0617895 -0.03644988 -0.17041229
000130 3e 83 5f bd 55 06 78 bd cf 01 a4 bd 38 5c a0 bc
       -0.05456852 -0.060552914 -0.080081575 -0.019575223
000140 26 9d f0 bd 6f 72 07 be ad b8 18 bd 96 c8 0e bd
       -0.11748724 -0.13227247 -0.037285496 -0.034859262
000150 9b 75 d7 3c bf 42 17 be 32 73 ff 3c aa 27 a4 3c
       0.026301196 -0.14771555 0.03118286 0.020038445
000160 2e 47 ef bd c9 bc 73 bd d2 f3 14 be 35 38 12 be
       -0.11683498 -0.05950621 -0.14546135 -0.14279254
000170 ed 66 d2 3b a4 66 09 be 9c 93 17 bd 58 1d 85 3b
       0.006420961 -0.1341806 -0.037006006 0.004062336
000180 23 95 24 bd 04 d3 f5 bd 92 1f 14 be 73 cf 09 be
       -0.04018129 -0.12003139 -0.14465168 -0.13458042
000190 9b 52 1f 3d 96 02 93 3c 30 e0 fd bd 8d df b5 3d
       0.038897138 0.017945569 -0.12396276 0.088805296
0001a0 ac 6d ae bb 62 de 95 3d 40 06 99 bd 02 16 1e bd
       -0.0053231325 0.07317807 -0.07471895 -0.038595207
0001b0 cb 8d 15 3d 1e d4 01 be 16 a8 09 bd c1 e3 92 3c
       0.036512177 -0.12678573 -0.033607565 0.017930867
0001c0 bc ab d1 3c 91 85 fa bc bc b8 fb 3c 78 16 b0 bd
       0.025594585 -0.030581268 0.030727737 -0.085980356
0001d0 6d 51 e9 bb f2 25 1e be b5 8a 30 3d bf 8c 89 3d
       -0.0071203024 -0.15444162 0.04310103 0.06716298
0001e0 c9 cf 80 3d ed 96 af 3d 36 79 1a be da 7e 7a bd
       0.06289632 0.08573709 -0.15085301 -0.06115613
0001f0 7c 09 00 3d 82 9c 60 3d cb a8 22 be 90 e4 0b bd
       0.031259045 0.054836757 -0.15884702 -0.03415352
000200 68 a0 6a bc a1 82 a1 bd 0a 2d b9 3c b9 cd 07 3d
       -0.01432047 -0.078862436 0.022604484 0.033155177
000210 7d ee 90 bd 35 32 5b 39 69 9a 47 bd b7 f7 96 bd
       -0.07076738 0.00020904171 -0.04873124 -0.073714666
000220 ef 8d 48 be 68 b1 a8 3c 50 ae 57 3d 2c be 85 bd
       -0.19585393 0.020592406 0.05265647 -0.06530413
000230 99 15 19 bd 65 9b 22 bb 19 25 5f 3d 3a 55 39 bd
       -0.037374113 -0.002481186 0.05447874 -0.045247294
000240 bf 45 cc bd 64 f4 bf 3c af 94 bc bd b0 6c d9 bd
       -0.099742405 0.023431964 -0.09208047 -0.106164336
000250 88 54 65 3d 9e e9 97 bd c6 e8 fd bd a7 ed c1 bd
       0.05598882 -0.07417606 -0.12397914 -0.09469157
000260 69 a5 b9 bd 3a 6e b3 3c 6a ec fa bd 46 7f 7e bd
       -0.090647526 0.021903146 -0.12252124 -0.062133096
000270 74 ea 27 3c 3b a4 1d 3d 6a 23 b8 bd 2d 5a ae bd
       0.010248769 0.0384867 -0.0899113 -0.085132934
000280 55 48 11 be 7c 98 b7 3d cf 5e 18 be dd d2 ae bd
       -0.14187749 0.08964631 -0.14879917 -0.08536313
000290 c9 f9 04 be c2 f2 15 bd 20 56 e8 bd 89 76 a3 bc
       -0.1298591 -0.036608465 -0.11344552 -0.019953983
0002a0 e4 e3 ba bd 74 0f 8c bd f6 dc ed bd 7a 1a b3 bb
       -0.09125498 -0.06838885 -0.116144106 -0.0054658027
0002b0 7a 68 61 bd 04 2c 72 bc fa 87 cb bc a4 06 4e 3c
       -0.055031277 -0.014781002 -0.024845112 0.012574825
0002c0 99 0b 9c 3c 5d 9c 59 bd 36 f8 b7 bd 0e 21 94 bd
       0.019048499 -0.053127635 -0.08982889 -0.07232867
0002d0 88 6f 30 be 6a 59 c1 bc 5c 07 12 be 14 d5 df bd
       -0.17230046 -0.023602206 -0.1426062 -0.10929313
0002e0 09 9e 06 bc f3 16 dd bd ec a6 45 bb a2 2c b9 bd
       -0.008216389 -0.10795393 -0.0030159308 -0.09041716
0002f0 85 47 0f be 73 fa c7 bd 60 8c eb bd 31 f6 8a bd
       -0.13992126 -0.09764566 -0.11501384 -0.067852385
000300 3c 8b 92 bc 59 ec 0d be d3 a3 9c bd 32 d9 46 3d
       -0.017888658 -0.1385969 -0.076484345 0.048546977
000310 e2 39 34 3d 8d 97 c1 bd e1 7b 02 be b6 5a 6e bd
       0.044000514 -0.09452734 -0.12742569 -0.058191977
000320 43 15 e2 3c 55 e8 41 3c 04 88 ff 3c 33 3a 3d 3d
       0.027598029 0.011835177 0.031192787 0.04619808
000330 a6 b4 98 bc ac 55 d3 bd f5 db 9d 3d c2 8c 81 bd
       -0.018640827 -0.10319075 0.07707969 -0.063256755
000340 6f 49 c0 bc 63 57 2d 3e 0f c2 b7 bc a1 33 e2 bc
       -0.023472516 0.16927867 -0.022431402 -0.02761251
000350 87 cb 9c bd b6 ec c4 bc 47 c8 a6 bd ec 7a 50 3d
       -0.07656007 -0.024038654 -0.081436686 0.050898477
000360 82 d5 d7 bd 63 8e dc bc 0e c1 d2 3c 1d 6e c4 bb
       -0.1053877 -0.026923364 0.025726821 -0.005994572
000370 0b 8e 0f be d3 11 33 be c1 dd ca 3d 50 70 fd bd
       -0.14019029 -0.17487268 0.099055775 -0.123749375
000380 1d bc b0 3d f8 79 0f be b6 19 1c be 2f ad 97 3c
       0.0862963 -0.14011371 -0.15244183 0.018515198
000390 06 40 6a bd 77 c2 a2 3d d0 d8 c6 3c f5 f6 fb 3b
       -0.057189964 0.079472475 0.024273306 0.0076893517
0003a0 91 e2 dd bd 7d d9 bf 3c 8e a9 17 3e 57 43 be bd
       -0.1083423 0.023419136 0.14810774 -0.09290188
0003b0 01 f2 0c be 57 99 ed bc 4d 6e bc bd 6f a9 e2 3d
       -0.13764192 -0.029003782 -0.09200726 0.11067473
0003c0 07 5b 60 3c ce 1d f0 3d 9a 2f b0 3d 6f fc 3e 3b
       0.013693578 0.11724435 0.08602829 0.0029142161
0003d0 7c 13 98 3c 5f 1b 4a bc e9 07 a8 3d b5 85 ef bd
       0.018563978 -0.012335627 0.08204634 -0.116954245
0003e0 59 c9 36 bd 8f 0d 1f be 49 7e b7 bc d9 87 8c 3d
       -0.044625614 -0.15532516 -0.022399085 0.068618484
0003f0 a0 9e c7 3c bb e6 9a bd fb 1b 44 3d 1e 2c 93 bd
       0.02436763 -0.075635396 0.047878247 -0.07186149

dense2.bias f4 [33]
000000 52 9d 01 be 3f 7e 95 bd 2c 7f 75 3d 8e eb 8b bd
       -0.12657669 -0.0729947 0.059935734 -0.06832038
000010 59 02 a5 bd 9d f8 79 3d 79 57 24 3d 0b 6b 38 bd
       -0.080570884 0.06102811 0.040122483 -0.04502396
000020 a4 0d 59 bc b3 27 94 bd 42 6b 5f 3d 50 5a d2 3b
       -0.013247881 -0.072341345 0.05454565 0.0064194575
000030 d8 03 8f bd 56 29 95 3d 70 e7 4a bd 00 95 8b 3b
       -0.06983155 0.07283275 -0.049537122 0.0042597055
000040 92 63 94 3d e1 b5 78 bd 7a 02 85 3d dd 5e ce 3b
       0.07245554 -0.06072033 0.06494613 0.0062979297
000050 35 17 ac bd 72 50 08 bd 8b d9 e2 3d 0f 14 c7 bd
       -0.08402864 -0.033279844 0.11076649 -0.09720623
000060 b9 ff c9 bd 08 14 8c bb cb b5 f6 ba 5c 90 c8 bd
       -0.09863228 -0.004274849 -0.0018822489 -0.09793159
000070 73 26 29 3d 40 4b 92 3d 95 66 a0 3d 97 a0 e1 bd
       0.041296434 0.07143259 0.07832066 -0.11016958
000080 d5 20 05 be
       -0.13000806
