ResNet-PyTorch/ResNet/pnet.pth (torch, 688136 bytes, 10 tensors)

conv1.weight f4 [128, 1, 5]
0.18200812 -0.10650165 -0.31536362 0.2225115 0.026291326 -0.29618463 -0.32425287 -0.22155125
-0.16592234 0.52728325 -0.27885863 -0.14841206 0.24769187 0.25539103 0.21018045 0.19921769
0.050123934 -0.13710526 0.033327315 -0.18857154 0.22978137 0.32765374 0.20973387 0.15951174
-0.08187451 0.36763242 -0.36671764 0.21769772 0.2565331 -0.4116632 -0.030337563 0.30338812
0.29989877 -0.061032396 -0.36805624 0.45405304 -0.20100722 -0.26781386 0.22588027 -0.13818938
0.000979697 -0.13506854 -0.46873057 -0.31550357 -0.39325327 -0.14812073 -0.13228539 -0.50426763
-0.14282396 -0.4907556 -0.18958496 -0.43346804 -0.44900882 0.082485355 -0.23864612 0.3477015
0.30659148 -0.35229853 -0.1942659 -0.18270993 0.10950652 -0.3010848 -0.16040441 0.2862713
-0.014908792 0.09149719 0.41775435 0.36625206 0.37593672 0.16263221 0.15403828 0.29219544
0.004662141 0.1646201 0.4565116 0.3496024 -0.13959698 -0.38492784 0.38410038 -0.38154984
0.40464807 -0.39389277 0.028682303 0.3025536 -0.37237987 -0.5859897 0.090134196 0.08981712
0.1873194 0.35702422 -0.1882093 0.3608613 -0.26932544 -0.16186732 -0.01069029 0.28119043
-0.4209802 -0.14160277 -0.375752 0.42154193 -0.2971645 -0.09734177 -0.3101141 -0.30257002
-0.34548557 -0.3504393 -0.1642056 -0.38541454 0.013131294 -0.22425729 0.36329257 0.34590945
0.26226836 0.004075703 0.3928608 0.38856062 0.0842442 0.3154324 -0.15085334 0.25027618
-0.22588907 0.06512366 -0.12317153 0.11535434 0.1639699 -0.16399314 -0.4513918 0.26876804
-0.1192819 0.2966136 0.19127148 0.38020417 -0.27839848 -0.013031516 -0.27058026 -0.39799684
-0.17416792 -0.38862693 0.37802806 0.42700097 0.25137267 -0.07520893 -0.12463857 -0.3711638
0.12768123 0.49925667 -0.11998323 -0.059344016 0.16864341 -0.3510829 0.25355303 0.28829715
0.018657785 0.3221879 -0.2568519 -0.24672665 0.1304821 -0.33326694 -0.45107222 -0.36890128
-0.2899724 0.3298583 -0.25170767 -0.042278424 0.1437106 -0.21770729 0.31029508 0.26348394
-0.32925573 -0.38009164 0.106049545 -0.13209003 0.07098521 0.39227572 -0.33430564 0.2249321
-0.045170892 0.013993521 0.06930521 0.33561873 -0.35107556 0.07268845 -0.24651743 -0.20489961
0.49088725 -0.46902615 -0.3166671 -0.03541735 0.36134568 0.21640867 0.22438581 -0.21662688
-0.082337074 -0.31230032 -0.10890211 0.036718022 -0.07613372 -0.42994735 0.39173234 0.020582415
-0.09378689 -0.29602557 0.03434347 0.019743783 -0.32372192 -0.14811069 0.45181805 -0.30431575
0.06346505 -0.2967755 -0.07136337 -0.35647923 0.35622302 -0.0028678859 0.4640148 -0.06252877
0.34067336 0.45002475 -0.39556757 -0.39419636 0.27715567 0.40392187 -0.09917881 -0.19450442
-0.35027662 -0.32178238 0.021735221 -0.22358102 0.42051688 -0.07372518 0.095656574 0.34992516
0.23037611 0.20521106 0.37799147 -0.021890897 -0.13741525 -0.23837732 0.34174934 -0.018237615
0.21252851 0.26813865 -0.19914225 -0.4261633 0.16883676 0.05197202 -0.08270274 0.24965663
0.4325812 -0.33772212 0.36953533 -0.29962417 0.46310124 0.5318697 0.531684 0.10333063
00000000: 5660 3a3e 891d dabd 5777 a1be 0eda 633e
00000010: e860 d73c 83a5 97be 7904 a6be 55de 62be
00000020: 8ce7 29be 09fc 063f 8fc6 8ebe 55f9 17be
00000030: f0a2 7d3e 9dc2 823e 8b39 573e b9ff 4b3e
00000040: c14e 4d3d 5265 0cbe 3982 083d e618 41be
00000050: cf4b 6b3e 3bc2 a73e 7ac4 563e 0c57 233e
00000060: d3ad a7bd 513a bc3e 6ac2 bbbe 27ec 5e3e
00000070: 4e58 833e 85c5 d2be 7b86 f8bc b055 9b3e
00000080: 558c 993e 1bfd 79bd de71 bcbe a479 e83e
00000090: d6d4 4dbe e61e 89be 284d 673e 8481 0dbe
000000a0: 2d69 803a 684f 0abe 74fd efbe af89 a1be
000000b0: 7e58 c9be f6ac 17be d275 07be af17 01bf
000000c0: 7240 12be 5144 fbbe 8f22 42be 86ef ddbe
000000d0: 7ce4 e5be 15ee a83d a65f 74be ee05 b23e
000000e0: 8ff9 9c3e 7960 b4be a4ed 46be 5018 3bbe
000000f0: f444 e03d c927 9abe 0e41 24be 2792 923e
00000100: 0244 74bc e162 bb3d e6e3 d53e 6485 bb3e
00000110: c77a c03e 0f89 263e 36bc 1d3e a49a 953e
00000120: e0c4 983b 2c92 283e e3bb e93e 16ff b23e
00000130: 83f2 0ebe 4315 c5be cea8 c43e 805a c3be
00000140: 082e cf3e 50ac c9be 26f7 ea3c 4ee8 9a3e
00000150: 93a8 bebe 6c03 16bf 4798 b83d 0af2 b73d
00000160: a8d0 3f3e e1cb b63e f0b9 40be d0c2 b83e
00000170: 06e5 89be 8cc0 25be 5326 2fbc 31f8 8f3e
00000180: b78a d7be 5100 11be 9162 c0be 58d4 d73e
00000190: f225 98be 1f5b c7bd 46c7 9ebe 75ea 9abe
000001a0: 7ce3 b0be c86c b3be 8325 28be 0e55 c5be
000001b0: a424 573c b4a3 65be 7c01 ba3e 0b1b b13e
000001c0: 0a48 863e 7a8d 853b 0d25 c93e 6bf1 c63e
000001d0: 3988 ac3d 5b80 a13e 4c79 1abe 3324 803e
000001e0: 774f 67be 8e5f 853d 5b41 fcbd e53e ec3d
000001f0: bae7 273e d1ed 27be d31c e7be f79b 893e
00000200: 124a f4bd bddd 973e acdc 433e 1faa c23e
00000210: 3f8a 8ebe 2482 55bc 7f89 8abe 3ec6 cbbe
00000220: 1359 32be 1cfa c6be e58c c13e df9f da3e
00000230: ebb3 803e 2407 9abd 8242 ffbd 2e09 bebe
00000240: debe 023e 929e ff3e c5b9 f5bd b612 73bd
00000250: dcb0 2c3e 23c1 b3be b4d1 813e af9b 933e
00000260: 36d8 983c d0f5 a43e 1882 83be e9a5 7cbe
00000270: 1a9d 053e f7a1 aabe f0f2 e6be a1e0 bcbe
00000280: 4377 94be 30e3 a83e d4df 80be 242c 2dbd
00000290: df28 133e a9ee 5ebe ffde 9e3e 5ee7 863e
000002a0: 3594 a8be 5f9b c2be 8130 d93d 9c42 07be
000002b0: b260 913d 5dd8 c83e 1c2a abbe 9a54 663e
000002c0: 1d05 39bd 1545 653c e4ef 8d3d 38d6 ab3e
000002d0: 2dc0 b3be afdd 943d 116f 7cbe 34d1 51be
000002e0: 9355 fb3e 3224 f0be 3122 a2be c811 11bd
000002f0: 4d02 b93e 3c9a 5d3e 65c5 653e 70d3 5dbe
00000300: 57a0 a8bd d4e5 9fbe 1208 dfbd a365 163d
00000310: ffeb 9bbd 0f22 dcbe 2491 c83e 749c a83c
00000320: 5713 c0bd aa90 97be bdab 0c3d b7bd a13c
00000330: e1be a5be 54aa 17be b254 e73e 46cf 9bbe
00000340: f7f9 813d f5f2 97be f526 92bd 7284 b6be
00000350: dd62 b63e 24f3 3bbb 5993 ed3e 150f 80bd
00000360: bd6c ae3e a569 e63e d587 cabe 1bd4 c9be
00000370: 59e7 8d3e d9ce ce3e 431e cbbd 2b2c 47be
00000380: 7557 b3be a9c0 a4be 100e b23c 6cf2 64be
00000390: fd4d d73e 3afd 96bd 98e7 c33d 6429 b33e
000003a0: b7e7 6b3e d922 523e 1988 c13e 8a54 b3bc
000003b0: 95b6 0cbe 2f19 74be c5f9 ae3e 0d67 95bc
000003c0: 13a1 593e 7849 893e f2eb 4bbe 1332 dabe
000003d0: 8be3 2c3e 9de0 543d 0e60 a9bd fda5 7f3e
000003e0: 487b dd3e eae9 acbe bc33 bd3e 5768 99be
000003f0: 9b1b ed3e 9d28 083f 711c 083f 029f d33d

conv1.bias f4 [128]
-0.3682778 -0.46345374 -0.36686164 -0.42995313 -0.07928437 -0.03753661 -0.23843744 -0.14311057
0.08732251 0.2774427 0.2977187 0.30187583 -0.25508776 0.08889344 0.09732235 -0.36913955
-0.3973324 -0.13267079 -0.23210411 0.09943269 -0.47575387 0.24701972 -0.153839 -0.15467748
0.318649 -0.14664748 -0.027748179 -0.15419453 -0.2062352 0.20028906 0.022731727 -0.19865157
0.2589819 -0.35988912 -0.028644659 -0.47072008 -0.24353278 -0.4026363 -0.5165309 -0.03859049
-0.34931156 -0.20307797 0.10546468 -0.21691252 0.08527499 0.07239018 0.27505034 -0.042279888
-0.09922976 0.2110324 0.20131114 -0.24915372 0.34638542 0.353929 -0.36504075 -0.14332573
-0.13259923 0.20631833 0.10852454 -0.41813555 -0.32615784 -0.28948393 0.33454373 -0.5624346
-0.4449391 0.113313116 0.19922657 -0.3304419 -0.20578374 -0.39776933 -0.38450614 0.1797476
-0.12027054 0.022471538 0.1045507 0.14253531 -0.020104848 -0.5460873 0.23670115 -0.1172236
0.3214877 0.077795 -0.2885845 -0.11184448 -0.38610902 0.051611893 0.07321175 0.08338042
0.21285012 0.07152339 0.2811621 -0.098892495 -0.32607096 0.045086816 0.11325011 -0.33049592
0.20483907 -0.0068952977 0.5435537 0.10436139 0.03014506 -0.41086257 -0.34915116 -0.18625893
0.019171054 -0.4279755 -0.009672319 -0.039575875 0.33535317 -0.028090607 0.22557016 0.2183365
0.09657443 -0.3549607 -0.17397757 -0.24377201 -0.3926544 -0.32880566 0.006832446 0.2302557
-0.039934542 0.041966166 -0.19612452 -0.3851254 0.0064059263 -0.066945106 -0.33547357 -0.2754282
00000000: e88e bcbe cf49 edbe 4ad5 bbbe d122 dcbe
00000010: d85f a2bd fdbf 19bd f228 74be 948b 12be
00000020: 25d6 b23d f80c 8e3e 966e 983e 788f 9a3e
00000030: dd9a 82be c40d b63d f150 c73d dcff bcbe
00000040: 276f cbbe dada 07be b3ac 6dbe 5ea3 cb3d
00000050: 0396 f3be bdf2 7c3e f987 1dbe c663 1ebe
00000060: f625 a33e c22a 16be 2650 e3bc 2ce5 1dbe
00000070: 522f 53be 9318 4d3e e337 ba3c 516b 4bbe
00000080: 4799 843e 6343 b8be 34a8 eabc 3902 f1be
00000090: a860 79be 5826 cebe 5e3b 04bf 1011 1ebd
000000a0: f7d8 b2be acf3 4fbe defd d73d 511e 5ebe
000000b0: a7a4 ae3d 4d41 943d 66d3 8c3e ad2d 2dbd
000000c0: f938 cbbd e118 583e 8224 4e3e 2722 7fbe
000000d0: 6e59 b13e 2f36 b53e 9fe6 babe fbc3 12be
000000e0: 18c8 07be 1d45 533e 1d42 de3d dd15 d6be
000000f0: 29fe a6be 3d37 94be 5149 ab3e b7fb 0fbf
00000100: 0fcf e3be b510 e83d 0d02 4c3e ae2f a9be
00000110: f9b8 52be 6ca8 cbbe fddd c4be c10f 383e
00000120: 6750 f6bd 3b16 b83c ad1e d63d c7f4 113e
00000130: ecb2 a4bc 61cc 0bbf c961 723e ed12 f0bd
00000140: 099a a43e fc52 9f3d 59c1 93be b80e e5bd
00000150: 15b0 c5be fe66 533d 0bf0 953d 5bc3 aa3d
00000160: 62f5 593e db7a 923d 7bf4 8f3e 2688 cabd
00000170: c6f2 a6be f4ac 383d acef e73d c336 a9be
00000180: 55c1 513e f3f1 e1bb 5626 0b3f 6dbb d53d
00000190: c6f2 f63c 945c d2be f1c3 b2be a9ba 3ebe
000001a0: 9d0c 9d3c 9b1f dbbe a578 1ebc 501a 22bd
000001b0: 69b3 ab3e 461e e6bc ddfb 663e 9a93 5f3e
000001c0: d1c8 c53d 69bd b5be 2d27 32be 5f9f 79be
000001d0: ff09 c9be 3759 a8be b6e2 df3b 26c8 6b3e
000001e0: 6792 23bd b7e4 2b3d ded4 48be 282f c5be
000001f0: cee8 d13b 841a 89bd 31c3 abbe ed04 8dbe

batch_norm1.weight f4 [128]
0.98417014 1.1648097 1.2147416 0.99281925 0.87189764 1.2226063 1.2854515 1.1372246
0.7280102 0.7689124 0.7055554 1.0646203 1.147065 0.85672665 0.8441442 1.1776768
0.97800887 1.3023853 0.8631524 0.84039056 0.83949053 0.7342539 0.9004419 0.87829834
0.8306501 1.2825111 1.2154764 1.405609 1.2102456 1.1362815 0.8515897 0.7348763
0.791458 1.2445942 1.0416914 1.0738559 1.3284066 1.3144147 1.0412091 1.1486274
0.85806185 0.908239 0.82159126 1.1747636 0.97043043 1.036887 0.7975477 1.1299895
1.0324688 0.86543345 0.81415933 1.1819801 0.872814 0.71950454 0.99319434 0.92284244
1.0002711 0.7216346 1.2054268 1.2023618 0.99637383 1.0910738 0.80362445 1.0359964
1.1348293 1.1435987 0.725739 0.9850876 1.0367755 1.008668 1.1766545 0.75405914
0.7263028 0.91022474 0.8013769 0.85422534 0.96645457 0.97952306 1.0660284 1.014891
0.8352571 0.7478489 1.2039343 0.88190156 1.1477135 0.9058045 1.2338711 0.834676
0.7782897 1.2488155 0.8170951 0.81194276 1.0775338 0.8331059 0.751765 1.0731304
0.69668925 0.9055488 0.7728578 0.6793044 1.0550785 0.9835721 0.93827915 1.4428341
1.1420357 1.2608887 0.9351151 0.79349095 0.81747687 1.2551128 0.71554524 0.6926657
0.924099 1.1310216 1.0970588 0.95970714 1.2472687 1.0521816 1.2849538 0.72692114
0.86067224 0.7614248 1.1946065 1.3275365 0.83435297 1.1151221 1.06195 1.0640984
00000000: 93f2 7b3f 7c18 953f a77c 9b3f 6729 7e3f
00000010: af34 5f3f 5d7e 9c3f ad89 a43f 9390 913f
00000020: e05e 3a3f 71d7 443f 479f 343f 7a45 883f
00000030: 07d3 923f 7052 5b3f d619 583f 1dbe 963f
00000040: ca5e 7a3f 90b4 a63f 8ef7 5c3f d623 573f
00000050: dae8 563f 10f8 3b3f 5c83 663f 29d8 603f
00000060: 7ca5 543f 5329 a43f bb94 9b3f ffea b33f
00000070: 54e9 9a3f ac71 913f c801 5a3f da20 3c3f
00000080: fe9c 4a3f dd4e 9f3f 2556 853f 1c74 893f
00000090: 3a09 aa3f be3e a83f 5746 853f 3906 933f
000000a0: f1a9 5b3f 5a82 683f ce53 523f a75e 963f
000000b0: 216e 783f b7b8 843f 162c 4c3f 7fa3 903f
000000c0: f027 843f 0c8d 5d3f bf6c 503f 204b 973f
000000d0: bd70 5f3f 7331 383f fc41 7e3f 673f 6c3f
000000e0: e208 803f 0cbd 383f 6d4b 9a3f fee6 993f
000000f0: 5b12 7f3f 4ea8 8b3f 55ba 4d3f 889b 843f
00000100: 1642 913f 7161 923f 08ca 393f b32e 7c3f
00000110: 0fb5 843f 081c 813f 9d9c 963f 050a 413f
00000120: fbee 393f 7d04 693f 0927 4d3f 83ae 5a3f
00000130: 9169 773f 06c2 7a3f 9e73 883f f3e7 813f
00000140: 69d3 553f 0773 3f3f 851a 9a3f 4dc4 613f
00000150: 47e8 923f cee2 673f 7def 9d3f 54ad 553f
00000160: fe3d 473f 30d9 9f3f 252d 513f 7bdb 4f3f
00000170: a1ec 893f 6e46 553f ac73 403f 565c 893f
00000180: 3a5a 323f 0cd2 673f 02da 453f e5e6 2d3f
00000190: d00c 873f 62cb 7b3f 1033 703f caae b83f
000001a0: 3a2e 923f cd64 a13f b463 6f3f 3922 4b3f
000001b0: 2a46 513f 89a7 a03f f92d 373f 8a52 313f
000001c0: c191 6c3f 51c5 903f 6c6c 8c3f 5eaf 753f
000001d0: 80a6 9f3f e3ad 863f 5e79 a43f 8117 3a3f
000001e0: 0455 5c3f bcec 423f dee8 983f b7ec a93f
000001f0: 2898 553f 52bc 8e3f faed 873f 6034 883f

batch_norm1.bias f4 [128]
-0.01977483 0.021656822 0.016160004 -0.0017769625 -0.0056873546 0.021337911 0.1039041 -0.0040369905
-0.02053071 -0.016289184 -0.027047344 -0.027325265 0.034603395 -0.016322616 0.0018984246 0.03163277
-0.014384626 0.010489525 0.02271977 -0.097128324 -0.017204316 -0.01570692 -0.018378913 -0.014392899
-0.22538514 0.042778376 0.010136839 0.016129179 0.049449425 -0.11218297 -0.004443721 -0.010269199
-0.16069153 0.06686574 -0.0057608886 0.02771346 0.05616036 0.1149286 0.06651032 0.012800496
0.018637365 0.02380642 -0.015635429 0.049836814 -0.038065337 -0.08941793 -0.025485132 -0.011941732
0.0096306605 -0.05640135 -0.030917626 0.09107388 -0.08421149 -0.0337451 0.01736025 0.0010049416
-0.005007015 -0.042204373 -0.06354058 0.021573303 0.038331315 0.024065286 -0.15485963 0.06995884
0.025887396 -0.049958806 -0.077622086 0.04956673 0.005701609 0.023317939 0.0054018865 -0.017777309
-0.027304912 -0.12476358 -0.03811399 -0.06272239 -0.017289871 0.029406758 -0.07159283 0.059086397
-0.09628972 -0.0010537073 0.005963223 -0.0023387773 -0.010971272 -0.017755676 -0.020459259 -0.044830848
-0.080765836 -0.008412668 -0.049782574 -0.019931855 0.046670504 -0.016595427 -0.016224068 0.010910113
-0.055308707 -0.04850053 -0.22197226 -0.013717973 -0.03969907 0.022860577 0.010838937 0.051262114
-0.023329746 0.09933212 -0.02335762 -0.045500644 -0.04731607 0.0011617694 -0.02666027 -0.042122703
-0.1520044 0.0016239887 0.07616606 0.019057265 0.06442321 0.04089658 -0.066752955 -0.046612952
-0.021077966 -0.01542847 0.0060644327 0.04130529 -0.09393458 -0.024953425 0.018489439 0.018382376
00000000: d3fe a1bc a669 b13c fc61 843c f8e8 e8ba
00000010: fd5c babb d8cc ae3c accb d43d bb48 84bb
00000020: 0530 a8bc e570 85bc 6492 ddbc 3cd9 dfbc
00000030: 4abc 0d3d 02b7 85bc 8fd4 f83a 5d91 013d
00000040: 7fad 6bbc 42dc 2b3c d01e ba3c 37eb c6bd
00000050: 11f0 8cbc ccab 80bc 608f 96bc 32d0 6bbc
00000060: 5dcb 66be 6138 2f3d fc14 263c 5721 843c
00000070: 7b8b 4a3d 2fc0 e5bd a29c 91bb 2440 28bc
00000080: 528c 24be e8f0 883d d6c5 bcbb 5707 e33c
00000090: 6808 663d b05f eb3d 9036 883d 2cb9 513c
000000a0: 63ad 983c ae05 c33c df15 80bc b021 4c3d
000000b0: 66ea 1bbd bf20 b7bd 32c6 d0bc 41a7 43bc
000000c0: ebc9 1d3c 1a05 67bd f646 fdbc f184 ba3d
000000d0: 1377 acbd 4d38 0abd 1537 8e3c 3fb8 833a
000000e0: e311 a4bb 7ede 2cbd 9021 82bd 7fba b03c
000000f0: 4c01 1d3d 9024 c53c 8693 1ebe 9546 8f3d
00000100: ce11 d43c 9ba1 4cbd 54f8 9ebd 7c06 4b3d
00000110: 90d4 ba3b 4305 bf3c 4f02 b13b b8a1 91bc
00000120: 8dae dfbc 0c84 ffbd 6a1d 1cbd 9974 80bd
00000130: 7da3 8dbc 71e6 f03c 439f 92bd 9404 723d
00000140: 8b33 c5bd 8d1c 8aba 2467 c33b 2c46 19bb
00000150: dac0 33bc 5a74 91bc 2d9a a7bc 8da0 37bd
00000160: 8f68 a5bd 49d5 09bc d0e8 4bbd 2148 a3bc
00000170: 9229 3f3d 22f3 87bc 56e8 84bc 55c0 323c
00000180: 628b 62bd 7ea8 46bd b24c 63be 59c1 60bc
00000190: 7e9b 22bd 1b46 bb3c cc95 313c 39f8 513d
000001a0: 061e bfbc a36e cb3d 7b58 bfbc e25e 3abd
000001b0: 7fce 41bd 8346 983a a366 dabc db88 2cbd
000001c0: 0ba7 1bbe 05dc d43a f4fc 9b3d fb1d 9c3c
000001d0: 51f0 833d 2c83 273d c6b5 88bd 39ed 3ebd
000001e0: b3ab acbc b2c7 7cbc 26b8 c63b bc2f 293d
000001f0: c660 c0bd 206b ccbc 2a77 973c a396 963c

batch_norm1.running_mean f4 [128]
6e-45 0.044439837 0.017183304 5.2718635e-10 0.26023382 0.027453937 0.011241631 0.005446501
0.6023604 0.7450908 0.68419415 0.31345415 0.00029195612 0.52963275 0.40789706 0.0010495262
5.3943934e-09 0.042284306 0.025764015 0.16689873 0.34584033 0.6139424 0.36763 0.22821009
0.3141777 0.029975152 0.04319636 0.05512137 0.014822923 0.203765 0.23246528 0.43052438
0.2631627 0.024872571 0.02914641 0.05283637 0.025447432 0.010483066 0.028280456 0.016866943
0.12193412 0.024628332 0.20021032 0.011890128 0.13281247 0.12519564 0.5912894 0.022056725
0.0103009585 0.23983106 0.65915215 0.016504413 0.3615636 0.576481 6e-45 6e-45
0.11965537 0.26678315 0.1245955 4.2097978e-05 6e-45 0.11614912 0.34811246 0.038164396
0.09513784 0.12927921 0.303494 6e-45 0.0767812 0.08221729 0.00061028945 0.4744128
0.54578584 0.03878123 0.38989377 0.1617253 0.042392112 6e-45 0.24420176 0.0018304699
0.3463708 0.6748766 0.0055313706 0.1813268 6e-45 0.571253 0.11161456 0.10557229
0.25318962 0.08785729 0.7075273 0.12401324 5.1707784e-06 0.33478677 0.6914462 0.036350664
0.495306 0.23153907 0.545138 0.45012397 0.11039794 6e-45 0.17473584 0.017282108
0.042359196 0.0005612557 0.39237434 0.07570058 0.53549933 0.02425202 0.53097224 0.6072955
0.10883623 0.00054708763 0.010755384 0.027530586 0.020576809 0.058372762 0.14164244 0.5665309
0.113660656 0.419066 0.017408026 0.013134397 0.040727615 0.011234291 0.18011376 0.034677874
00000000: 0400 0000 8c06 363d 00c4 8c3c 71e9 1030
00000010: 5e3d 853e 14e7 e03c d12e 383c 9078 b23b
00000020: 4b34 1a3f 45be 3e3f 5927 2f3f 107d a03e
00000030: b011 9939 0396 073f e2d7 d03e 4190 893a
00000040: 9659 b931 4f32 2d3d 0e0f d33c 80e7 2a3e
00000050: fc11 b13e 542b 1d3f 003a bc3e e8af 693e
00000060: e6db a03e 738e f53c abee 303d f2c6 613d
00000070: d8db 723c c6a7 503e 610b 6e3e b16d dc3e
00000080: 43bd 863e 90c1 cb3c 74c4 ee3c f36a 583d
00000090: 2277 d03c 2ac1 2b3c 6aac e73c 8b2c 8a3c
000000a0: 99b8 f93d 5bc1 c93c ef03 4d3e d0ce 423c
000000b0: feff 073e 4933 003e be5e 173f 4eb0 b43c
000000c0: 5ac5 283c 4696 753e 32be 283f 4334 873c
000000d0: dd1e b93e 4294 133f 0400 0000 0400 0000
000000e0: e00d f53d cd97 883e ed2b ff3d 5c92 3038
000000f0: 0400 0000 97df ed3d cc3b b23e 4552 1c3d
00000100: a1d7 c23d c561 043e 9163 9b3e 0400 0000
00000110: 763f 9d3d 8a61 a83d d5fb 1f3a 3ce6 f23e
00000120: 9fb8 0b3f 11d9 1e3d 28a0 c73e 519b 253e
00000130: 5aa3 2d3d 0400 0000 0710 7a3e 61ec ef3a
00000140: 8357 b13e b6c4 2c3f 8040 b53b bcad 393e
00000150: 0400 0000 a33d 123f 2d96 e43d 4936 d83d
00000160: 12a2 813e 86ee b33d 8220 353f a7fa fd3d
00000170: a680 ad36 2c69 ab3e 9e02 313f 6fe4 143d
00000180: bf98 fd3e 9418 6d3e 2a8e 0b3f a676 e63e
00000190: 5118 e23d 0400 0000 f4ed 323e 3593 8d3c
000001a0: d680 2d3d 3c21 133a 4ae5 c83e e808 9b3d
000001b0: 7c16 093f 2cac c63c cced 073f b877 1b3f
000001c0: 88e5 de3d 6e6a 0f3a 5a37 303c d387 e13c
000001d0: b290 a83c 4718 6f3d b70a 113e 2b08 113f
000001e0: ebc6 e83d d28f d63e 479b 8e3c a731 573c
000001f0: 00d2 263d 0810 383c be6f 383e 630a 0e3d

batch_norm1.running_var f4 [128]
6e-45 0.014258171 0.005654824 2.8702448e-12 0.24422307 0.0047850707 0.0028863403 0.0007785027
0.794959 1.1169331 0.9017276 0.09064611 4.264932e-05 0.85005325 0.5079646 0.000105666775
2.3267963e-10 0.014733969 0.004119665 0.047800556 0.38478106 0.70201355 0.5777437 0.22335564
0.055496674 0.005324849 0.010687858 0.017944943 0.0019373555 0.05721848 0.17245358 0.5198058
0.047592707 0.004850819 0.0040599196 0.030036787 0.005077478 0.0022917648 0.007340077 0.0016274598
0.061137766 0.003906247 0.1010583 0.0035554387 0.042013455 0.028069412 0.86687255 0.0020437425
0.0020280133 0.09988406 1.2158045 0.0023486358 0.113731794 0.56895196 6e-45 6e-45
0.071170576 0.10601716 0.0234014 3.7327593e-06 6e-45 0.086631335 0.078997314 0.011084325
0.07710029 0.03196688 0.15650684 6e-45 0.03827815 0.05542638 3.2668595e-05 0.45324042
0.7199357 0.0061627137 0.4442599 0.03470414 0.008461363 6e-45 0.053584877 0.00019620394
0.13379754 1.0537448 0.000740426 0.14015768 6e-45 1.019488 0.0324565 0.017107425
0.11434631 0.016667658 1.2804908 0.047577433 5.2767274e-07 0.36190656 1.0393203 0.01449658
0.4742521 0.11844897 0.12679204 0.45580557 0.03724032 6e-45 0.17284855 0.004877969
0.0042665945 9.783025e-05 0.51321936 0.015985237 0.45146245 0.0041760826 0.5430266 0.7639066
0.023771295 3.9532923e-05 0.003135651 0.0047181514 0.0036696263 0.029304873 0.046360385 0.6609236
0.04347095 0.3799968 0.0048557795 0.0037387656 0.006697152 0.00071495754 0.17401813 0.012425421
00000000: 0400 0000 1b9b 693c 1a4c b93b bcf9 492c
00000010: 9d15 7a3e 15cc 9c3b c128 3d3b 6f14 4c3a
00000020: 6f82 4b3f aaf7 8e3f 9fd7 663f aba4 b93d
00000030: 5ce2 3238 179d 593f f809 023f 6b99 dd38
00000040: 7ed5 7f2f bf66 713c 41fe 863b 84ca 433d
00000050: 0602 c53e 29b7 333f 03e7 133f 57b7 643e
00000060: 7b50 633d 127c ae3b 201c 2f3c 4601 933c
00000070: ddee fd3a ed5d 6a3d ac97 303e fe11 053f
00000080: 92f0 423d 9ef3 9e3b 1309 853b b50f f63c
00000090: f960 a63b 6f31 163b 0785 f03b 7d50 d53a
000000a0: 986b 7a3d f3ff 7f3b a7f7 ce3d 5d02 693b
000000b0: 4d16 2c3d d3f1 e53c 5ceb 5d3f 4ff0 053b
000000c0: 6be8 043b 0490 cc3d 7b9f 9b3f 92eb 193b
000000d0: 37ec e83d d6a6 113f 0400 0000 0400 0000
000000e0: e1c1 913d 861f d93d 4bb4 bf3c 5180 7a36
000000f0: 0400 0000 c56b b13d 58c9 a13d 079b 353c
00000100: c2e6 9d3d b4ef 023d 5443 203e 0400 0000
00000110: 8dc9 1c3d c606 633d a305 0938 210f e83e
00000120: b54d 383f 97f0 c93b 0976 e33e ee25 0e3d
00000130: 87a1 0a3c 0400 0000 d17b 5b3d 18bc 4d39
00000140: 3902 093e 1ce1 863f 2619 423a 7f85 0f3e
00000150: 0400 0000 957e 823f 1bf1 043d df24 8c3c
00000160: 662e ea3d 9d8a 883c 1fe7 a33f 8ee0 423d
00000170: 65a5 0d35 d14b b93e 7308 853f 1083 6d3c
00000180: 2cd1 f23e 6095 f23d c6d5 013e 595f e93e
00000190: 4e89 183d 0400 0000 36ff 303e 5fd7 9f3b
000001a0: cace 8b3b 372a cd38 5862 033f 79f3 823c
000001b0: 1626 e73e 85d7 883b cb03 0b3f 628f 433f
000001c0: 05bc c23c 27d0 2538 7e7f 4d3b b99a 9a3b
000001d0: 1d7e 703b c610 f03c 63e4 3d3d 4a32 293f
000001e0: 980e 323d f18e c23e 3b1d 9f3b 1406 753b
000001f0: c873 db3b fd6b 3b3a cf31 323e fe93 4b3c

dense1.weight f4 [100, 1664]
0.009361009 0.013228285 0.023889929 0.011332659 0.02207529 0.01911783 0.023084577 -0.005254531
-0.00945602 0.019524721 -0.012547063 0.035261422 0.033307627 0.10308937 0.07631634 0.09655359
0.06382073 -0.028129416 -0.045138855 -0.007833527 -0.03111966 -0.06685441 -0.03335813 -0.05753263
-0.14139655 -0.007984003 -0.047836807 -0.044352572 0.03240397 0.036262028 0.05581879 0.11604612
0.048769705 0.109261155 0.121881425 -0.043374304 -0.059859358 0.058663376 0.09619168 -0.021341741
-0.047166828 -0.020959843 -0.03395294 -0.0046458114 -0.0316152 -0.038330715 -0.024634778 -0.010358756
0.013040095 -0.0034547953 0.0012460555 -0.04698383 -0.088774666 -0.09265081 -0.124341555 -0.12695272
0.0061289766 0.09080762 0.15618111 0.11587108 0.074016385 0.0670189 0.10109362 0.02957925
-0.049921125 -0.14629532 -0.08953628 -0.1072358 -0.03328849 -0.07267262 -0.1011194 -0.041845288
-0.022202585 -0.056890577 0.060707826 0.06687913 0.13924794 0.07534354 0.00033779285 -0.071497336
-0.018226406 -0.024593942 -0.04441713 -0.05306303 -0.038740966 -0.0025503885 0.038155213 0.06626063
0.08452356 0.105075136 0.0076628947 -0.19584565 -0.0776266 -0.092484646 -0.04386899 -0.047538236
-0.018580439 -0.041409228 0.0129806595 0.032570723 0.05275803 0.06451517 0.058987174 0.07368533
0.085768454 0.041243352 0.026825307 0.026371486 -0.084627755 -0.011765152 0.0311534 -0.004525311
0.045132272 -0.022396171 -0.06529086 -0.0013709972 -0.006055807 0.07998522 0.03769576 0.060706314
0.020968918 -0.069486514 -0.08320405 0.024639951 -0.010311836 0.046317477 -0.078794755 -0.105772346
-0.03822679 -0.00891311 0.09358476 0.057772227 0.041612167 0.051516704 -0.056875218 -0.09094199
0.0007782812 -0.01946279 -0.0012295387 -0.05529216 -0.07882354 -0.06388878 0.006172562 0.027406722
0.05935207 -0.032945935 -0.07662644 -0.08518438 -0.036420412 -0.002009111 -0.0006037118 -0.058811925
-0.01601794 0.010594012 0.027952762 0.026721567 0.07654967 -0.05948504 -0.05810617 -0.042648017
0.02257051 0.02224996 0.051447492 0.050686486 0.06495903 -0.013836733 -0.052082922 -0.034717698
-0.00770558 -0.09151906 -0.104599774 -0.08182057 -0.019177953 0.08195593 0.06527453 0.06342857
0.050424315 0.08996051 0.08102544 0.059311587 -7.894784e-06 -0.021007279 -0.10979009 -0.10791334
-0.08313413 -0.020200191 0.01607586 0.027966144 0.060435906 0.026662113 0.079332136 0.12481876
0.044077955 -0.023360582 -0.062221147 -0.056617126 -0.056047343 -0.014159768 0.07825233 0.04921835
0.060656987 0.028218806 0.048889697 -0.038392767 -0.0819857 0.008195181 0.020758139 0.045503043
-0.0125747295 0.0017820727 -0.030612217 -0.018099254 -0.034442887 -0.021809408 -0.018397758 -0.035188615
0.0033263934 -0.0058317073 -0.059370417 -0.013743972 -0.04412513 -0.068049714 -0.11192376 -0.0995195
0.015943477 0.13898483 0.1593066 0.07292498 0.09233314 0.11908129 0.016484264 0.01879799
-0.018819813 -0.024553075 0.09016035 0.07062468 0.026163736 0.032574665 -0.03870076 -0.04757512
-0.03759486 -0.03758025 -0.013853198 0.018226987 -0.06234966 -0.07327933 -0.058270253 0.0658654
0.09976139 0.08940691 0.049931586 -0.03773787 -0.08346862 -0.06331952 -0.0012821772 0.03139652
00000000: eb5e 193c 73bb 583c d0b4 c33c 9eac 393c
00000010: 3dd7 b43c ff9c 9c3c de1b bd3c 332e acbb
00000020: 6ced 1abc 4ff2 9f3c 3292 4dbc 486e 103d
00000030: 946d 083d 8520 d33d be4b 9c3d e3bd c53d
00000040: 71b4 823d a96f e6bc 85e3 38bd 3258 00bc
00000050: a8ee febc f7ea 88bd 89a2 08bd 56a7 6bbd
00000060: 42ca 10be 56cf 02bc 87f0 43bd 0bab 35bd
00000070: 06ba 043d 7e87 143d 3ea2 643d 97a9 ed3d
00000080: bec2 473d 50c4 df3d f89c f93d 41a9 31bd
00000090: 162f 75bd 0249 703d 2500 c53d e0d4 aebc
000000a0: 0132 41bd fab3 abbc 3d12 0bbd e43b 98bb
000000b0: f17e 01bd ab00 1dbd e0ce c9bc c6b7 29bc
000000c0: 1fa6 553c d969 62bb af52 a33a 1e72 40bd
000000d0: 7ecf b5bd b5bf bdbd c9a6 febd e5ff 01be
000000e0: 95d5 c83b 58f9 b93d f1ed 1f3e d14d ed3d
000000f0: e795 973d 3441 893d 2c0a cf3d 2f50 f23c
00000100: 187a 4cbd 71ce 15be cc5e b7bd 719e dbbd
00000110: 8359 08bd 62d5 94bd b017 cfbd f765 2bbd
00000120: 32e2 b5bc 1806 69bd c5a8 783d edf7 883d
00000130: 0397 0e3e b74d 9a3d ca19 b139 326d 92bd
00000140: 8b4f 95bc 3c79 c9bc bdee 35bd 9f58 59bd
00000150: d9ae 1ebd 6b24 27bb a448 1c3d a7b3 873d
00000160: b01a ad3d a231 d73d 0519 fb3b c38b 48be
00000170: b2fa 9ebd 9768 bdbd f8af 33bd 74b7 42bd
00000180: 0136 98bc b99c 29bd d5ac 543c e168 053d
00000190: ce18 583d 8820 843d 899c 713d 56e8 963d
000001a0: 5fa7 af3d caee 283d bfc0 db3c 0409 d83c
000001b0: 5151 adbd a0c2 40bc 6a35 ff3c 0f49 94bb
000001c0: 9edc 383d 2d78 b7bc 37b7 85bd 08b3 b3ba
000001d0: cb6f c6bb 4bcf a33d df66 1a3d 2fa7 783d
000001e0: 02c7 ab3c f24e 8ebd e366 aabd b9d9 c93c
000001f0: faf2 28bc 65b7 3d3d 255f a1bd 2c9f d8bd
00000200: b293 1cbd 4b08 12bc 5ea9 bf3d 92a2 6c3d
00000210: 8571 2a3d 2e03 533d fdf5 68bd cb3f babd
00000220: 9105 4c3a 6e70 9fbc 7928 a1ba 087a 62bd
00000230: 3c6e a1bd 1fd8 82bd 3443 ca3b 1084 e03c
00000240: 281b 733d 51f2 06bd 53ee 9cbd 2675 aebd
00000250: 922d 15bd 4aab 03bb 6a42 1eba c6e4 70bd
00000260: 0e38 83bc 8292 2d3c 31fd e43c 30e7 da3c
00000270: 13c6 9c3d 96a6 73bd bc00 6ebd b0af 2ebd
00000280: cae5 b83c 8c45 b63c 9bba 523d a29c 4f3d
00000290: 3d09 853d 77b3 62bc e754 55bd 2534 0ebd
000002a0: 177f fcbb 586e bbbd 6838 d6bd 8b91 a7bd
000002b0: 151b 9dbc 83d8 a73d a7ae 853d d7e6 813d
000002c0: ba89 4e3d 373d b83d aaf0 a53d b5f0 723d
000002d0: d773 04b7 7517 acbc a0d9 e0bd ab01 ddbd
000002e0: 3a42 aabd df7a a5bc 86b1 833c 4119 e53c
000002f0: a48b 773d 816a da3c e378 a23d faa0 ff3d
00000300: 168b 343d b15e bfbc 9adb 7ebd 5ce7 67bd
00000310: e691 65bd 5ffe 67bc c242 a03d 2e99 493d
00000320: 7673 783d 202b e73c 9040 483d bc41 1dbd
00000330: 1ee8 a7bd 1545 063c f90c aa3c 6661 3a3d
00000340: 3d06 4ebc 7094 e93a 79c6 fabc e344 94bc
00000350: fc13 0dbd a5a9 b2bc e5b6 96bc f021 10bd
00000360: 9fff 593b e817 bfbb 652e 73bd 662e 61bc
00000370: 8dbc 34bd a65d 8bbd 4938 e5bd e1d0 cbbd
00000380: e59b 823c 0a52 0e3e 4521 233e b159 953d
00000390: 2819 bd3d e4e0 f33d 020a 873c 3efe 993c
000003a0: 022c 9abc 8823 c9bc fda5 b83d aca3 903d
000003b0: 5555 d63c 036d 053d b084 1ebd 21de 42bd
000003c0: 11fd 19bd c0ed 19bd 86f8 62bc c350 953c
000003d0: 5b62 7fbd 7913 96bd caac 6ebd 70e4 863d
000003e0: b34f cc3d f81a b73d 1085 4c3d 0693 1abd
000003f0: 99f1 aabd aaad 81bd ba0e a8ba a399 003d

dense1.bias f4 [100]
0.007219078 -0.07298634 -0.0064996453 0.019433225 0.032077614 -0.0563164 -0.033752162 -0.02588299
0.008116667 -0.023545986 0.039516248 0.06663561 -0.027497187 0.0065464005 0.0028289694 0.041788243
-0.050825946 -0.05371952 0.016487326 0.030233255 -0.015960814 -0.012679873 -0.024904663 0.044847
-0.0050816946 0.031851653 0.039605003 -0.0174833 -0.06522351 0.003179554 0.07154441 -0.027748484
-0.026589544 -0.015140746 -0.06736403 -0.04636907 0.022087835 -0.041227803 -0.00540723 0.0013126502
-0.07194298 0.077390775 -0.0024479227 -0.061586615 0.031174067 0.0008630659 0.009115299 0.04162801
0.08447599 -0.008866701 -0.083498485 -0.027324183 0.022777807 -0.0039247037 -0.052229814 0.02307719
-0.02290807 -0.027414983 0.0039740577 0.032414425 -0.06338042 -0.038455255 0.0058385395 0.00178887
0.0023137284 -0.026161667 0.0068646013 -0.005841912 -0.02078421 0.017793212 -0.061507557 -0.0056905374
-0.03191804 -0.039500754 0.029854033 -0.02723056 0.07609861 -0.0025162958 -0.023849668 0.024646858
0.08724639 -0.0698804 0.031505328 0.010621268 -0.01869246 -0.08756472 -0.013211655 -0.06661373
0.013858285 -0.031896625 -0.0121832 0.0567569 0.07365313 -0.0035410498 0.00758788 -0.091990985
-0.046425942 0.0046493374 -0.01445864 0.044787936
00000000: 048e ec3b dd79 95bd fafa d4bb 6d32 9f3c
00000010: d163 033d 07ac 66bd b53f 0abd 9008 d4bc
00000020: c5fb 043c 83e3 c0bc cadb 213d 4078 883d
00000030: c841 e1bc 3083 d63b 3b66 393b 262a 2b3d
00000040: de2e 50bd 0009 5cbd 6e10 873c bbab f73c
00000050: 41c0 82bc 3ebf 4fbc dd04 ccbc 7db1 373d
00000060: 5884 a6bb e176 023d db38 223d 2339 8fbc
00000070: e793 85bd 1060 503b e085 923d ca50 e3bc
00000080: 51d2 d9bc e410 78bc 27f6 89bd 7eed 3dbd
00000090: 8cf1 b43c 7cde 28bd 222f b1bb 3b0d ac3a
000000a0: d756 93bd 0e7f 9e3d 546d 20bb 3f42 7cbd
000000b0: c260 ff3c 5f3f 623a 5658 153c 2282 2a3d
000000c0: bf01 ad3d a445 11bc 4101 abbd f7d6 dfbc
000000d0: 8698 ba3c cd9a 80bb eeee 55bd 600c bd3c
000000e0: b4a9 bbbc 6395 e0bc d038 823b fdc4 043d
000000f0: 98cd 81bd 4283 1dbd 3851 bf3b 8478 ea3a
00000100: eca1 173b fe50 d6bc 73f0 e03b 826d bfbb
00000110: a643 aabc 12c3 913c 59ef 7bbd b077 babb
00000120: 7ebc 02bd 8bcb 21bd 7290 f43c a012 dfbc
00000130: 97d9 9b3d 70e8 24bb 6160 c3bc 35e8 c93c
00000140: 3cae b23d 751d 8fbd bb0b 013d d404 2e3c
00000150: ee20 99bc 2255 b3bd b375 58bc c76c 88bd
00000160: dc0d 633c 09a6 02bd 0b9c 47bc ec79 683d
00000170: 74d7 963d f510 68bb c0a3 f83b c565 bcbd
00000180: 2129 3ebd 7859 983b eee3 6cbc 8e73 373d

dense2.weight f4 [33, 100]
-0.1405986 0.1049015 -0.075520486 -0.111205876 -0.059844624 -0.07948855 0.11237337 0.062061463
-0.050800636 0.06553326 -0.015382486 0.09381587 0.07666968 -0.038399983 -0.12361624 0.06535631
-0.051587757 -0.09497465 0.022362774 -0.08171681 -0.13268311 0.06733216 0.06981997 -0.09466064
0.039061166 -0.09122852 -0.0970858 -0.0883807 -0.009939032 -0.13156828 -0.15595753 -0.05936437
0.031509813 -0.04159912 -0.040880103 0.025995791 0.013132371 -0.0064357063 -0.044135533 0.089157075
0.027564608 -0.14465955 0.010394092 -0.038691785 0.0063826353 -0.10047574 -0.049086094 0.09020299
-0.22357939 -0.0964649 0.04255258 -0.058793973 0.05297878 -0.081322156 -0.18271132 -0.08332762
-0.014309091 0.0490377 -0.07472335 0.001124768 0.06004112 0.09028187 0.05997409 -0.034938216
-0.11505922 0.074932106 -0.078933954 -0.062669404 -0.041291896 -0.06421769 -0.09897413 -0.10518443
-0.10834579 0.11673733 0.0014342391 -0.005407521 -0.11947808 0.02387734 -0.07694125 0.016533941
-0.1178962 0.0063323583 0.08532812 -0.0632454 -0.031511623 0.02155923 -0.13416946 0.12446194
-0.24529092 0.0812219 -0.016977383 0.014127314 0.022992646 0.052407008 -0.029615894 -0.11850316
0.1202607 0.05597872 0.09802195 -0.13448958 -0.015497802 -0.0118158525 -0.0013956665 -0.112153284
-0.09323094 -0.07711023 -0.035030626 -0.11149447 -0.07419065 -0.044960666 -0.13070859 0.004224705
-0.028673802 -0.06018132 0.03567285 -0.03663834 -0.118664764 0.028970541 -0.13319601 -0.03998443
-0.19169751 0.045766123 0.012623714 -0.011303589 -0.08528636 0.02311308 -0.015104826 -0.046319634
-0.0907391 -0.060383055 -0.026682043 -0.027751524 -0.05609873 -0.08294986 -0.14046241 -0.019219007
-0.020209434 0.051738463 -0.1509567 -0.1030058 -0.12873536 -0.0019251171 -0.06348049 -0.025664372
-0.0056557325 -0.003376046 -0.04445805 -0.14670068 -0.12799686 -0.038204204 -0.09164568 -0.14652748
-0.11664271 -0.12014498 -0.092927404 -0.07529423 0.0043621706 -0.063502826 -0.1300384 -0.0056393757
-0.09470922 0.026849614 -0.049568094 -0.11449748 -0.0990509 -0.12725177 0.044300277 -0.077336386
0.023505861 -0.093172915 -0.12521455 -0.07048832 -0.1007138 -0.07819886 -0.042306766 -0.081384614
-0.15618524 -0.11862234 -0.06728337 0.008248812 -0.08533802 -0.030661888 0.056912616 -0.059408687
-0.12080582 -0.12325179 -0.006671763 -0.009165406 -0.090268105 -0.102030315 0.0023242321 -0.064748585
-0.08868156 -0.062071163 0.039520387 -0.14414626 0.030329265 -0.04104997 -0.11670696 -0.15138078
-0.22742409 -0.08299726 -0.0073581045 -0.11718147 -0.21860291 -0.1503611 -0.044446915 -0.07181212
-0.023463592 0.095831566 0.12101954 0.08318464 -0.0013556594 0.02442949 0.07831333 -0.07356576
-0.18818098 -0.009160345 -0.10014841 -0.081525885 -0.12241927 -0.10094861 0.019887025 0.093311526
0.09041622 -0.029701091 0.041619413 -0.03188596 -0.034069445 0.058101054 -0.10958098 0.050712567
-0.033825815 -0.0597404 0.06405598 -0.0075455494 -0.00012819031 0.051946227 0.02038248 -0.14721856
-0.12871942 -0.1341284 0.082083106 -0.12954907 -0.041524094 -0.13479923 -0.08027084 0.057849072
0.09607415 -0.14320005 0.0060524475 -0.21586938 -0.00067326357 0.0642691 -0.105289124 0.110404395
00000000: 14f9 0fbe 99d6 d63d 7caa 9abd e8bf e3bd
00000010: a31f 75bd e5ca a2bd 0224 e63d 2934 7e3d
00000020: 5414 50bd 4d36 863d d306 7cbc 8922 c03d
00000030: fe04 9d3d 4d49 1dbd 832a fdbd 87d9 853d
00000040: af4d 53bd 1282 c2bd 2332 b73c 255b a7bd
00000050: 15de 07be 72e5 893d c6fd 8e3d 70dd c1bd
00000060: 9afe 1f3d 05d6 babd ebd4 c6bd f100 b5bd
00000070: 52d7 22bc d6b9 06be 55b3 1fbe 0e28 73bd
00000080: 6f10 013d d763 2abd e571 27bd 20f5 d43c
00000090: 2829 573c 9ee2 d2bb 76c7 34bd fc97 b63d
000000a0: 2ccf e13c a221 14be fb4b 2a3c 477b 1ebd
000000b0: 6d25 d13b 3ac6 cdbd 800e 49bd 58bc b83d
000000c0: fff1 64be 648f c5bd 9d4b 2e3d f3d1 70bd
000000d0: 4700 593d 3b8c a6bd ad18 3bbe aca7 aabd
000000e0: ad70 6abc c1db 483d 8e08 99bd f46c 933a
000000f0: aded 753d b3e5 b83d 64a7 753d 601b 0fbd
00000100: 2ba4 ebbd 0176 993d 20a8 a1bd d158 80bd
00000110: b121 29bd 9084 83bd f3b2 cabd ef6a d7bd
00000120: 66e4 ddbd fb13 ef3d 14fd bb3a 9331 b1bb
00000130: ecb0 f4bd 699a c33c 6093 9dbd 3072 873c
00000140: 9073 f1bd ac7f cf3b 82c0 ae3d ce86 81bd
00000150: 5512 01bd fb9c b03c b863 09be e7e5 fe3d
00000160: 8b2d 7bbe ab57 a63d 2714 8bbc 4076 673c
00000170: 135b bc3c bba8 563d 089d f2bc c9b1 f2bd
00000180: 3e4b f63d f149 653d bbbf c83d a3b7 09be
00000190: 7eea 7dbc 4797 41bc ccee b6ba 9fb0 e5bd
000001a0: ddef bebd f8eb 9dbd 467c 0fbd 3657 e4bd
000001b0: 44f1 97bd ad28 38bd 79d8 05be 656f 8a3b
000001c0: 52e5 eabc b080 76bd b21d 123d 1612 16bd
000001d0: 8306 f3bd a153 ed3c 8964 08be b7c6 23bd
000001e0: 5a4c 44be 4275 3b3d b2d3 4e3c b032 39bc
000001f0: 9daa aebd a457 bd3c 3b7a 77bc a8b9 3dbd
00000200: 6cd5 b9bd 3954 77bd 4d94 dabc 2a57 e3bc
00000210: c8c7 65bd 9ee1 a9bd 61d5 0fbe 2e71 9dbc
00000220: 418e a5bc b6eb 533d 6594 1abe b4f4 d2bd
00000230: 34d3 03be 3654 fcba 0f02 82bd 173e d2bc
00000240: b953 b9bb a740 5dbb a519 36bd b438 16be
00000250: 9c11 03be 037c 1cbd bbb0 bbbd 4d0b 16be
00000260: 60e2 eebd 920e f6bd b950 bebd dc33 9abd
00000270: 8af0 8e3b c50d 82bd c928 05be 83ca b8bb
00000280: e8f6 c1bd b9f3 db3c ea07 4bbd a87d eabd
00000290: 33db cabd 4a4e 02be 3574 353d 8a62 9ebd
000002a0: 5d8f c03c 71d1 bebd 3e38 00be 2e5c 90bd
000002b0: 0943 cebd b926 a0bd dc49 2dbd faac a6bd
000002c0: 06ef 1fbe 45f0 f2bd ddcb 89bd 0626 073c
000002d0: b3c5 aebd a42e fbbc 341d 693d 8656 73bd
000002e0: 0b69 f7bd 6f6b fcbd ce9e dabb 802a 16bc
000002f0: 7cde b8bd 45f5 d0bd 2552 183b e89a 84bd
00000300: ad9e b5bd 553e 7ebd 21e0 213d 149b 13be
00000310: 1475 f83c 0324 28bd 0f04 efbd 9003 1bbe
00000320: dce1 68be 78fa a9bd 411c f1bb d7fc efbd
00000330: 71d9 5fbe 43f8 19be f80d 36bd 3c12 93bd
00000340: b836 c0bc 5743 c43d 18d9 f73d b55c aa3d
00000350: 62b0 b1ba 5b20 c83c bd62 a03d a5a9 96bd
00000360: 84b2 40be 4615 16bc 9c1a cdbd 0bf7 a6bd
00000370: f4b6 fabd 25be cebd 1dea a23c 1d1a bf3d
00000380: 242c b93d b44f f3bc 1e79 2a3d da9a 02bd
00000390: 678c 0bbd 5ffb 6d3d fe6b e0bd fbb7 4f3d
000003a0: f08c 0abd 5ab2 74bd c82f 833d a840 f7bb
000003b0: d36a 06b9 91c5 543d 29f9 a63c 76c0 16be
000003c0: 06cf 03be f558 09be 301b a83d 83a8 04be
000003d0: 2b15 2abd cf08 0abe 0a65 a4bd 26f3 6c3d
000003e0: 86c2 c43d 09a3 12be 9c53 c63b dd0c 5dbe
000003f0: f47d 30ba 859f 833d d3a1 d7bd b31b e23d

dense2.bias f4 [33]
-0.016012393 -0.102068655 -0.06728491 -0.070454456 -0.087769724 -0.024784887 -0.08199434 -0.12487356
0.0019312706 0.084311515 -0.12995557 -0.1124264 -0.1019097 -0.0027694039 -0.101089604 0.06189423
0.056443524 0.09977879 -0.030121023 -0.13475323 -0.03084112 -0.02591189 0.103491 0.072449125
-0.13767873 0.009153695 0.020339789 -0.11696408 0.005146871 -0.03476336 -0.051538553 -0.06128185
-0.09804726
00000000: 6c2c 83bc 5f09 d1bd accc 89bd 6d4a 90bd
00000010: 9dc0 b3bd ad09 cbbc a6ec a7bd b6bd ffbd
00000020: b022 fd3a 84ab ac3d 1313 05be d03f e6bd
00000030: 08b6 d0bd e37e 35bb 1108 cfbd ce84 7d3d
00000040: 5331 673d d258 cc3d 5dc0 f6bc c0fc 09be
00000050: 84a6 fcbc 2c45 d4bc 17f3 d33d 3560 943d
00000060: a7fb 0cbe 61f9 153c a19f a63c dd8a efbd
00000070: 15a7 a83b 0664 0ebd 171a 53bd ad02 7bbd
00000080: 00cd c8bd
