ResNet-PyTorch/ResNet/pnet.pth (torch, 675592 bytes, 10 tensors)

conv1.weight f4 [128, 1, 5]
00000000: f0e2 a7be 98e3 843d 4fbc 6bbe 69fc 733e
00000010: 7a08 a53e 4d19 35be 56b7 b73d 5207 8bbe
00000020: 9384 333e 2015 3d3e 2030 5bbe eaca b53e
00000030: 3a3b 66bc afc0 32be 1b13 8e3e 0dd2 c33e
00000040: d3a2 563e 6421 90bc 784c 71be e9eb 91be
00000050: 1ed5 58be f8a2 273e 98e4 413d b99b 8a3d
00000060: d1a4 36bd 1ba7 633e 9fe8 c7bb 32b0 833e
00000070: 508c 9c3e c80c 263e b9bc 613e e663 903e
00000080: 3e9c cc3d 705b dd3d 1cf3 9fbe a47f 3f3e
00000090: 83e3 9d3e 5a50 f3bd 55f6 75be 3681 debd
000000a0: 0a21 6b3e d86e 8fba a07f 9d3e 35cd ce3d
000000b0: fc95 b93e e8c4 d1bd e1df af3e e58c 863e
000000c0: d4d0 ea3d f20b ec3d 4b4f 473e 2526 f43d
000000d0: 0334 efbd cfc1 54be 7d0a a53d bff6 683e
000000e0: a3b3 8fbc 9efd a53d 5486 593e c0c1 bb3e
000000f0: b8db 3ebe 439b 283c ae4c 1dbe 8702 913d
00000100: bbb0 f1bc a421 103c 0be3 bb3e 6cc5 9ebe
00000110: 1d37 a43e f091 63be a067 993d 44fe bc3e
00000120: b91d 81be e8de 48bd edf6 c0bd f80c 02bd
00000130: fbbb 373d d53a a4bd ba7d 63be 3512 4c3e
00000140: 3b7a c53e b193 2f3c 1ff7 6bbd f069 72be
00000150: aead 59bd 1bb5 b1be 505c 053e 7669 39be
00000160: 104d 3b3e 5c51 a9bd 2d90 c5be 5d8e 6ebe
00000170: af7e 7d3e f8e6 313e a3a6 aebd d02f fbbc
00000180: 7ebc fd3d c3d5 53be 5221 913d 85e2 c4bc
00000190: 8a6d b93d 6b9c 81be 0dab 133d 4027 a93e
000001a0: 31c2 30bd 6892 cc3d d15b 523e 0134 0d3d
000001b0: eced 043e 2848 1abd f891 7ebe 8783 92be
000001c0: 45ba 0a3e fe06 9abe 7c6a b5be 955a b5ba
000001d0: 3ff7 aabe 419e b73e f0fb 043e 18df bb3e
000001e0: 15f8 6d3e 6d40 e7bb bb02 9fbb 32e0 bf3d
000001f0: b2f8 85be 1bc7 4cbd 89ac 873e b82b 3fbe
00000200: 05c3 a7bc ca6d 4c3e b3ba d63d a3ed debd
00000210: 2d37 b8be c320 3d3e b44d b2be 40c7 eebd
00000220: d335 013e c887 0e3e e452 a3be 320f 55be
00000230: 174d dc3c 6aea 26be 0dfc aebc 8ea4 acbe
00000240: 341e a4bd e2de 10be 7a8c 863d 9bd8 8cbe
00000250: 938f 73be 545b 533c ae0f a23e c1af a23e
00000260: 4058 07bd 0fa3 8d3e 76ce 94be 4208 37be
00000270: c762 cf3d e71c ca3c b8bd 5c3e 5be4 11bd
00000280: 6e8e 473e 63e4 a7be 7f35 9ebd 16f5 4ebe
00000290: 0ea7 afbe 510f 0cbe 0c13 77bd 6faa 2fbe
000002a0: c3e1 a8bd 93f6 58be dcca 32be 6896 073e
000002b0: 684a cfbd f5da b4bb 6fed 503e 2d57 3d3e
000002c0: fa9d 51bd 5843 2a3e 6029 66be a4e7 d9bd
000002d0: 1da7 80be a7f4 47bd ea23 653e 7e71 a4be
000002e0: 3ee6 c93e 023f 87be 263b 653c 4c50 35be
000002f0: c7a5 79be 2b96 b63e 4b6d 773e 166c 49bd
00000300: a89a 9fbe b3d9 a53e 7b3d aebe a98e 11be
00000310: 5421 f3bc 8260 abbe 6279 8cbc 52c1 b9be
00000320: 703a 243e b3dc 99bd 1051 943e 974a 20be
00000330: 70d5 c93c ab03 9f3e 5713 b53e aae6 583e
00000340: 19ea 613d e709 3837 c861 b7bd 514b 90bd
00000350: 2d60 6fbd 0be1 533d fbff ecbd 180c 82bd
00000360: e6a9 89be c542 6d3e 729c 6e3e 7d15 a1be
00000370: 12e5 1abe 7450 a53e ba1d 8c3e 2d54 9d3d
00000380: 4438 b93a 4afd 033e 8b1d 653e 521a 47be
00000390: bf5b a43e dd5f 823d 8bb5 4cbe a429 83bd
000003a0: 0183 a33d 287e 4bbe f70b 613d de74 7b3e
000003b0: a749 813d f710 763d cf7b 3e3e d034 e43c
000003c0: 9efe f23c ed7a ac3e ff19 643e d06f 4cbe
000003d0: 3871 83be 8ed8 28be 3544 883e 18da 04be
000003e0: f386 2d3b 63e6 9ebe 2479 363e 776a 153e
000003f0: c8ee 2b3e 09da 17bd 9105 1bbe 7419 20be
-0.32790327 0.064887226 -0.23021053 0.23826756 0.3223303 -0.17685433 0.089705154 -0.27154022
0.17531042 0.1846509 -0.21405077 0.35506374 -0.014052207 -0.17456315 0.2774895 0.38246194
0.2096055 -0.017594047 -0.23564327 -0.28500298 -0.21175048 0.16370761 0.047337145 0.06767983
-0.044590775 0.22231714 -0.0061007286 0.25720364 0.305758 0.16215813 0.22044648 0.28201216
0.09990738 0.10808456 -0.31240165 0.18701035 0.3083764 -0.1188056 -0.2401975 -0.10864489
0.22961822 -0.0010943068 0.30761433 0.10097734 0.36247241 -0.10242635 0.34350494 0.2627937
0.11465612 0.11525716 0.19463842 0.11921338 -0.11679842 -0.20777057 0.08058641 0.22750376
-0.017541712 0.08105014 0.21242648 0.36671257 -0.18638504 0.0102909235 -0.15361282 0.0708056
-0.029503217 0.008797083 0.36696658 -0.31009996 0.32073298 -0.2222364 0.07490468 0.3691274
-0.2521799 -0.049040705 -0.09422097 -0.03175065 0.044857007 -0.08019034 -0.2221593 0.1992882
0.38569817 0.010716365 -0.05760872 -0.23673224 -0.05314415 -0.34708485 0.13023496 -0.18106636
0.18291116 -0.08267471 -0.3858656 -0.23296495 0.24755357 0.17373264 -0.08527877 -0.030662447
0.12389468 -0.20687012 0.070864335 -0.024033794 0.09054096 -0.2531465 0.0360518 0.33037758
-0.043153945 0.09988862 0.20542838 0.034473423 0.12981385 -0.03766647 -0.2486037 -0.28615972
0.13547619 -0.3008346 -0.35432804 -0.00138362 -0.3339176 0.35862926 0.12986732 0.36693645
0.23239167 -0.0070572407 -0.0048526204 0.09368934 -0.26166302 -0.04999457 0.2649882 -0.18669021
-0.020478735 0.19963756 0.10484829 -0.10885169 -0.35979596 0.18469529 -0.34824908 -0.11659098
0.12618189 0.13918984 -0.31899178 -0.20806578 0.026892228 -0.1630036 -0.021360422 -0.33719295
-0.08013573 -0.14147523 0.065697625 -0.27509007 -0.23785238 0.012900192 0.31652588 0.31774715
-0.033043146 0.27663466 -0.29063767 -0.17874244 0.10126262 0.024671985 0.21556747 -0.035618167
0.19487926 -0.32791433 -0.07725047 -0.2021068 -0.3430714 -0.13677718 -0.0603209 -0.17154859
-0.08246186 -0.2118781 -0.17460197 0.13240969 -0.10121614 -0.005519266 0.20403074 0.18490286
-0.05117605 0.16627252 -0.22476721 -0.10639885 -0.25127497 -0.048817303 0.22376981 -0.32117838
0.39433473 -0.2641526 0.013991153 -0.17706412 -0.24379645 0.35661444 0.24162786 -0.049175344
-0.3117268 0.32392654 -0.3403128 -0.14214577 -0.029678978 -0.33472067 -0.017147724 -0.36280304
0.16037917 -0.07512798 0.28968096 -0.15653454 0.024637908 0.31057486 0.35366318 0.21181741
0.055154894 1.096956e-05 -0.08954197 -0.070456155 -0.05844133 0.05172829 -0.11572262 -0.06349963
-0.26887435 0.23170002 0.23301867 -0.31461707 -0.15126446 0.32287943 0.2736643 0.07682071
0.0014131148 0.12889591 0.22374551 -0.19443634 0.32101247 0.06365941 -0.19991128 -0.06404427
0.079839714 -0.19872344 0.05494305 0.245563 0.06312876 0.060074773 0.18601917 0.027857214
0.029662427 0.33687535 0.22275542 -0.19964528 -0.25672317 -0.16488859 0.26614538 -0.12973821
0.002647814 -0.31035146 0.17819649 0.14591394 0.16790307 -0.03707317 -0.15138842 -0.1563471

conv1.bias f4 [128]
00000000: 237d 27be 3dd8 103e 2477 99be 00dc 083e
00000010: 1135 93bd 8dee 963e ffbd b83d def0 a63d
00000020: 758c 1fbe bd16 703d 85f7 81bd ade7 2b3e
00000030: 80fa 9dbe abe2 983e fea9 943d 0904 473e
00000040: 639e c53d 5d94 a5be 083e 29be df10 743e
00000050: 051a c63d 27b0 2dbe 41c5 0bbd a9ff 653d
00000060: ea2d 61bd d0cf 40be 957c 2c3e ee9b 54bb
00000070: 7ada d1bd 3a3a ad3e 0a85 6fbe d403 12be
00000080: de62 dabb 00df e2be 5adf 7abe 2828 96be
00000090: da58 f3bd 338f ddbe 05d9 713e 174c 32bd
000000a0: ca1c 803c 6379 b33e 6e32 ba3e 331b 563e
000000b0: 238f efbb 4d93 1fbe 558d 8e3e ea74 2cbe
000000c0: 0a55 04be 838e 2e3e 903c 7ebe 79dd 6a3d
000000d0: e9f8 b9be 4b01 cd3d 1878 a0bd 67bf 803e
000000e0: 935b 913e 4228 02be 6c22 8a3e ca5f 71be
000000f0: f0e4 69be 1cf0 a4be 3bc3 c53c fce3 95be
00000100: b00b 90bd a130 bc3d 9ca6 6abe 8876 223e
00000110: be9d 4abd 6297 9bbe a966 a63d c875 8ebe
00000120: 0887 16be 11c5 22be ea2a 2cbd f03d bc3e
00000130: 1e03 09be 4d0f e53d 96b8 6bbe d589 913e
00000140: fb54 58be 57ac 8f3e 98fc aebd 91f9 5f3d
00000150: 95eb 743e 7b46 6abd 11b2 66be 3947 b53e
00000160: d379 9e3e ef54 a2bb 0dc9 953e c491 323e
00000170: e5a3 643d 03b4 90be 7394 1fbe 20c5 363d
00000180: 16e2 a23e 0e3f aabe e605 923d e4c5 2f3d
00000190: ce66 e1bc fe35 66be b830 3ebe 52ba 8bbe
000001a0: 8cab bbbd c633 9dbd 7658 bebd 2efb 9a3e
000001b0: 19d6 57be 28d7 653e cf96 25bd 00c2 acbe
000001c0: 1f22 bc3e 7fbf d4bd 64a3 58be b609 3fbe
000001d0: d7ac 44be 9602 cebe 3688 353e 100b 0abe
000001e0: 68eb 743e a0c9 f93b 3b8a 703e 3ce0 8fbd
000001f0: d745 093e 820b edbd e78b b1be 636b b33e
-0.1635633 0.14144988 -0.2997371 0.13365173 -0.07187856 0.29478875 0.09020614 0.081514105
-0.15580924 0.058615435 -0.06346039 0.16787596 -0.3085518 0.29860434 0.07258986 0.19435133
0.096493505 -0.32339755 -0.1652757 0.23834561 0.096729316 -0.16961728 -0.034123663 0.05615202
-0.054975428 -0.18829274 0.168444 -0.0032441574 -0.10246749 0.33833486 -0.23390594 -0.14259273
-0.006664618 -0.4431076 -0.24499264 -0.29327512 -0.118821815 -0.43273315 0.23617943 -0.043529596
0.015638728 0.35053548 0.363666 0.20908813 -0.0073107644 -0.15583535 0.27842203 -0.16841474
-0.12923065 0.17046551 -0.2482779 0.05734012 -0.36322716 0.10010012 -0.07835406 0.25146028
0.28390178 -0.1271067 0.26979387 -0.23571697 -0.22841239 -0.3221444 0.024140945 -0.292755
-0.07033479 0.09188963 -0.22915119 0.15865529 -0.04946684 -0.30388933 0.081250496 -0.27824235
-0.14699948 -0.15895487 -0.042033114 0.36766005 -0.13380095 0.11184559 -0.23019633 0.2842547
-0.21126167 0.28061172 -0.08544272 0.054681364 0.23917992 -0.05719612 -0.22528864 0.354059
0.3095232 -0.0049539725 0.29254952 0.17438418 0.055820365 -0.28262338 -0.15583973 0.044621587
0.31813115 -0.33251232 0.07130031 0.042913333 -0.027514841 -0.22481534 -0.18573272 -0.2729059
-0.09163579 -0.076758906 -0.09294216 0.3026976 -0.21077766 0.22445357 -0.040427025 -0.3374176
0.36744782 -0.103880875 -0.21156079 -0.18656048 -0.19206558 -0.40236348 0.17727742 -0.13480783
0.23917925 0.0076229125 0.2349023 -0.07025191 0.13405548 -0.115744606 -0.3467705 0.35042867

batch_norm1.weight f4 [128]
00000000: 1f83 5f3f a7b2 4f3f b2cc 523f f30b 513f
00000010: 5ec4 523f 6d7d 4e3f 75f9 523f 5b6a 5d3f
00000020: e1f2 4f3f 6dba 513f 9fcb 523f e61c 503f
00000030: fca1 543f 86d4 4f3f 293f 593f 0900 4e3f
00000040: 9d3b 533f 8afb 553f 2f76 603f 6f82 4f3f
00000050: 17ae 4d3f bac2 513f 6bf5 4e3f f732 4e3f
00000060: 282e 523f 8a08 533f 528c 4c3f b90c 4e3f
00000070: d25d 4f3f a840 4c3f 1d99 533f 1951 553f
00000080: 7a79 4f3f 44f4 683f b2cc 523f b2cc 523f
00000090: 3feb 573f fb92 583f 3913 4d3f 8e7d 4e3f
000000a0: 08dd 533f 203f 4f3f 7e95 4d3f e508 4d3f
000000b0: dc0e 513f 2fdb 543f 2557 4c3f fa9c 533f
000000c0: a9f0 513f 552a 4d3f 2df7 523f 1df6 4c3f
000000d0: 50cd 523f 0aaa 4e3f 36bf 503f f49f 4d3f
000000e0: 74ce 4e3f ffea 523f 4866 4e3f b2cc 523f
000000f0: b2cc 523f b2cc 523f 6b90 513f d1b8 543f
00000100: 2ff4 5e3f e5d5 523f acbb 6c3f 1111 503f
00000110: 6201 503f b2cc 523f 0924 513f b2cc 523f
00000120: cde0 563f 8bcc 523f 640a 523f 5b69 4e3f
00000130: b2cc 523f d1c9 4f3f aab7 523f 8ece 4e3f
00000140: 7827 533f cca0 4f3f 92a7 4f3f 7408 533f
00000150: a097 4e3f 482c 523f 60b1 523f 1ea1 4f3f
00000160: 5bb6 4c3f accd 673f c9ec 4e3f c50d 573f
00000170: 0333 533f 2cc3 533f aacc 5b3f 9311 503f
00000180: 7138 4e3f b2cc 523f 8244 513f 432c 4e3f
00000190: 1b6e 513f aa16 5f3f b2cc 523f b0f7 533f
000001a0: c44a 523f b2cc 523f 821e 533f 36bf 503f
000001b0: 06c5 693f 2344 4d3f e55d 523f 5827 533f
000001c0: ef83 4d3f 7631 523f b2cc 523f 966d 5d3f
000001d0: 7abe 503f 1cdb 6c3f b7ae 4b3f aaf4 523f
000001e0: efa7 4e3f df6f 4e3f 649e 503f d85f 533f
000001f0: 8857 573f b707 543f b2cc 523f 05bc 4f3f
0.8730945 0.81131977 0.8234359 0.8165886 0.8233088 0.80660135 0.8241189 0.8649041
0.8122998 0.8192509 0.8234195 0.81294096 0.8305967 0.8118366 0.84862 0.80468804
0.8251284 0.83586943 0.87680334 0.810584 0.80343765 0.81937754 0.8084323 0.80546516
0.8210168 0.82434905 0.7990161 0.80488163 0.81002533 0.7978616 0.8265551 0.8332687
0.81044734 0.9099772 0.8234359 0.8234359 0.8434333 0.84599274 0.80107456 0.8066033
0.8275914 0.80955696 0.8030623 0.80091697 0.816633 0.8314695 0.7982047 0.826614
0.82007843 0.8014272 0.8240841 0.8006304 0.8234453 0.8072821 0.81541765 0.80322194
0.8078377 0.82389826 0.8062482 0.8234359 0.8234359 0.8234359 0.8186099 0.8309451
0.87091345 0.8235763 0.92473865 0.8127604 0.8125211 0.8234359 0.8169561 0.8234359
0.8393677 0.8234336 0.82047105 0.8062951 0.8234359 0.8116732 0.823115 0.8078393
0.824821 0.8110473 0.81115067 0.82434773 0.8070011 0.8209882 0.823019 0.8110522
0.7996575 0.90548205 0.80830055 0.84005386 0.8249971 0.82719684 0.8585917 0.81276816
0.8055487 0.8234359 0.8174516 0.8053629 0.8180863 0.8714396 0.8234359 0.82799816
0.82145333 0.8234359 0.82468426 0.81541765 0.9131626 0.80182093 0.8217452 0.8248191
0.8027944 0.8210672 0.8234359 0.8649534 0.81540644 0.92521834 0.7956347 0.8240458
0.80724996 0.8063945 0.81491685 0.8256812 0.8411794 0.8282427 0.8234359 0.8114627

batch_norm1.bias f4 [128]
00000000: 66e2 c439 b790 91bc bcb3 06b9 6aa6 ebbb
00000010: fc52 db3a d58a a43b f9e7 853b 3370 873a
00000020: d69b fc3b 5b39 ce3b 00bf 803a 3834 bb39
00000030: 936b afba 604f 37bc d2fc f5ba 79fc 96bc
00000040: c7fd fabb b18c c03b 0430 bbbb f576 40bc
00000050: 6550 1d39 657a 533b 4aaa 5dbc e7f9 053b
00000060: 6525 1839 50ad da3a f397 88bc 19f7 3dbc
00000070: dc75 52bc 6cd6 83bc d46f 7a3b 6c43 6e3b
00000080: 9040 26bc c686 1c3b 95be ee3a b697 52ba
00000090: 6dd9 f339 d0f1 f5ba 561b 4cbc 323c 1bbc
000000a0: d99b a83b 4a2e 8d3b bd8f 88bc 2b10 64bc
000000b0: e835 d93b 05f3 123c 4370 a7bc b9e7 043c
000000c0: 7e24 2fba f4f8 70bc 17f0 f4ba ff04 9cbc
000000d0: 8707 353b ffe1 a0bc eb8d d9bb d735 53bc
000000e0: 2c58 80bc c6e6 cebb a2e0 acbc ac81 cdba
000000f0: 5aa2 a1b9 4a73 1dbb cb32 babb d02d 5b3b
00000100: 6eec 39bc 6e05 5aba bba8 e1bb 4cfc 9ab9
00000110: 9b52 163c 780c a8ba 3a7e 27bc 9164 c0bb
00000120: 5088 9e3b 6cbc 98ba b3ac 283c 11b0 98bc
00000130: 2076 19b9 ae5d 9a39 0b09 af3b 21bb aebc
00000140: c1b4 1dba c5ef 49bc 7b77 aabb 61da fabb
00000150: c8e2 81bc a2b5 043c 5c46 0fbc 6cf5 a1bb
00000160: 44e9 4cbc c548 443c 375b 73bc 1d24 16bc
00000170: d850 a53b 6c54 063c 61f0 07bc 913e 0c3c
00000180: 4781 8d39 1498 f03a 3550 6abc 9398 5ebc
00000190: 782a 50bc 96e9 8bbb 4563 d53b 7e72 06bc
000001a0: 48ec c53b 34fc 98ba 0abd be3b d4b9 183b
000001b0: fecd 44bc 82fe 82bc b262 c83b 2e3f 053a
000001c0: 9bc9 5fbc 9241 ea3b 2f45 0bb9 1360 5d3a
000001d0: bd31 f83b fac5 2f3b 8a10 87bc ba1b 64ba
000001e0: 9339 eb3a 0aa4 16bc c453 3cbc 24b7 e0b9
000001f0: 3bd0 d4bb 166a 9c3b 0427 47bb 665e 7f3b
0.00037552713 -0.0177692 -0.00012846192 -0.007191469 0.0016733105 0.005021433 0.004086491 0.0010333121
0.007709007 0.0062934584 0.0009822547 0.00035706325 -0.00133835 -0.011188358 -0.0018767363 -0.018430935
-0.007659647 0.0058761467 -0.005712511 -0.011747112 0.00015002636 0.0032268998 -0.01352937 0.0020443143
0.0001450978 0.0016683731 -0.016674018 -0.011594557 -0.012845483 -0.016093455 0.0038213627 0.0036356105
-0.010147229 0.0023884042 0.0018214757 -0.0008033471 0.00046510567 -0.0018764082 -0.012457689 -0.009474801
0.0051455316 0.0043084966 -0.016670102 -0.01391987 0.0066287406 0.008969073 -0.020439273 0.008111888
-0.0006681158 -0.014707793 -0.0018687275 -0.019045351 0.0027622895 -0.019639013 -0.0066392324 -0.012891254
-0.015667044 -0.0063141314 -0.021103207 -0.0015678904 -0.00030829274 -0.0024025016 -0.0056823245 0.0033444054
-0.011347873 -0.0008316849 -0.0068865693 -0.00029561145 0.009174968 -0.0012821099 -0.010222966 -0.0058713634
0.004838027 -0.0011652834 0.010295081 -0.018638643 -0.00014635222 0.00029442966 0.005341654 -0.021329464
-0.0006016009 -0.012325232 -0.0052022315 -0.0076554273 -0.015855208 0.008099945 -0.008744802 -0.0049425866
-0.012506787 0.01198024 -0.01485329 -0.0091638835 0.0050450377 0.008198839 -0.008297057 0.008559839
0.00026989935 0.001835587 -0.014301349 -0.013586181 -0.012705438 -0.004269789 0.006512078 -0.008206008
0.00604013 -0.0011671842 0.005820875 0.0023304122 -0.012012003 -0.0159905 0.006115281 0.0005082962
-0.013658906 0.00714893 -0.00013281846 0.0008444797 0.0075742886 0.0026820884 -0.016487379 -0.00087016413
0.0017946236 -0.009194383 -0.011494581 -0.0004286106 -0.0064945496 0.0047733886 -0.0030388245 0.0038966178

batch_norm1.running_mean f4 [128]
00000000: 29f3 143b 628c 283e 0000 0000 8d1e 9d3d
00000010: 8e9e 2534 08dc fd3d efe7 ce3c 6167 463d
00000020: 74d0 ba3c c7c5 433d 3a8f 7e35 0b77 ab3d
00000030: 0400 0000 c750 663e a56b 1c3d cd18 6d3e
00000040: 1b3f 5a3d 0400 0000 11bf a23c 3ded 853e
00000050: 231b 5f3d 11e4 a03a 1422 c73e a9f7 5a3d
00000060: 2173 0a38 eac3 1d30 490f b03e 83bf 0e3e
00000070: 6c71 173e 4d64 0c3f 711a 983a 5085 442f
00000080: 84a1 903e 59ef 363c 0000 0000 0000 0000
00000090: b766 ce3a 51f5 b135 a021 863e 5c89 a13e
000000a0: 01e6 2a3c a08b fd3d 2b67 ef3e 0671 8c3e
000000b0: 97a0 bd3c 25e1 953b 640a d03e 7ee2 8c3b
000000c0: a5bf 8936 0e75 8d3e e3fd df32 eb85 3e3e
000000d0: 7271 6e31 7bcb 043e 544a 553e bcd9 f73e
000000e0: a6cf 703e 20f5 de2d bf95 e73e 0000 0000
000000f0: 0000 0000 0000 0000 2334 fc3c 0400 0000
00000100: b41e 833c 6343 0b3d 8ee9 b13c f8bf ac3d
00000110: 6fe2 bf3c 0000 0000 67c4 1b3d 0000 0000
00000120: ec01 be3b 94fd d732 b0ce 8b3c 9355 0c3f
00000130: 0000 0000 07a1 803d 5087 b12e fd9f f03e
00000140: 83a3 0b39 58a6 823e af08 3d3e 8fdb ed3c
00000150: 7eb7 da3e d0dd d936 ebdb 223e e07b 853e
00000160: 8ab2 d63e f053 a73b 99f9 8d3e c2dd bb3d
00000170: 1810 0a3d 9efa 0d3c 1671 3c3c c2cb 853c
00000180: 273c 1e3e 0000 0000 c79f 5a3e 958d a23e
00000190: b8c1 0b3e 5162 ba36 0000 0000 d9c8 d53d
000001a0: 42c8 0835 0000 0000 60fd 413a 5609 f73d
000001b0: 9b8d ab3c c0f5 c63e 0baf 1c3d d91d d038
000001c0: fee4 ce3e 00e1 203b 0000 0000 e7b9 c03a
000001d0: 0251 1e3c 3780 763c 23df ba3e 0400 0000
000001e0: de70 b93d 548b 193e c70a 553e 2543 3939
000001f0: c25f 8d3d 64dd 983b 0000 0000 b210 273e
0.0022727943 0.16459802 0.0 0.07671843 1.5424504e-07 0.12395483 0.025257079 0.048438434
0.022804476 0.047796037 9.4830796e-07 0.08372315 6e-45 0.22491752 0.038188595 0.23153992
0.05328284 6e-45 0.019866498 0.2615756 0.05446924 0.0012275 0.38893187 0.053458843
3.3008986e-05 5.739468e-10 0.34386662 0.13940243 0.14789361 0.54840547 0.001160456 1.7873458e-10
0.28248227 0.011165463 0.0 0.0 0.0015747164 1.3258924e-06 0.2619753 0.3155011
0.010430814 0.12380147 0.46758398 0.2742998 0.023147864 0.0045739585 0.40632927 0.004299461
4.1052285e-06 0.27628368 2.6076071e-08 0.18605773 3.4698044e-09 0.12968247 0.20829135 0.48408306
0.23516712 2.5347335e-11 0.45231435 0.0 0.0 0.0 0.03078658 6e-45
0.016005851 0.03399981 0.021717813 0.08435053 0.023423402 0.0 0.0380291 0.0
0.005798569 2.5144608e-08 0.01706633 0.54818076 0.0 0.062807135 8.0730644e-11 0.4699706
0.00013316986 0.25517535 0.18460344 0.029035358 0.42718118 6.4929263e-06 0.15904205 0.26071072
0.4193309 0.0051064417 0.2772949 0.09173156 0.033706754 0.008665709 0.011501571 0.01633251
0.15452634 0.0 0.21350013 0.31748644 0.13648117 5.5546775e-06 0.0 0.10438699
5.095536e-07 0.0 0.00074001215 0.120623276 0.020941546 0.38859367 0.03825287 9.9237724e-05
0.40409082 0.0024548173 0.0 0.0014703841 0.009662868 0.015045217 0.36498365 6e-45
0.09054731 0.14994556 0.20804892 0.00017667988 0.0690303 0.0046650637 0.0 0.16314963

batch_norm1.running_var f4 [128]
00000000: eee1 5b39 a5ef 673c 0400 0000 b73e 083c
00000010: 99ed 4430 c5f8 913d 62f2 c23b eaf6 5d3b
00000020: 4b3d 023c b193 943c 0369 7532 2974 263d
00000030: 0400 0000 292c d73c 1421 f53a 97eb c93c
00000040: 5dab 743b 0400 0000 a0fe d93a 389c f53c
00000050: db28 c33b 2143 e938 209b 353e 8dbf 7f3c
00000060: d823 c335 2ad1 652c 5215 ce3d 828a ca3c
00000070: a5cd 073d 13dc 3e3e 02b1 1539 fc2d 412c
00000080: 8715 c93d 4a32 bb3a 0400 0000 0400 0000
00000090: 083c e138 aa0d b232 3671 163d da6c f43d
000000a0: 7558 a53a 8290 923d 9a96 da3d dc82 1a3d
000000b0: b7e1 b63b d93c 243a 1c1b b53d f19d 273a
000000c0: c9e5 1434 08a8 623d fd08 0b30 b6db e63c
000000d0: ae22 b82e 7b56 023c cd05 7d3d e151 403e
000000e0: 6657 d03c 6cd4 9e2a 317a e83d 0400 0000
000000f0: 0400 0000 0400 0000 482e b03b 0400 0000
00000100: 0ebc a13a db67 233b 3658 2f3b 46f8 163d
00000110: 7534 033c 0400 0000 5678 e53a 0400 0000
00000120: 9207 4f3a 9187 542f 8bc2 893b 9f0b 243e
00000130: 0400 0000 275f ac3c a9d2 d42b 26a0 013e
00000140: c1e3 cc36 a0c4 fa3c 598f 563d 4bad 953a
00000150: 5366 f03d 1e35 f933 f735 3a3d faed 183d
00000160: 7f61 ea3d 88c2 e539 b127 0d3d 30fc 1f3c
00000170: 1d88 173c 362b 183b 3512 6d3a 25ca dd3a
00000180: fcca 2f3d 0400 0000 ceb3 103d 068d dc3d
00000190: b517 ab3c a640 4934 0400 0000 372c c83c
000001a0: 3b53 9431 0400 0000 29b7 5138 7284 143d
000001b0: 56b6 583b 2d44 d13d 3cc2 953c 12f6 e836
000001c0: e288 9c3d 8f0b 8439 0400 0000 5745 f638
000001d0: 6f16 1a3b 5b71 053b 3d6a db3d 0400 0000
000001e0: 9a68 393d f49b c13c d923 9e3c a4ed e136
000001f0: 2a48 ba3b 0884 0f3a 0400 0000 cdeb 573d
0.00020969633 0.014156257 6e-45 0.008315734 7.164203e-10 0.07127527 0.0059493044 0.0033869096
0.007949184 0.018136831 1.4284754e-08 0.040638123 6e-45 0.026266174 0.0018701875 0.02464847
0.0037333586 6e-45 0.001663167 0.029981717 0.005955798 0.000111228095 0.17734957 0.015609634
1.4539064e-06 3.2658967e-12 0.1006266 0.024724249 0.033155102 0.18638639 0.00014275688 2.7452476e-12
0.09818559 0.0014281955 6e-45 6e-45 0.00010740018 2.0728141e-08 0.03672906 0.11934824
0.0012614863 0.07156469 0.10673256 0.037722453 0.0055811065 0.00062651705 0.08843061 0.00063940795
1.386717e-07 0.05533603 5.058068e-10 0.028180938 8.3735116e-11 0.007955189 0.06177311 0.18781234
0.0254323 2.8213835e-13 0.11351431 6e-45 6e-45 6e-45 0.005376611 6e-45
0.001233937 0.002493373 0.0026755459 0.036857866 0.008008112 6e-45 0.0017507176 6e-45
0.00078975514 1.932945e-10 0.0042040995 0.16020058 6e-45 0.021041466 1.5121976e-12 0.12658748
6.106188e-06 0.030611336 0.0523828 0.0011419443 0.11738267 1.1604628e-07 0.04546162 0.037336327
0.11444377 0.0004382322 0.03446168 0.009764716 0.0092487605 0.0023219115 0.00090435456 0.0016921206
0.04291819 6e-45 0.035327725 0.107690856 0.020885328 1.8743103e-07 6e-45 0.024435146
4.316829e-09 6e-45 5.0000064e-05 0.036259122 0.0033067665 0.102180816 0.018281095 6.942785e-06
0.07643296 0.00025185614 6e-45 0.0001174311 0.0023511907 0.0020361755 0.10713623 6e-45
0.04526577 0.023633935 0.019304203 6.7331875e-06 0.005684872 0.0005474691 6e-45 0.05271511

dense1.weight f4 [100, 1664]
00000000: ae1b b83b ec3c 5c3c c4e9 7a3b 5e21 00bc
00000010: 5d3a 0dbc f47c 4c3c f1d8 653c a49c 163c
00000020: bdf9 9d3b 5461 8b3c ef4f 46bb fdb9 64bc
00000030: 3808 eab8 ebe7 953b 2658 ef3b 767d 87bc
00000040: 6d63 1b3b 07e4 89bc e549 65bc 5bc3 48bc
00000050: 5d24 b9bb d7d3 94bb b674 8b3c ca5d a6bc
00000060: 601c 47bc 4ef8 70bc 5bb0 8abc 1e10 49bc
00000070: e837 b7bb cca0 cd3b 5891 8cbc 679e 4c3b
00000080: 308d ed3b e0b4 0fbc 8acd febb ade3 9c3c
00000090: c12e a2bc 6ae4 26bc 4cd6 d0bb b4eb c63a
000000a0: 1a0f 87bc 6f9e 023b b85a 83bc 6da7 293c
000000b0: cc42 943c b685 74bc f172 373c 2ca8 89ba
000000c0: 9531 203c 61e8 ee3b 6b23 31bc 4090 0d3b
000000d0: d109 953c e569 d63b 450f 153c 49cf 2a3c
000000e0: ce17 8cbc 1d01 90bc 5684 943b 220b 97bb
000000f0: 5e7c 223c 2671 8bbc 25bb 1f3c 6614 2b3c
00000100: b2b1 fd3b 3226 693c d4dc 23bc 6db3 cbba
00000110: 8e4b dabb b35f 563c 396f 513c 9d67 7d3b
00000120: db58 513c 95ac 043c e4d4 52bc 9620 893c
00000130: 19e9 d23b 7ef3 b63b b5b5 753c 1565 c9bb
00000140: faca 14bb 0448 b8ba ccc8 94bc 18e4 23bb
00000150: 8532 6e3c b7f6 4e3c c8ee 123c 529f 8dbc
00000160: 5387 0f3b 0b59 233c 5640 993b b4ab a33b
00000170: 2ad7 90bc 4fa4 213c e577 853c 9fe6 0ebc
00000180: dd43 9f3c 6d3b edbb 1ab1 103b fdb5 16bc
00000190: 8970 9fbc 71d6 8539 d8b8 a2bc ec6d 833c
000001a0: ecfe 44bc 0ded 893b 35d4 8f3c 3e9e cf3b
000001b0: 093b 503c e36c 91bc ecc9 56bc 88fa 86b9
000001c0: a689 5cba 2452 6a3b 9be6 84bc 8cea 823c
000001d0: 48df c4bb b068 29bc c184 9739 2521 25bc
000001e0: a031 ecbb ea21 8eb9 41ac 03bc 8b0d 9fbc
000001f0: 78cc a33b 4fe0 07bc 49d4 8b3b 166e efbb
00000200: 90e9 4e3c 3586 193b 47d2 a8ba ff51 48bc
00000210: 9172 593c 0221 a9bb ef18 8f3c a672 643b
00000220: 0ac6 463c 2909 213c 4fe8 6abc 44ea 57bc
00000230: f8d1 6cbc 3f42 2f3b cf4d 6dbc 3334 a0bc
00000240: 2372 5ebc 045a a63b b79f 20bc 4a3b 083b
00000250: ff2e d9bb d5c4 4e3c 11b0 93bc 178f 8a3b
00000260: 9e94 923a 645b 743c deea 623b cbf5 b9bc
00000270: def7 e73a 723a dfbb 8cad 90bb 02ba 8f3c
00000280: cc14 4abc 245d 683c 42e8 59bc 1d5b 35bc
00000290: 8eb7 8f3c a26f e73b 648a 4c3c 2d9c 38bc
000002a0: 8411 85bc 0144 613c bd9a 2bbc cbaf 6e3a
000002b0: 9d25 9c3c 62a1 8bba fd39 d2bb 4103 11bc
000002c0: e1ef 0c3c 1c5c 66bc e7f6 863b 78cf 473b
000002d0: a620 a7bc df97 8dbb 2891 a73b 357b aeba
000002e0: 9367 dabb 87ca 92bc 7e67 3dbc 585a 82bc
000002f0: 0b56 83bc 5dfc 83bc 7011 20ba cc90 d13a
00000300: fb2d 5f3c b963 983c 7750 51bc 2a6b 05bc
00000310: 0325 363c 845b 803c 0358 413c 7e10 903c
00000320: 6baa 863b 4903 683c 66e2 3cbc 53a2 09bc
00000330: 02e3 a7bc 2797 12bc 352b 33ba 8a6e bcbb
00000340: f73e a0bc 75b2 1d3b e39b 563c 37ad 42bc
00000350: 218f 77bc f7ee 92b9 e6fa 3cbc b5d8 a1bb
00000360: b61f c5ba bb3d 2ebc 1bff 6f3a 94e1 e0bb
00000370: 0061 3e3c 33ba 5abc 1730 7e3c ac76 863c
00000380: 6875 8b3c 30b6 91bb 65b0 373c 1b2b dc3b
00000390: 9088 63bc e0ff 14bc f798 ccbb 3875 6b3c
000003a0: 1d29 91bc 2039 81bc 0c6f 9ebc d0b2 5dbb
000003b0: bae6 08bb d66c 93bb 4cf1 a03b 0ce7 8b3a
000003c0: 2b44 c3bb 510f 92bb 89fa 903c d416 063c
000003d0: 78bc a53b 3155 453c 7ca1 b03a aeab 8c3b
000003e0: d6b9 12bc 6a6a 943c 7fc2 90bc 22e7 3cbc
000003f0: 1450 08bc 6565 0abc 87b2 91bc c62b 993c
0.005618534 0.013442259 0.0038286308 -0.007820455 -0.008619872 0.012480963 0.014028774 0.0091926195
0.004821031 0.017014183 -0.0030260046 -0.013960359 -0.0001115952 0.004574766 0.0073042093 -0.016539317
0.0023710385 -0.016832365 -0.013994669 -0.012253608 -0.005650087 -0.004541855 0.017023426 -0.020308394
-0.012152761 -0.014707638 -0.016929796 -0.012271909 -0.0055913813 0.006275272 -0.017159149 0.0031222345
0.007249497 -0.008771151 -0.007775967 0.019151533 -0.019797685 -0.010186294 -0.0063732024 0.0015176446
-0.016486693 0.001993086 -0.016034469 0.010354859 0.018098257 -0.014924457 0.011196838 -0.001050239
0.009777446 0.0072908853 -0.010811667 0.0021600872 0.018193157 0.0065433853 0.009097879 0.010425397
-0.017101195 -0.017578656 0.0045323772 -0.0046094814 0.009917347 -0.017021727 0.009749209 0.010441875
0.00774213 0.014230298 -0.01000138 -0.0015541144 -0.006661839 0.01308434 0.012782865 0.0038666495
0.012777532 0.008097787 -0.01286814 0.016739171 0.006436479 0.0055832257 0.014996936 -0.006146083
-0.0022703991 -0.0014059548 -0.018162154 -0.002500778 0.014538412 0.012632064 0.008968063 -0.017287884
0.0021900728 0.00996996 0.004676859 0.004994834 -0.017680723 0.009865834 0.016292522 -0.008721977
0.01944154 -0.00723975 0.0022078217 -0.009198663 -0.01946284 0.00025527508 -0.019863531 0.016043626
-0.012023669 0.004209167 0.017557243 0.0063360026 0.012709388 -0.017752117 -0.013109665 -0.00025745132
-0.0008412845 0.0035754526 -0.016223243 0.015980981 -0.0060080625 -0.010339901 0.00028899874 -0.010078703
-0.007208064 -0.00027109619 -0.008036674 -0.019415637 0.00499874 -0.008293225 0.0042672497 -0.0073068244
0.012628928 0.002342594 -0.001288005 -0.012226581 0.013271944 -0.0051614055 0.017467944 0.0034858375
0.012132177 0.009828844 -0.014337613 -0.013178412 -0.014454357 0.0026742367 -0.014483883 -0.01955614
-0.013577017 0.0050766487 -0.009803704 0.0020787292 -0.006627917 0.012620171 -0.018028291 0.0042284834
0.0011183207 0.014914367 0.0034624855 -0.022700211 0.0017697772 -0.006812387 -0.0044152196 0.01754475
-0.01233406 0.014182363 -0.0133000035 -0.011069086 0.01754358 0.007062868 0.012484167 -0.011267704
-0.016243704 0.013749124 -0.010473904 0.00091051747 0.019060904 -0.0010652954 -0.006415604 -0.008850873
0.008602113 -0.0140600465 0.0041187885 0.0030488651 -0.02040131 -0.004321083 0.0051137395 -0.0013311865
-0.006665179 -0.017918838 -0.011560319 -0.01591222 -0.01603224 -0.016111547 -0.0006106114 0.0015988587
0.013621802 0.018602239 -0.012775532 -0.008143226 0.011117223 0.015668638 0.011800769 0.01758599
0.004109671 0.0141609395 -0.011528587 -0.0084005175 -0.020493988 -0.00894717 -0.00068347465 -0.005750482
-0.019561274 0.0024062668 0.01309869 -0.011882118 -0.015109808 -0.00028025333 -0.011534428 -0.0049391636
-0.0015039358 -0.010634835 0.000915514 -0.0068628285 0.011619806 -0.013350057 0.015514395 0.016414009
0.017023757 -0.0044467673 0.011211489 0.0067190058 -0.0138875395 -0.0090942085 -0.006243821 0.014371209
-0.0177198 -0.01577431 -0.01934006 -0.0033828504 -0.0020889477 -0.0044990582 0.0049115773 0.0010673716
-0.005959054 -0.0044573923 0.01769759 0.008184154 0.0050578676 0.012044237 0.001347586 0.0042929268
-0.00895544 0.018117148 -0.017670868 -0.011529716 -0.008319873 -0.008447026 -0.017785324 0.01869763

dense1.bias f4 [100]
00000000: e450 9ebb 8742 65bc ed88 a7ba 5190 4cbc
00000010: f673 4bbb 0a6f 473c 6ca9 98bc b08f a4bc
00000020: d6c6 213c f64d ae3b 9d00 45ba f701 d63b
00000030: da54 393c a155 5eba 8be8 a3bc ae1d 08bc
00000040: 828d 6ebc 34a8 66bb d2ed 6bbc f55b 1a3c
00000050: df3f b13c 7400 8bbc bca0 5d3c 9b37 25bc
00000060: 7dd4 a63c a77d f5ba 4186 1bbc 57e0 5cbc
00000070: c0fa 01bc a39e 9cbc 4b11 2e39 6d66 e23b
00000080: deef 853c a98f 3e3b fdc4 c33b da05 963a
00000090: b1be 8cbc 69d8 98bc b7a4 5fbc d84a e73b
000000a0: 7973 773c 3d88 b9bc f97c 9fbc ec45 7bbb
000000b0: 114b 2b3b 3720 a3bc c741 5dbc 33f9 ba3c
000000c0: 2c8a 973c 2fca 763c ce97 62bb 8aa5 ae3c
000000d0: 0b58 493c 2dbd a7ba 6969 bcbc a25f adbb
000000e0: 0322 71bb 00ee 4b3c f617 8c3a b459 363b
000000f0: 7ff2 ad3a 07ce 293c 3a8c b4bc 395c 2bbc
00000100: 16cd a3bc f1d7 76bc 6332 92bc 1281 2abc
00000110: c399 ebbc c3fb e33b e0cd f83b bb6f acbc
00000120: 3db5 ef3b 6496 8fbc 91c3 39bc b2cb 3dbb
00000130: 818b e2bb ce80 38bc 1920 1f3b 848a ea39
00000140: ea35 0dbc b1f6 86bc bf23 87bc f887 81bc
00000150: 3654 cf3b af1e 3dbb 9e93 1e3c a302 923c
00000160: b335 fe3b 49d7 b3bc 48ad 2e3c 0cee 853c
00000170: 4d59 d23b 0f4f 793c 92de 213c d53b 503c
00000180: c86b e0bb 9170 63bc ff72 fdbb d301 2c3c
-0.0048314203 -0.013992912 -0.0012781896 -0.01248558 -0.003104446 0.01217247 -0.018635474 -0.020088047
0.009874066 0.0053193523 -0.0007515045 0.006530996 0.011311734 -0.00084813876 -0.020008346 -0.008307857
-0.014560105 -0.0035195472 -0.0143999625 0.009421338 0.021636901 -0.01696799 0.013527092 -0.010084058
0.020364994 -0.0018729464 -0.009492458 -0.013481221 -0.007933319 -0.019118613 0.00016600375 0.0069091828
0.01634973 0.0029077327 0.0059744106 0.0011445836 -0.017180772 -0.01865788 -0.013650111 0.0070584826
0.015103214 -0.022647971 -0.019468771 -0.0038341237 0.0026137272 -0.019912822 -0.013504452 0.022823906
0.018498503 0.015062853 -0.0034575346 0.02131917 0.0122890575 -0.0012797468 -0.022999482 -0.0052909413
-0.0036793954 0.01244688 0.0010688293 0.0027824463 0.0013271122 0.010364062 -0.022039521 -0.010458999
-0.019995254 -0.015066133 -0.017846292 -0.010406749 -0.028759843 0.0069575026 0.0075929016 -0.021049371
0.0073153065 -0.017527767 -0.011338131 -0.0028960523 -0.006913603 -0.011261178 0.0024280606 0.0004473516
-0.008618811 -0.016475054 -0.016496537 -0.015811905 0.0063271774 -0.00288574 0.009678749 0.017823523
0.0077578663 -0.021953242 0.010661431 0.016348861 0.006419337 0.015216603 0.009879725 0.012709578
-0.006848786 -0.013881818 -0.007734656 0.010498482

dense2.weight f4 [2, 100]
00000000: e3b9 7cbc e015 4fbd fd71 bf3c 5ddb 32bd
00000010: 4caa d63d 0134 143c b2ab a1bc 2847 72bd
00000020: 424c 163d 032e e53d 2204 98bd ba1f 053e
00000030: 6f24 e83d 4537 803d 8e61 c4bd 3615 7b3d
00000040: 50ac c73d 8305 153e ed66 a1bd eeee 3a3e
00000050: 6184 bb3d fd10 69bd 16c4 8ebd 8aa1 81bd
00000060: 361b 023e e118 bebd 3c82 9fbd 3aad adbd
00000070: eb92 3dbc d912 80bd 845d ee3d 6589 a2bd
00000080: be00 a9bd 1036 033b 77de ddbc fbe2 aebd
00000090: 173b 7ebd 52eb 27bd 1ac5 dc3c ee05 e1bd
000000a0: aa50 94bc 755e e73b 0e5f c1bc 084c 63bd
000000b0: 4fe6 183e 6fba 92bd c68b c1ba d405 363e
000000c0: 64f9 d83c 4534 193e 81a3 da3d 5fbb f93d
000000d0: 764e 39bc 8250 8a3d 55a0 a13d 555e 94bd
000000e0: 6036 3abd 3e7b 193e 7ab9 4a3e 62da 40bd
000000f0: 7f5e 7fbc 100d ebbd 7fa4 143e 01e1 fd39
00000100: 5053 92bc 68a0 94bd aa45 8a3d 88c6 4dbd
00000110: fb74 f2bd 8a65 20be 73da e03c a37a afbd
00000120: b1e3 17bd 0396 d43d 6866 46bd f500 c53d
00000130: 36d8 b73d 8661 b0bd ab18 043e f165 36bc
00000140: b1df c63d dc67 b83b 850c a93d 8ade 003d
00000150: e447 473d 5175 e23d 6f21 c23c 5915 c13d
00000160: 73cb 6dbd ff84 aabd 776f 9a3d 55e9 f63b
00000170: a2b7 f93d b358 3c3d 6227 0e3e 38a2 a8bd
00000180: 3130 9abd c3f5 c33d 863e bd3d b1a8 6f3d
00000190: 3f31 a73a da1a d03d 9fa4 34bd 7d17 61bc
000001a0: 42d4 75bc 43b9 6339 e1e0 af3d f998 983d
000001b0: e74f a1bd db88 f2bd 994c 913d b6b0 d2bd
000001c0: e9dd eabd b1e6 c5bd 1b52 923c 3f49 203d
000001d0: 34e0 4a3a 08c1 3b3c d091 083d 7469 34be
000001e0: dfd6 1abe 341c 7bbc ee30 c23d c95d 0d3d
000001f0: 0b3d 0abe 0786 123e 044f 313d 9d57 343c
00000200: 33d2 4d3d 6205 be3d 0335 3fbd 3420 1f3e
00000210: 809f 873d f4d6 b2bc 2509 4f3d 6b51 1f3d
00000220: 59ed 7b3d b6b4 fd3c 06c8 86bd f389 90bb
00000230: 3eb0 6dbd 2f85 61bd f54b 60bd 2335 7e3d
00000240: 564d 22be f069 8c3d 77b2 54bd a182 2cbe
00000250: b835 273d f859 b1bd 0c19 2b3c 467b 1ebe
00000260: a9bf 8fbd ab4c e1bd 1437 84bd d0d1 aa3d
00000270: f8a9 253d 4c5f fabd 69cd 4bbe e86a 3d3d
00000280: 8309 083e ff17 0f3c 9582 95bd 4e33 98bd
00000290: 21bb af3c 6785 473d 1663 13bd 6a83 b53d
000002a0: 57e0 c93d 09ec 9c3d e896 87bd 5397 a9bb
000002b0: b2dc ec3c ddb3 35bd 89f8 22bd 279a 18be
000002c0: 84a8 0bbd 15f6 133d 2ef7 d0bd a77f 203d
000002d0: 1d00 3abe a6d8 ba3c 0787 6ebb 48b1 d0b9
000002e0: 3c63 993d bef9 7d3c f4d1 dbbd fa87 943c
000002f0: 0039 bb3c 42ee 313e 7900 b0bd a011 883d
00000300: 93ec 05be 4f01 c4bd efe6 67bd 33fe 1fbc
00000310: 40db a5bc 8c5e 3dbd ba25 7fbd d739 ebbd
-0.015425178 -0.05055797 0.023369784 -0.043666232 0.104817 0.009045602 -0.019735191 -0.05914989
0.03669382 0.11190417 -0.07422663 0.13000384 0.11335074 0.06260542 -0.095889196 0.061299525
0.09749663 0.14552884 -0.0788096 0.18255207 0.09156109 -0.056900967 -0.06970994 -0.06329639
0.12705693 -0.09282089 -0.07788512 -0.08480306 -0.0115706725 -0.06253595 0.116389304 -0.07936362
-0.08252095 0.0020021237 -0.027083619 -0.08539387 -0.06206807 -0.040995903 0.026949454 -0.10987459
-0.01810487 0.0070608207 -0.023604896 -0.05549243 0.14931606 -0.07164466 -0.0014766387 0.17775661
0.026486106 0.14961345 0.10675717 0.12193941 -0.01131021 0.06753637 0.07891909 -0.07244555
-0.045462012 0.1498842 0.19797316 -0.047083266 -0.0155864945 -0.11477101 0.14515875 0.0004842356
-0.017861992 -0.072571576 0.067515686 -0.050238162 -0.118387185 -0.15663734 0.027447915 -0.08568313
-0.037082378 0.10380175 -0.048437506 0.09619323 0.08976786 -0.08612351 0.12900035 -0.011132703
0.097106345 0.0056276154 0.08254341 0.03146223 0.048652545 0.110575326 0.023697583 0.094279
-0.058055352 -0.08326148 0.075407915 0.0075351396 0.12193228 0.045983028 0.13882211 -0.08234066
-0.07528723 0.0956836 0.09240441 0.058510486 0.0012755765 0.101613715 -0.044102307 -0.01373851
-0.0150042195 0.00021717422 0.08587814 0.07451052 -0.07876568 -0.11842509 0.07094688 -0.10287611
-0.11468107 -0.096631415 0.017861417 0.039132353 0.00077390973 0.011459596 0.033342183 -0.17618352
-0.1512103 -0.015326548 0.09481989 0.03451327 -0.13499849 0.1430894 0.043288246 0.011007217
0.05024929 0.092783704 -0.046681415 0.15539628 0.06622219 -0.021831013 0.05054583 0.038896006
0.06150565 0.030969959 -0.0658112 -0.004410976 -0.058029406 -0.055058654 -0.05475994 0.062062394
-0.15849814 0.068561435 -0.05192801 -0.16846706 0.040822715 -0.08659738 0.010442983 -0.15476713
-0.07018978 -0.110009514 -0.06455818 0.083408 0.040445298 -0.12225208 -0.19902577 0.046244532
0.13284878 0.008733748 -0.07300297 -0.074316606 0.021451535 0.048711207 -0.035983168 0.08862956
0.098572426 0.07662208 -0.0662058 -0.00517551 0.02891383 -0.044360984 -0.039787803 -0.14902554
-0.034096256 0.036123354 -0.10203396 0.03918424 -0.18164106 0.022808384 -0.00363964 -0.00039804936
0.074896306 0.015501438 -0.10733405 0.018131245 0.022854328 0.17376044 -0.0859384 0.06643987
-0.13078527 -0.09570562 -0.05661672 -0.009765196 -0.020246148 -0.046232745 -0.06229184 -0.114856414

dense2.bias f4 [2]
00000000: f32e ab3d 92e3 afbd
0.08358564 -0.085883275
