ResNet-PyTorch/ResNet/pnet.pth (torch, 688136 bytes, 10 tensors)

conv1.weight f4 [128, 1, 5]
00000000: caef 13be ae5d 8a3d be66 81be 2729 373e
00000010: 19ac 7dbe f7c4 d43e 90e6 083d 663e 4dbe
00000020: 6cd9 bebe ca0c debd c7b2 1a3e 09e5 dc3e
00000030: 9ea5 b03d a334 21be 797e a1be 67b1 94be
00000040: 5438 ffbe f276 7e3e 8268 ab3e 17ee bc3e
00000050: ff93 10be 76a3 e1bd e620 a7be 52fd f63c
00000060: 55b4 cabe 9188 54be 81be 403d b14a 823e
00000070: aee1 1b3e 629a e2bd c2ac e9be 258a 90be
00000080: feb8 cabe 10ea 97be 05df 16be c706 b5be
00000090: 40f5 3c3e dc24 fdbb 22ab bb3e a599 8dbd
000000a0: 395a 91bd 4118 2bbe 2604 2c3e 66f8 8b3e
000000b0: 706f bf3e b3ab dd3e f7da 7d3e d0df b53d
000000c0: 3c27 c93e 19c3 9dbb 3529 c23e 6601 8bbe
000000d0: 632b ba3e fd3f 89be e623 d8be 97ca 573e
000000e0: 0b34 d43c b7d0 ac3c 6e81 6fbd 2811 78be
000000f0: 7121 513e 15c3 cf3d c7fb e3be 8c7a 70be
00000100: bb65 ae3d 4059 78bd 7feb 9cbe 8d3b 69be
00000110: 71d8 b03d 0cdb b63e d0d5 b2be a8e7 f63d
00000120: 57b9 cc3d 296b cf3d 3b42 f83d 1c23 71bd
00000130: c4bb 96be 777c 853e b370 0bbe c5c4 ebbd
00000140: 3d1f 7fbe ff0a cdbe 72ca c2be b55d e83e
00000150: b657 583e e567 b93e 907c 8dbe 5ff0 d23e
00000160: 5e94 b5be 2a23 023e 0178 bd3d e67b 7fbe
00000170: 32db 8cbe 45d1 a63e 546b 63be 1484 c4be
00000180: 017c c23e 09a2 0f3d 3c06 83bc 3296 713e
00000190: 228c 22be 1826 3c3c 5ee5 9f3e 80ea 183e
000001a0: 6cf1 be3e 4a99 9c3e 9a50 d1bd 8d2d 803e
000001b0: a5b6 be3c 7080 40be 9a75 afbe 95ab b2be
000001c0: da2b d7be 51dd 873e 827c a43e a60a 55be
000001d0: 453a 84be 29c1 88bd 7adf 69be b71f 35be
000001e0: c721 e7bb 88d6 8e3e 5a74 88bd a09a a6be
000001f0: 9b8b debe caa0 a83c 0842 ae3e 8bf9 cfbe
00000200: 7be7 9c3d a020 6bbe 2b16 00be 7e9c f7be
00000210: 6f96 083d 166d b83e 5190 bd3e 4606 e7be
00000220: 39e8 3cbe 39b5 9d3e 23d6 59bd 8f04 21bd
00000230: acc4 c93e 8f65 d53d 4732 11bd d39e 043e
00000240: 0e8d 8d3e d0e6 48be 01b8 b43d 786b 7a3e
00000250: 76f8 edbe 922b f8be ae55 9fbd 47bd 1fbd
00000260: b526 303d 5bf1 d5bd 0a8e d93d b265 35be
00000270: e20c c73e 0305 633e c64a 833e e06c 84be
00000280: e86c c03e aa47 60be a5c0 12be 0824 eb3e
00000290: 52da df3e 9b0d 9cbe 6a7e 0e3e 019b b5be
000002a0: 8e98 bcbc 6191 3ebe 01fc d63e c7e9 1d3d
000002b0: fd64 8ebe 6b00 96be bf5d c5bd f54e ef3d
000002c0: f1a1 aabe ad0f 283e ac1d 733d 21e4 d03e
000002d0: b900 06be 9b7b c7be 202c a2bb 595b 93be
000002e0: 8246 cbbd dfc8 3cbe 0c0d 57bb 44ca 71be
000002f0: 19f6 f63d 4320 b9bd bdb7 873e 6e80 3abe
00000300: 8300 ad3e 58a8 aabe a484 863e 139f 993d
00000310: 383d 013c 60f5 693e 647f a63d b3dd 19bd
00000320: 9871 b1be a5a3 423d a223 8dbe 9471 0dbf
00000330: 9d70 b7be 99b2 843d 0b2f 81be 156a c13e
00000340: d0b6 d13e e095 943e c212 3e3e ca24 423e
00000350: 8c11 9e3e d8b9 953d 4ae4 d2be eb0d 5bbe
00000360: a4a7 05bd 5090 a4bd 859c 253e 81c0 d8be
00000370: 8d59 e7be b920 cabe bb29 283e 7129 8e3e
00000380: defe d1be 9ee8 953e 9e37 e3be 9b42 953e
00000390: 2d4f dd3e 0411 023e eddf 0e3d 67f9 91be
000003a0: a909 89bb 6a33 433e 165e b3be c5c2 4ebe
000003b0: 3678 663c 4a9d afbe efb3 4c3e c5c1 983e
000003c0: 4211 42be 894b 6ebe 8e60 9abe b12f b0be
000003d0: f0e6 dd3d b500 cd3e 7e2c 123d 8ca8 16be
000003e0: beb5 80be 6e78 62be a078 e13e f1dd aebe
000003f0: dfc9 a3be d643 093d eff4 0c3e 25e6 c1be
-0.14446941 0.06756149 -0.252737 0.17886792 -0.24772681 0.41556522 0.033423007 -0.20043334
-0.37275255 -0.10842283 0.1510726 0.4314349 0.08625339 -0.15742736 -0.31541803 -0.29041597
-0.49847662 0.24850062 0.3347817 0.36900398 -0.14118956 -0.11017506 -0.32642287 0.03015009
-0.39590707 -0.20755221 0.04705668 0.2544761 0.15222809 -0.110646024 -0.45639616 -0.28230396
-0.39594263 -0.29670763 -0.14733513 -0.35356733 0.1845293 -0.0077253412 0.36654 -0.06914071
-0.07097287 -0.16708471 0.16798458 0.2733795 0.37389708 0.4329506 0.2479056 0.088805795
0.39287746 -0.004814517 0.37922063 -0.27149504 0.36361226 -0.26806632 -0.42214888 0.21073376
0.025903722 0.021095617 -0.058473043 -0.24225295 0.20422913 0.10144631 -0.44528028 -0.23484248
0.08515497 -0.06063199 -0.3064842 -0.22776623 0.08635033 0.35713995 -0.3492875 0.12055904
0.09996288 0.10127861 0.121220075 -0.058871374 -0.2944013 0.26071522 -0.1361721 -0.1151214
-0.2491426 -0.40047452 -0.3804508 0.45383993 0.21127209 0.36212078 -0.27634096 0.41199014
-0.35464758 0.12708727 0.092514046 -0.24949607 -0.27510983 0.32581535 -0.22208911 -0.38382018
0.37985232 0.03506664 -0.015994184 0.23592451 -0.15873769 0.011483692 0.3122968 0.14933205
0.37293565 0.305857 -0.10220452 0.25034752 0.023280451 -0.18798995 -0.3426941 -0.34896532
-0.42025644 0.2653604 0.32126242 -0.20804843 -0.25825706 -0.066774674 -0.22839156 -0.1768788
-0.007053587 0.2789805 -0.06662817 -0.32539845 -0.43465886 0.020584483 0.34034753 -0.40620074
0.07661339 -0.22961664 -0.12508456 -0.48361582 0.03334659 0.36020726 0.37024167 -0.45121974
-0.18447961 0.30802324 -0.053182732 -0.039310988 0.3940786 0.104197614 -0.03544834 0.12951212
0.2764668 -0.19619298 0.088241585 0.24455059 -0.46478623 -0.48470742 -0.07780014 -0.03899887
0.043005664 -0.104464255 0.10622795 -0.17714575 0.38877016 0.2216988 0.25642985 -0.25864315
0.3758309 -0.21902338 -0.143313 0.45925927 0.43721253 -0.3047913 0.1391541 -0.3546982
-0.023021962 -0.18610145 0.4198914 0.038553026 -0.27811423 -0.29297194 -0.09637021 0.11684982
-0.33326676 0.1641223 0.05935447 0.4079905 -0.13086213 -0.3896149 -0.0049491078 -0.2878063
-0.09925558 -0.18436001 -0.0032814173 -0.23612314 0.12058658 -0.090393566 0.2650737 -0.18213055
0.33789453 -0.3333156 0.26273072 0.07501044 0.007888131 0.2284751 0.081297666 -0.037564944
-0.34656978 0.047519345 -0.27566248 -0.5525143 -0.35828105 0.06479377 -0.25231203 0.37776247
0.40959787 0.29020596 0.18561843 0.18959346 0.30872762 0.073108375 -0.41189796 -0.21392028
-0.032630578 -0.08035338 0.16172989 -0.4233437 -0.4518551 -0.3947809 0.16422169 0.27765992
-0.4101476 0.29279035 -0.4437837 0.29152378 0.4322447 0.12701803 0.03488152 -0.2851059
-0.00418206 0.19062582 -0.3503272 -0.20191486 0.014066746 -0.3429969 0.19990514 0.29835334
-0.18951896 -0.23271002 -0.3015179 -0.34411386 0.108350635 0.40039602 0.035686962 -0.14712733
-0.25138658 -0.22116253 0.44037342 -0.34153703 -0.31989953 0.03351196 0.1376531 -0.378709

conv1.bias f4 [128]
00000000: 09fc 523d 93e4 ddbe 3662 61be 4ab6 8cbd
00000010: 7e0d 283e a7b4 bfbd 57f3 b73e 59a6 85bb
00000020: 6b39 90be b1e0 673e 1ce3 053e 83cf 6fbe
00000030: be2d 9a3e 762b d53e 066f b03e 8609 3cbe
00000040: b327 cf3e 1a10 6dbe 487d cabe a2d9 86be
00000050: b5aa eb3d 7cf3 9bbe a6ac f7bd ca3d a1be
00000060: bbd0 da3d 27f7 b73e e1b8 20bd 0b55 88be
00000070: 4a80 04be 6587 803a 3152 ff3d f859 5abd
00000080: 8ffa 16be e825 83be ebda ec3c e995 b1be
00000090: b753 c53e af53 dc3e 91b9 963e 5e45 9bbe
000000a0: 0496 d53c b3bb e1be caf5 a5bd 7230 2fbe
000000b0: 111d 453e cbfd c7bd 9682 72be 471a 4b3d
000000c0: ef53 853e f0ab 77be 4a06 2e3b b292 b73e
000000d0: 33c0 473e 96e7 cebe 1614 9ebe ded4 dc3e
000000e0: 8744 9bbe 0ab3 6cbe d244 6fbd 78cc 9a3e
000000f0: 02e1 8ebc 9986 873e e618 24be 4549 c1be
00000100: 6aba 97be 1167 92be 4197 c33e d61b 6fbc
00000110: f0fe 303e c3fe c53d bc78 a4be fde0 673e
00000120: 9467 3a3d 43d5 343c e3c2 f03c bd02 a9be
00000130: fc14 7bbe e368 103e 845b 743e d5db c2bc
00000140: c208 923e e970 d6be ec35 17bd b5e8 b0be
00000150: a20b a5bc c6cf 6f3e 4179 793e 7d17 b53e
00000160: 9f19 a6be 0dc5 23be e4e3 e73e 27e8 8abe
00000170: 5306 adbe 6289 c6be 0cc3 a6be 5664 6fbb
00000180: fb04 303d cc69 cdbe be72 cdbe 6ee8 7ebd
00000190: 897a 963a 5493 6abe e01e a7be 17bb 70be
000001a0: 47b5 34bc ef57 5dbe 84fa 89be 2064 c6be
000001b0: ed7f 453e 3fdd 3c3e c61f 873e de9c 333e
000001c0: 5067 9bbe e69e b93c 4379 25be 201c 53be
000001d0: c0e7 ccbe bbeb 31bd e4f6 cebd 3d2e 7b3d
000001e0: 9a31 81be 6143 29be a4f3 813e 1a61 a6be
000001f0: 8c6a 34bd df96 92be 8293 16be 3cd0 cb3d
0.05150989 -0.4333845 -0.22010121 -0.068707064 0.16411397 -0.093606286 0.3592784 -0.004078668
-0.28168806 0.22644307 0.13074917 -0.23419003 0.30113024 0.4163472 0.34459704 -0.18363008
0.40459976 -0.23150674 -0.39548707 -0.26337916 0.11507169 -0.304592 -0.12093477 -0.31492454
0.106843434 0.3593075 -0.039238814 -0.26627383 -0.12939563 0.0009805976 0.12466849 -0.053308457
-0.14744018 -0.25614858 0.028912982 -0.34684685 0.38540432 0.43032596 0.2943845 -0.3032636
0.02607251 -0.44088516 -0.08103521 -0.17108324 0.19249369 -0.09765204 -0.23682627 0.049585607
0.260406 -0.24186683 0.0026554042 0.35854107 0.19506912 -0.4041106 -0.308747 0.43131155
-0.3032572 -0.23115173 -0.05841524 0.30234122 -0.017441276 0.26469877 -0.16025123 -0.37751213
-0.2963441 -0.28594258 0.38201335 -0.014594039 0.17284751 0.096677326 -0.32123363 0.2264442
0.045508936 0.011037174 0.029389804 -0.33009902 -0.24519724 0.14102511 0.23863035 -0.023786465
0.28522307 -0.4188302 -0.03691666 -0.3455254 -0.020147149 0.23419103 0.24362661 0.35369483
-0.32441422 -0.15993138 0.45291054 -0.27130243 -0.33793887 -0.3877669 -0.32570684 -0.003652831
0.0429735 -0.4011978 -0.40126604 -0.06223338 0.001148061 -0.22907764 -0.32640743 -0.23508869
-0.011029548 -0.21615575 -0.2694894 -0.38748264 0.19287081 0.18443774 0.2639143 0.17540309
-0.3035226 0.022658776 -0.16159539 -0.20616198 -0.4002056 -0.0434377 -0.101056844 0.061323393
-0.25233155 -0.1652961 0.25381196 -0.32495958 -0.044046924 -0.2863073 -0.14704707 0.09951827

batch_norm1.weight f4 [128]
00000000: 4947 423f 0000 803f 7b36 673f f149 a93f
00000010: f8f3 4e3f 93c2 8a3f 2a93 543f 0c14 933f
00000020: cc13 8b3f f979 763f a345 703f 0000 803f
00000030: 6dcf 4b3f 6181 423f 18ae 493f f404 8c3f
00000040: 9fe9 663f 0000 803f 0000 803f 1376 7f3f
00000050: 336c 7e3f 0000 803f 4dd5 8a3f 5720 773f
00000060: 2c79 633f fdd3 4c3f 16a2 a73f bc3b 913f
00000070: d909 853f c45f 623f 5bd2 3c3f 934b 8a3f
00000080: 9e15 813f 7344 8a3f 0d71 853f 2452 8b3f
00000090: ec90 4d3f 138b 523f 6b49 473f a912 873f
000000a0: e693 6a3f be34 913f 9487 833f a763 6f3f
000000b0: f79f 3c3f 2043 753f 9457 973f 16e7 713f
000000c0: dc53 4b3f 0139 923f 274d 8a3f f332 4e3f
000000d0: f432 6e3f 0000 803f 5dc6 a03f 99d9 5b3f
000000e0: 7aad 8e3f 0000 803f 5890 643f 430a 6b3f
000000f0: f780 8f3f aee8 583f 0000 803f 0000 803f
00000100: 4465 943f 893d 993f 423c 643f 5e65 893f
00000110: 18a2 473f 4cfe 6c3f 0000 803f a69b 723f
00000120: d6bb 813f 051f 453f e0e3 903f 10da 8d3f
00000130: b049 913f 4522 813f e842 563f ddbf 5d3f
00000140: 9a62 523f 39ea 893f 22f1 763f 0000 803f
00000150: d732 7f3f bfe3 523f 0e0c 543f c9e5 563f
00000160: 0000 803f 0abd 9a3f ad55 463f 0000 803f
00000170: fc41 853f ca83 9a3f bc84 8d3f ae49 a33f
00000180: 20b3 683f 4b3a 9b3f 4811 9d3f ab9a a33f
00000190: 92d1 ac3f 376e 843f a1cc 783f e08b 9e3f
000001a0: 560a 943f 5356 843f ed74 a13f 56b7 833f
000001b0: c25d 693f 82a5 633f f405 5e3f ac3b 563f
000001c0: 25b8 9f3f 3617 543f ab6e 833f 7f29 913f
000001d0: 0000 803f 47bd 803f 833b 703f c3db 723f
000001e0: 203e 803f a982 883f b68a 7d3f 6797 893f
000001f0: 218d 913f 2bc1 7d3f 6c2f 813f 9dc8 863f
0.7589002 1.0 0.90317506 1.322569 0.80841017 1.0840629 0.83037055 1.1490493
1.0865417 0.96279866 0.9385626 1.0 0.7961338 0.75978667 0.7878127 1.0939012
0.9020023 1.0 1.0 0.9978954 0.9938385 1.0 1.0846344 0.9653372
0.8885677 0.8001097 1.309634 1.1346354 1.039363 0.88427377 0.73758477 1.0804313
1.0084722 1.0802139 1.0425125 1.0884442 0.8029926 0.8224346 0.778464 1.055257
0.91631925 1.1344221 1.027575 0.9351143 0.73681587 0.9580555 1.1823602 0.94493234
0.79424834 1.1423646 1.0804795 0.8054649 0.930465 1.0 1.2560536 0.858789
1.1146691 1.0 0.8928275 0.91812533 1.1211232 0.8473004 1.0 1.0
1.1593404 1.1971904 0.89154446 1.073406 0.7798171 0.92575526 1.0 0.9476875
1.0135448 0.7700046 1.1319542 1.1082172 1.1350613 1.0088583 0.8369584 0.86620885
0.82181704 1.0774604 0.9646169 1.0 0.9968695 0.8237876 0.82830894 0.83944374
1.0 1.208894 0.7747448 1.0 1.0410762 1.2071469 1.1056132 1.275686
0.90898323 1.2127165 1.2270899 1.2781576 1.3501456 1.0346135 0.9718724 1.2386436
1.1565654 1.0338844 1.2613808 1.0290325 0.9115869 0.8892442 0.86727834 0.836848
1.2478071 0.8284792 1.0268148 1.1340789 1.0 1.0057763 0.9384081 0.9486658
1.0018959 1.0664874 0.9903978 1.0749329 1.1371194 0.99122876 1.0092597 1.0529972

batch_norm1.bias f4 [128]
00000000: b73f 6cbd 7f36 1abc 4094 163d be90 7abc
00000010: aa4e 25bd 8ebe f33c 3272 61bd bcc5 4fbd
00000020: 71a0 4a3d ef69 75bd 92b5 95bd 0cee 283c
00000030: fe98 dcbd 8abb 7cbe 06f5 5ebe 48be 6d3d
00000040: d8ce 0fbe ae46 90bb 7110 ebbb a8bc 383c
00000050: 14b2 47bd 014c fd3b f07e 503d bcc7 da3c
00000060: 1d00 34bd 3847 26be cdf5 69bd ad72 e23d
00000070: 88aa 813d 6443 143b b13e 04be 7583 563d
00000080: ac12 583d 7444 363d 6a64 643c d679 a43a
00000090: 25a3 b1bd 402c f1bd c8f5 08be 21e1 d1bb
000000a0: c01c 08bc 6ee7 2a3d decc 973d 8e4d 883c
000000b0: 3c07 8cbd 329b 5d3d f055 8c3d 64c1 21bd
000000c0: 23ba 88bd 7dab 933d 2571 4b3c a825 e8bd
000000d0: 0514 7fbe 0f65 26bc bd48 903d 3230 efbd
000000e0: 358e 0d3d d52e 3b3c 53be a6bb dd4d 01bd
000000f0: a21a 8ebb 134c e8bd add2 2cbc ad4d a6b9
00000100: acfe 343d a2d1 813d 4da9 47bd 84d2 87bd
00000110: dd5d 12be a749 24bd 8419 18bc 623c 3dbd
00000120: 8be7 95bd 18d9 c5bc a9d2 4dbd b39f 2f3d
00000130: e162 423d 2674 efbd 94c5 f6bd f72c 9e3c
00000140: 864f 11be ef0f 1e3d c313 9e3d aa5b 1dbb
00000150: a724 913b 63d2 19be 6271 3ebd 8c54 62be
00000160: 750c 80bb 9d1b a93d 3dc9 5cbe 87ff 0a3c
00000170: dd3c e93b 016b 203d 5e5e 553c 6f58 a9bd
00000180: b541 983c 1b0d 943d b2d7 fb3c 1123 433d
00000190: c476 4b3d d6db 873b 0f5b 22bc 4cd2 6b3d
000001a0: 7fc3 0a3c 54d8 c03d 6afd 033e 07e6 8ebb
000001b0: 3231 60be 6015 fabd 9843 e3bd 5171 5ebe
000001c0: 51ac 653d e7c3 44bc 8d03 353d 176f 693d
000001d0: 0010 073c 85a4 c83b 6f33 f93c b080 bfbc
000001e0: e6c0 023c 3a49 f73c 7118 95bd 63a8 823d
000001f0: 93f1 103c aee3 cfbb 1fb5 063d e693 50bd
-0.05767795 -0.009412407 0.036762476 -0.015293298 -0.040358223 0.02975395 -0.055040546 -0.050725684
0.049469415 -0.05991548 -0.073100224 0.010310661 -0.107713684 -0.24680915 -0.21773157 0.058042794
-0.14043748 -0.004402957 -0.007173591 0.011275448 -0.048753813 0.0077300076 0.050902307 0.026706569
-0.04394542 -0.16238105 -0.05711918 0.11057029 0.063313544 0.0022623176 -0.1291454 0.05237146
0.052752182 0.044498876 0.013939956 0.0012548517 -0.086736955 -0.11776018 -0.13375008 -0.0064050113
-0.008307636 0.041724615 0.07412122 0.016638543 -0.06837317 0.054103084 0.06852329 -0.039491072
-0.06676128 0.07210443 0.0124171125 -0.11335307 -0.2490998 -0.01015593 0.07045124 -0.116791144
0.034559447 0.01142474 -0.0050886064 -0.031568397 -0.004336671 -0.11342635 -0.010548276 -0.0003171986
0.044188187 0.063388124 -0.048745442 -0.066319495 -0.14293619 -0.040109303 -0.009283427 -0.046200164
-0.07319554 -0.02415137 -0.05024973 0.04287691 0.04745758 -0.116920754 -0.12049404 0.01930855
-0.14190492 0.038589414 0.07718613 -0.0024010935 0.004429418 -0.15021662 -0.04649485 -0.22102565
-0.003907735 0.0825722 -0.21561141 0.008483774 0.007117851 0.039164547 0.013022987 -0.082688205
0.018586019 0.07229062 0.0307425 0.047640864 0.04967381 0.0041460795 -0.009909405 0.0575736
0.008469461 0.09416261 0.12889639 -0.0043609175 -0.21893767 -0.12211108 -0.11096877 -0.21722914
0.056072537 -0.012009597 0.04419284 0.05699071 0.008243561 0.006123128 0.030420033 -0.023376793
0.007980561 0.030186284 -0.072800525 0.063797735 0.008846658 -0.00634428 0.032887574 -0.050922297

batch_norm1.running_mean f4 [128]
00000000: 5ac7 103e 0000 0000 db9e 7438 19b9 b73c
00000010: fee8 b43e 6e55 f338 ef33 2b3f e8c4 933c
00000020: 3c72 383b f771 1c3e 1780 143e 0000 0000
00000030: 0b20 b43e 0221 f43e 7514 ae3e 6429 903b
00000040: c564 fe3e 0000 0000 0000 0000 0400 0000
00000050: 3561 cd3d 0000 0000 49a9 a93d 9867 7a3d
00000060: 9d31 523e f548 c13e cf0e ce3c 7d59 863b
00000070: 9d7c f13c a029 4a3e 382d 143e c55f 943c
00000080: 7140 043d 9f08 3a3d 3b4a 833d 0400 0000
00000090: 857e 0b3f a82d ff3e 25f6 663e 0400 0000
000000a0: 2958 c23e 1ac7 603b c915 053c 2328 3a3d
000000b0: 1bd3 bb3e 1ae0 da3c 815a 403b 5ea2 9f3d
000000c0: 1dbc e83e fc1e 8f39 b277 7f3c dd14 f93e
000000d0: 8de6 873e 0000 0000 59d0 f13b 8917 913e
000000e0: 7b4b 4c3c 0000 0000 8ad0 7e3e 6d85 533e
000000f0: 547c 0b3c 191c 3a3e 0000 0000 0000 0000
00000100: 2cb8 1f3b 4807 c43c 3136 2c3f 6693 fa3b
00000110: 87f8 013e d287 a33d 0000 0000 503d 293e
00000120: 4b6f 3d3d 24d6 443e bdb4 f33c 972a 773b
00000130: 0a25 9537 3317 d73d db7b 893e 6597 303d
00000140: 0a96 813e 1e2f 6d3b dec3 e13c 0000 0000
00000150: 36fc 063c c004 913e 0586 f63e f61b b73e
00000160: 0000 0000 ec4b ac3b b873 d63e 0000 0000
00000170: 5ac4 e635 2ac6 5a39 0400 0000 bd49 e63c
00000180: 5f33 033e b7a1 363c 3ea2 8d39 8b7f b53b
00000190: 6913 343c 36a3 9435 0400 0000 8c50 e43c
000001a0: b741 783b d689 913a e83c cc3a 0400 0000
000001b0: 4dd5 603e 19c4 f33d 03e6 8d3e a16c 2f3e
000001c0: a82c 793b d7aa 9d3e b067 a83b 7a7f d63c
000001d0: 0000 0000 0400 0000 22aa 373c 4b33 523d
000001e0: 0400 0000 3bd4 2939 dac4 463e 1be8 483d
000001f0: c91b 4b3c 0400 0000 13f7 4638 2c72 763d
0.14138547 0.0 5.832208e-05 0.022427129 0.3533401 0.000116030555 0.6687612 0.018038228
0.002814426 0.15277849 0.14501987 0.0 0.35180697 0.47681433 0.33999982 0.0043994654
0.49686256 0.0 0.0 6e-45 0.100283064 0.0 0.08284242 0.06113395
0.20526738 0.37750974 0.025153546 0.0041000233 0.029478366 0.19742441 0.14470375 0.018112073
0.03228802 0.045418378 0.06410643 6e-45 0.5448993 0.4983952 0.22554834 6e-45
0.37957886 0.0034298361 0.00812287 0.045448434 0.36684498 0.026718188 0.002935082 0.07794641
0.4545602 0.0002729817 0.015592502 0.4864873 0.26543084 0.0 0.0073795733 0.28338268
0.012469168 0.0 0.24884239 0.20656367 0.008513529 0.18174781 0.0 0.0
0.002437125 0.023929253 0.6727019 0.007646966 0.12692462 0.0798489 0.0 0.16527295
0.046248715 0.19222313 0.029749269 0.0037714595 1.7779432e-05 0.10502472 0.26852307 0.04311313
0.25309783 0.0036191414 0.027559217 0.0 0.008238843 0.28323936 0.48149124 0.3576352
0.0 0.005258074 0.4188516 0.0 1.7193481e-06 0.00020863922 6e-45 0.028111333
0.12812565 0.011146954 0.00027014496 0.005538886 0.010990956 1.107436e-06 6e-45 0.027870439
0.0037880966 0.00111037 0.0015582116 6e-45 0.21956368 0.11902637 0.27714548 0.17131282
0.0038021002 0.30794403 0.0051393136 0.026183832 0.0 6e-45 0.011209996 0.051318448
6e-45 0.00016196158 0.1941103 0.049049478 0.012396761 6e-45 4.7436984e-05 0.060167477

batch_norm1.running_var f4 [128]
00000000: 222b b13c 0400 0000 407c b036 fe2d 593b
00000010: c687 0d3e 475c 2136 a186 ea3e 346e 9d3a
00000020: 49e1 9c39 8ba4 ac3d 50c5 b33c 0400 0000
00000030: f941 7b3d bc21 c93d 2e94 643d a1ed 7a39
00000040: 0287 0c3e 0400 0000 0400 0000 0400 0000
00000050: cdab 013d 0400 0000 00e1 903c 6f25 743c
00000060: ca91 4e3d 2e07 913d 23b1 543b 23f8 9f39
00000070: 1613 1e3c 64e2 763d 17c9 1b3c 41e6 453b
00000080: 64d7 323c 7166 0b3c 5492 0d3c 0400 0000
00000090: f898 713e bf5c 083e fc92 183d 0400 0000
000000a0: 30c6 573e d36b 053a 85a6 7c3a e872 f63b
000000b0: 1756 043e 40db dc3b 8ea1 3439 7361 cc3b
000000c0: a1f5 423e 4ddb 3937 074e 1f3a 05ed 273e
000000d0: 72a8 543d 0400 0000 c7e9 1d3a bf0d e83d
000000e0: de3c 3e3b 0400 0000 6b93 d53d d869 253e
000000f0: 1208 c339 4bc7 1a3d 0400 0000 0400 0000
00000100: a6e9 9539 6403 683b df36 e43e 4554 bf39
00000110: b648 5c3c f2b6 d43c 0400 0000 4783 b73d
00000120: 06b3 e13b f1ae 583d adbd af3b e4fc 103a
00000130: a41e bd34 a30c 563c 58a6 223d 87f6 3e3c
00000140: 4815 f43c 8418 1c3a 2e01 d23b 0400 0000
00000150: d195 ea39 56ef 293d 9671 613e 93d5 593d
00000160: 0400 0000 fd50 9e39 2b59 a33d 0400 0000
00000170: 044a d233 8c1d 1f37 0400 0000 211e 1d3b
00000180: 67a7 b03d 8c76 bc3a d3a0 7c37 2850 c639
00000190: a961 993a 3363 f732 0400 0000 3686 803b
000001a0: 2f0d 1a39 33e3 9d38 27e5 ad38 0400 0000
000001b0: 7089 f83c 476f 973c 883a 053d 60a8 8e3c
000001c0: a49c 9739 95d0 093e 0efe 223a 8ff0 7c3b
000001d0: 0400 0000 0400 0000 6f24 253a 1798 3d3c
000001e0: 0400 0000 eab8 1c37 be55 d83d 0fd8 283c
000001f0: 3072 933a 0400 0000 0c49 5e36 04b2 1a3c
0.021627013 6e-45 5.2596733e-06 0.0033138986 0.13821325 2.4044582e-06 0.4580584 0.0012010993
0.0002992249 0.084298216 0.021944672 6e-45 0.061342213 0.098208874 0.055805378 0.00023930382
0.13723376 6e-45 6e-45 6e-45 0.031657983 6e-45 0.017685413 0.014901503
0.050432004 0.070814475 0.0032454215 0.0003051172 0.009648105 0.060274497 0.009508393 0.0030197056
0.010915611 0.008508311 0.008640844 6e-45 0.23593509 0.1331663 0.03724955 6e-45
0.21071696 0.00050896144 0.00096378505 0.007521022 0.12923466 0.006740004 0.00017226322 0.006237203
0.19039012 1.1077919e-05 0.00060769956 0.1639901 0.051918454 6e-45 0.000602391 0.11330747
0.002902798 6e-45 0.10428508 0.16153657 0.0003719931 0.037787717 6e-45 6e-45
0.00028593576 0.0035402412 0.44573113 0.00036493145 0.01344507 0.025966141 6e-45 0.08960586
0.0068877963 0.052901212 0.0053631873 0.00055308477 3.5226287e-07 0.013064536 0.03970942 0.011655456
0.029795304 0.0005954581 0.006408832 6e-45 0.0004474358 0.041488014 0.22015986 0.053182196
6e-45 0.0003019645 0.07975992 6e-45 9.7923504e-08 9.484018e-06 6e-45 0.0023974257
0.086256795 0.0014378591 1.5057815e-05 0.00037825224 0.0011702079 2.8799695e-08 6e-45 0.003922249
0.00014691496 7.5286625e-05 8.291966e-05 6e-45 0.030338973 0.018485678 0.032526523 0.017414272
0.0002891767 0.13458474 0.00062176667 0.0038595533 6e-45 6e-45 0.00062996795 0.011571906
6e-45 9.341378e-06 0.10563229 0.010305419 0.001124924 6e-45 3.3123097e-06 0.009441856

dense1.weight f4 [100, 1664]
00000000: 136d d7bc 8967 52bd b3c4 5d3c 822f 44bd
00000010: 9ab5 2ab7 6000 443c 7489 acbb d727 0dbb
00000020: 11c9 0f3b c177 063c fd69 373c a4b2 1ebd
00000030: 80ba d0bd 766f 4abb 1b99 103d 7dc8 083d
00000040: 559b 8c3c 700e 4a3b 3488 2a3d a03c a23b
00000050: 3f16 02bb 0aec 523b 5c5a f03c a507 cf3b
00000060: a06b 543c c8d4 0b3d e35e 373d df14 133d
00000070: 4dbd 093d 677d 293d 03d5 053d 6823 343d
00000080: 299e a83c e820 343d 9ce2 333c 1ced 4b3c
00000090: ce88 943c e91c 023d 17ef 183d 175b 95bd
000000a0: 8831 ccbc ac19 013d a884 923c 4752 d7ba
000000b0: 84f1 23bd d2e5 44bc 23d0 343d 9271 04bc
000000c0: 05cb 82bd d3b8 683d 9151 0e3e 21b8 dd3d
000000d0: 4c92 88bd 65d0 483c 6591 43bb f298 2ebd
000000e0: e1a3 03bd 3c38 c5bc 426d a73c 1499 10bc
000000f0: f46f 903d 0df1 f13c 15ac a83c d9f2 8abc
00000100: 2ebb 61bd 8e96 aebc 1ca3 92ba 0368 bdbc
00000110: e189 ae3c e9d3 613c 7995 35bc 9d3b 933c
00000120: a148 303c e6a6 c4bc 5cc3 63bc e6e2 963c
00000130: 6501 a4bc 5307 56bc 8ef8 96bc 2f9b c2bb
00000140: e021 c1bb eed4 043c d82b 44bc f778 14bd
00000150: f1c8 0cbd e319 1dbc 1d2c 6cbc c7c5 093d
00000160: 165c 083d d394 aebc 40d1 95bd 3e93 7ebd
00000170: 8cac 95bd 06a2 62bd e6e2 d53c 748c d03c
00000180: 7735 58bd 4b94 f7bc a18c c2bb dcc2 88bc
00000190: d275 93bd 78a2 89bc 5165 4e3d 8789 673d
000001a0: 0c1e 003d c740 a4bb f02b b83c befc 543c
000001b0: 265f 22bc e45d f0bc 666b 99bc bd55 6abc
000001c0: 7dcd 0cbc ed6a 1ebd 4f4c d4bc 05d8 27bd
000001d0: 9053 afbd 0d09 3a3d c084 123d a1f5 0fbc
000001e0: ffb8 a53c 88f1 183d dfd5 87bb d894 38ba
000001f0: 99ee 513a 6cfd 89bb 1a26 67bd d1dc 8fbd
00000200: d965 3fbb a79a 9e3d bbe6 243d 24c7 44bb
00000210: 8d89 3ebc 2a74 77bd 10a1 21bc 1e17 2e3c
00000220: fec5 b93c d39d cabc 58f8 28bc b2ee 61bd
00000230: 0066 1dbd 6ebb bdbd 166b 1cbe ecd9 083d
00000240: 8218 953a 76a2 8cbb 607a 193c 1e60 61bc
00000250: 2b14 d5bb adc2 09bc cd48 2cbc f7de d73b
00000260: 7e59 e537 f3d7 a13c 1e02 113c f768 1d3c
00000270: 8544 acbb f042 0ebc 7545 2a3c b21f 98bb
00000280: 3602 003c 1215 873d ef2a d4bc bd02 02ba
00000290: e2b3 083b 8f60 c6ba 175e 24bd 2ea4 8ebd
000002a0: 77b6 01bd b18b 60bc 4bcb b3bc f382 6f39
000002b0: e538 3bbb 9062 14bd f390 66bd 23cd 26bd
000002c0: db62 473c f086 263d fd2e aa3b a79f dd3c
000002d0: 9f95 5c3d 2800 8bbd 1b14 193d f6ba e1bc
000002e0: 7a6b a23c 1524 13bd 3f90 80bd 4a88 fbbc
000002f0: 1097 a6bd b570 4cbc f559 363d 1139 7d3c
00000300: 43dd 4e3d 3b0a c3bc 0851 bb3c 8b18 e43c
00000310: 6ceb c83d c86c 923d c966 903d a978 2d3d
00000320: be09 e43c 77d4 8d3d 1eb6 633d 213e cd3c
00000330: 096b 00bd 21d3 bbbd 1146 febd d95c 98bd
00000340: be43 57bd 4648 5ebc 1fba 3d3d 598d 663d
00000350: f397 f5bc a2d9 d6bc c401 a3bc 4c9c 6abc
00000360: 9eb3 46bc 50ff 48bc e46c 1d3c 861d 0ebc
00000370: c99c 40bd e65b ee3c 52f0 573c 82d9 a13c
00000380: 57e1 3b3d a500 2b3d 49d5 6a3d d848 443d
00000390: d99b 4c3d 85ee 0f3d 4807 9e3c 4474 cd3c
000003a0: b608 d33c 72f1 143d d74a 1c3d 2138 1c3c
000003b0: 49ca 1e3d a060 f13c 8978 1a3d 6f18 b73c
000003c0: 13d6 153d c3c6 d83c b941 413c 8690 fb3c
000003d0: 6462 9a3b ffd8 813c 8388 b539 40ca be3c
000003e0: eb40 f3bb 59a9 893c 7394 edbb b72e 61bb
000003f0: cbd9 d5bb 48fd bb3c 2f74 c73b b8b4 433b
-0.026297128 -0.05136827 0.013535666 -0.04789687 -1.0175072e-05 0.01196298 -0.005265409 -0.002153864
0.0021939913 0.0082072625 0.011194703 -0.038744584 -0.10191822 -0.003088919 0.035302263 0.033394326
0.017163912 0.003083136 0.0416338 0.0049510747 -0.0019849685 0.0032184147 0.029339962 0.00631805
0.012965113 0.03413847 0.044768225 0.035908576 0.033627797 0.04137936 0.032673847 0.04397908
0.02058323 0.043976694 0.010979321 0.012446668 0.01813164 0.031765852 0.03733739 -0.07292765
-0.024925962 0.031518623 0.017885521 -0.0016427719 -0.04002525 -0.012017684 0.044143807 -0.008083718
-0.06386379 0.056816887 0.13898303 0.108261354 -0.06668529 0.012256716 -0.00298413 -0.04262633
-0.03213871 -0.024074666 0.02043784 -0.008825559 0.07052603 0.029533887 0.020589868 -0.016961502
-0.05511015 -0.021312024 -0.0011187526 -0.023120886 0.02130598 0.0137834335 -0.011083 0.017972762
0.010759504 -0.024005365 -0.013901558 0.01841874 -0.020020196 -0.01306327 -0.018429067 -0.0059389095
-0.005893931 0.008107407 -0.011973344 -0.036248174 -0.03437132 -0.009588691 -0.014414814 0.03363588
0.033290945 -0.0213112 -0.07315302 -0.06215214 -0.07308301 -0.0553303 0.02610917 0.025457598
-0.052785363 -0.030222079 -0.0059371744 -0.016694479 -0.07200207 -0.016801104 0.05038959 0.05652764
0.031278655 -0.005012605 0.022481889 0.012999712 -0.0099103805 -0.029341646 -0.01872797 -0.014302668
-0.008593914 -0.03867619 -0.025915293 -0.040977497 -0.0856086 0.045418788 0.03577113 -0.00878659
0.020229815 0.037339717 -0.0041453685 -0.00070412224 0.0008008271 -0.0042111184 -0.05643282 -0.07024539
-0.0029204993 0.07744341 0.040259104 -0.0030025924 -0.011629474 -0.060413517 -0.00986506 0.010625629
0.022677418 -0.02473346 -0.010313116 -0.05515928 -0.038427353 -0.09264265 -0.15275225 0.03341095
0.0011375102 -0.004291828 0.009367555 -0.013755826 -0.0065026483 -0.008408231 -0.010515404 0.006587859
2.73406e-05 0.019756293 0.008850602 0.009607545 -0.0052571916 -0.008682951 0.010392536 -0.0046424503
0.007813027 0.06595816 -0.025899379 -0.00049595145 0.0020859172 -0.0015134978 -0.040128794 -0.069649085
-0.031668153 -0.01370518 -0.021947524 0.00022841599 -0.0028567847 -0.03622681 -0.056290578 -0.040722977
0.012169565 0.04065603 0.0051935897 0.027053667 0.053853627 -0.06787139 0.03737269 -0.02755497
0.01982664 -0.035923082 -0.06277513 -0.030704636 -0.08134282 -0.012478043 0.044519383 0.0154555
0.05050398 -0.02380859 0.022865787 0.027843734 0.09810528 0.071496546 0.07050855 0.0423514
0.027836677 0.0692529 0.055593602 0.02505404 -0.031352077 -0.09171129 -0.12415708 -0.07439584
-0.05255484 -0.013567036 0.046320077 0.056287143 -0.029979682 -0.026226822 -0.019898303 -0.014319491
-0.012127785 -0.0122679025 0.009608481 -0.008674031 -0.047024522 0.029096555 0.013179855 0.019757036
0.045869198 0.04174866 0.05733231 0.04792103 0.049953315 0.03513958 0.019290581 0.025079854
0.02576099 0.036363073 0.03815731 0.009534867 0.038767133 0.02946502 0.037712608 0.022350518
0.03658111 0.026461964 0.011795455 0.030708563 0.004711436 0.015850542 0.0003462472 0.0232898
-0.0074235103 0.016804384 -0.0072503625 -0.003436012 -0.006526207 0.022947922 0.006086848 0.0029862355

dense1.bias f4 [100]
00000000: 70a8 d1bc b728 36bc 5255 f53c 2acb 0ebc
00000010: 9c6c 1bbc 5790 e23b b971 433c 68f7 f3bc
00000020: 91c9 1b3d e7cc adbc afd9 6fbc dbf2 0dbd
00000030: 7552 623d a74f a3bc 291d e83c af4f 3d3d
00000040: 8961 73bb 6b4c 5c3c d3a5 0cbd 0005 c3bc
00000050: d7e8 16bd 4553 8dbc a53d 1b3d ce99 9abc
00000060: 9240 3e3c 6883 f4bc c2e4 2cbd 21a9 3abd
00000070: 47e5 adbc 32c4 163d 6acc d63c 834b 103c
00000080: 15d3 2a3d 4363 cf3b aca9 0e3c 8a03 8ebc
00000090: b1b7 eb3b 55ba 64bd cc60 0bbc 90fd 433c
000000a0: b3a8 af3c 42cc a3bc 00f0 1abd 53b6 babc
000000b0: 3cb6 b0bc e139 c5bc e894 6f3c 7c23 f9bc
000000c0: 0bd4 90bc 3ba1 66bc dbaf 03bd 9c46 9a3d
000000d0: eca7 6f3c fc51 acbb 81e8 223b e0b9 513d
000000e0: f4bc 5fbd 9816 afbc 060f 5a3d 6ca7 51bc
000000f0: 2cc6 48bc ba10 2dbd 177c 33bd 6d0e abbc
00000100: eee9 463d a42d 0fbd c9ec 13bc 607e cdbb
00000110: 7e6c d6bd 4928 c6bb 6508 3dbd da45 65bc
00000120: 96f0 46bc ad71 0abd 9d42 df3c 5fe9 4c3b
00000130: cfa8 eb3b f2f9 3d3d 1d3d 6dbb bc84 3ebb
00000140: d451 7e3c 8302 27bb 48e5 8cbb 993a 213d
00000150: a639 8e3c 73a2 053d 2d5c 093d ecb0 75bc
00000160: e4b1 b33a e244 9bbb 975b 263c a1f6 ddbc
00000170: 889e 5bbc 2dda 0d3d b97d 6f3b 63de c13c
00000180: 1a5d 4fba fd19 823d 1709 11bd a25d b0bb
-0.025593013 -0.011118106 0.02994791 -0.00871543 -0.009486344 0.0069141793 0.011928969 -0.029781058
0.038034026 -0.02121587 -0.014639302 -0.034655433 0.05525442 -0.019935442 0.028334217 0.04621857
-0.0037136993 0.013445954 -0.03433783 -0.023806095 -0.036843147 -0.01725162 0.037900586 -0.018872168
0.011612074 -0.029847816 -0.042210348 -0.04557145 -0.021227492 0.0368082 0.02622052 0.008807066
0.04170521 0.0063289716 0.008707445 -0.017335672 0.0071935286 -0.055841763 -0.008506965 0.0119623095
0.021442747 -0.019994859 -0.037826538 -0.022792017 -0.021571271 -0.02407545 0.014622904 -0.030412428
-0.017679235 -0.014076526 -0.03215013 0.07532999 0.014627438 -0.0052587967 0.0024857821 0.051202655
-0.05462356 -0.021373078 0.053236984 -0.012796264 -0.012254279 -0.04225228 -0.043819513 -0.020880902
0.048562936 -0.034955636 -0.009028622 -0.0062711686 -0.10469912 -0.006047283 -0.046150584 -0.013993705
-0.012142321 -0.033799816 0.027253443 0.003126703 0.0071917544 0.046380945 -0.0036199756 -0.0029070815
0.015522439 -0.0025483675 -0.0042997934 0.039362524 0.017361473 0.032625627 0.03353517 -0.014995795
0.0013709632 -0.004738436 0.010153673 -0.02709514 -0.013404496 0.034631897 0.0036543442 0.023665613
-0.00079102966 0.06352613 -0.03540906 -0.0053822557

dense2.weight f4 [33, 100]
00000000: 232f 71bd ae08 303d cf4d 10be d85a 123c
00000010: 62f3 96bd f82c 36bc 9f33 8d3d 77b1 a7bd
00000020: e573 f53d 8f61 2ebe 9244 9abc 824e c4bc
00000030: 0f74 33bd 5d4a 86bd 892d c83c 9b9d 3fbd
00000040: 828a c83d 3c67 a2bd 1d76 623d 79e4 b43d
00000050: a13c 9ebd 62d5 80bd a9ea b5bd 2d7e fd3c
00000060: 686f d43d 2d65 78bc fecb c8bc 7df9 7a3d
00000070: 46cb b5bd ac39 bbbd 57e5 17be 02c4 373d
00000080: 296b 55bd 4587 473d ccf8 a1bd 65b3 3cbd
00000090: 3bc7 813d 979f 913d e4e3 ce3d 2d88 3cbd
000000a0: c235 9a3c 22b5 d53d f500 463d f1bf f1bb
000000b0: cd6e 043d 8670 8d3d 7b63 57bd 3718 ddbb
000000c0: 9d2f 393d fedf 723d 4038 76bc 2754 2abe
000000d0: 8772 3bbd f604 d5bd 5c7d 1fbe da59 3f3d
000000e0: 2d62 4c3d dbee 233d 64c4 b8bd 6f0a f13c
000000f0: 24a9 c73d e8a8 babd ea6c ab3c 0ff9 dd3d
00000100: 36a2 82be e4c3 78bd 057c dd3c cb71 4e3d
00000110: cb0b 6bbd e5bc 20ba 002d b03d 0fd1 f3bd
00000120: c9ce 973d 6d45 82bd 6f02 d13c 6910 5fbd
00000130: 7909 e6bd 900d 07be 0cba d9bd fdbc 95bd
00000140: 2aad b03d 1f2b 823d ba69 61bd 9183 20be
00000150: f226 ddbd 2150 593a 55d7 a7bd 14bb 0ebd
00000160: 5cc2 b7bd 93c0 54bd 0ab2 f9bd b243 88bd
00000170: 670b ddbd 0dc8 31bd 41d3 ebbd 294f 4f3d
00000180: 26b6 963d 4e65 a9bd dbbd b63d 2110 013d
00000190: 5c6e 423d 61bb 893c e925 1a3d 89df 8c3c
000001a0: acf5 883d 2c27 b2bd 8004 9e3d b4cf 80bd
000001b0: eb29 09bd dbb6 fdbd 4cfa 88bc 215f 803d
000001c0: e1dc d2bd b42e 19be fea9 2dbe 5d21 36bc
000001d0: 890b 793c 296f b339 41ac a9bd efe0 07be
000001e0: 072a 3abc f1f7 6fbd e752 7d3d 4199 753d
000001f0: 2bfb a83b e3c1 d5bd b79f 163d 2fed 95bd
00000200: 36ea a7bd 8cab a8bc 7c4f 69bd d1fa 5d3b
00000210: 7418 513d 7f28 b5bd 3578 e3bc 5e95 e7bd
00000220: 875c 0f3d 541c f8bc 1fee d7bd 0673 25be
00000230: f3f2 a9bd 7ee5 aabd 5798 2cbc 2549 883d
00000240: 8acc e0bd c3a4 fbbc 3f37 f7bc 7f8c 23bd
00000250: b96e 99bd 5ba8 e4bc be4b fdbc 0fca 83bd
00000260: 8e90 95bd 2fd6 c6bd 0115 1ebe 3339 4ebd
00000270: 39af 16bd 4b42 9cbd 87d9 853d 3a80 6cbd
00000280: da83 603b 3464 e4bd 51df 92bd 352a bebd
00000290: e039 1dbd 86e8 eebc 2a95 a03c a386 5abe
000002a0: 5f05 aabd 626d d03c f542 763d a6db fbbd
000002b0: 8a8c e0bc d0bc 72bd 0d17 96bc da07 62bd
000002c0: 7994 20bd 7c5c 2cbc e23b 3ebe 2911 d4bc
000002d0: 3469 8a3c 75c8 babd 7cf2 21be 07b5 e138
000002e0: 038f 58bd 0dd3 63bc 37b8 40be 4502 09be
000002f0: a5b8 adbd 8273 783c 4017 933c 17f8 76bb
00000300: ef18 8cbc b224 04be cfae ca3c 8701 c4bc
00000310: 813e 99bd c776 283d 2a1c 2f3b 5677 55bd
00000320: 95cf 02be 381a 9d3c 0450 26be 85aa 42bc
00000330: e162 8b3c a861 1a3d 9f19 31bd 5fdb 5aba
00000340: fe7d 47bc 4606 82bd 2aa2 d93b 7222 313c
00000350: d9b8 a5bd f50e f1bc 1d2b 17be d8f1 02be
00000360: ba37 5e3d 28c9 9abd 7c5b 5b3d 5ecc 84bd
00000370: f036 953d ea69 ddbd 2bab e5bd d92f 113d
00000380: 339a e8bd 331d c63c 59ab ffbd cece 21be
00000390: fb09 ca3b 593a b5bc f64e 98bd 8d99 6d3d
000003a0: 647e cb3c 0418 cabd 1f78 033d d7a8 433d
000003b0: fdb7 5bbd 1edb 8d3b ab89 9e3b a092 cfbd
000003c0: 3120 7ebd 469a d0bd 32f3 9a3d 0f67 bbbc
000003d0: c497 f7bd 5237 f3bc 5742 56bc 7927 0dbc
000003e0: 5838 11be 68ea b9bd c132 363c 2bcd f8bd
000003f0: d902 ba3c e4dc 203d b33a 8ebd c67c aebd
-0.058882844 0.042977028 -0.14092182 0.008932792 -0.0737064 -0.01111912 0.068946116 -0.081881456
0.11984996 -0.17029403 -0.018831525 -0.023963217 -0.043811854 -0.065571524 0.024435775 -0.046781164
0.09792043 -0.07929847 0.055288423 0.0883264 -0.07726408 -0.062906995 -0.088826485 0.030943954
0.103728116 -0.015160841 -0.024511334 0.061273087 -0.08876662 -0.091418594 -0.1483358 0.044864662
-0.05210415 0.048712987 -0.07908782 -0.04606952 0.06336828 0.071105175 0.101020604 -0.046028305
0.018824462 0.10434939 0.048340756 -0.0073776175 0.03233223 0.06906228 -0.052585106 -0.0067472714
0.045211423 0.059295647 -0.0150280595 -0.16633664 -0.04576352 -0.10401337 -0.15575165 0.04671655
0.049898315 0.040022712 -0.090218335 0.02942392 0.09749058 -0.091142476 0.020925958 0.1083852
-0.25514382 -0.06073369 0.027036676 0.05040149 -0.057384294 -0.0006131663 0.08602333 -0.11905109
0.07412488 -0.06360898 0.025513856 -0.05445901 -0.112322755 -0.13188767 -0.10631189 -0.07311437
0.086267784 0.06355881 -0.05503247 -0.15675189 -0.10798444 0.0008289833 -0.08195368 -0.03484638
-0.08972618 -0.051941466 -0.121921614 -0.06653537 -0.107931904 -0.043403674 -0.11514903 0.050612602
0.07358961 -0.082712755 0.08922931 0.031509522 0.04746853 0.016812982 0.03763381 0.017196434
0.06687483 -0.08698878 0.07715702 -0.06289616 -0.03348724 -0.123883925 -0.016720913 0.062681444
-0.102960356 -0.14959222 -0.16959378 -0.011116353 0.015200504 0.0003422436 -0.08284808 -0.13269399
-0.011362559 -0.058586065 0.06184664 0.059960607 0.0051568947 -0.104373716 0.03677341 -0.0732063
-0.08198969 -0.020589612 -0.056960568 0.0033871422 0.05104871 -0.08845615 -0.02776728 -0.113077864
0.03500035 -0.030286945 -0.10543465 -0.16157159 -0.08298292 -0.083445534 -0.0105343675 0.06654576
-0.10976513 -0.030718213 -0.03017771 -0.03992891 -0.07491822 -0.02791231 -0.030919906 -0.06435024
-0.07302962 -0.09708821 -0.154377 -0.05034752 -0.0367882 -0.07629832 0.06535631 -0.057739474
0.0034258277 -0.11151925 -0.071715005 -0.09285394 -0.038385272 -0.02916361 0.019602377 -0.21340422
-0.08301806 0.025442783 0.06012245 -0.12297754 -0.027410764 -0.059262097 -0.018321538 -0.05518327
-0.039204095 -0.010520097 -0.18577531 -0.025887089 0.016895868 -0.091202654 -0.15815157 0.00010762555
-0.05287076 -0.013905299 -0.18820272 -0.13379772 -0.08482484 0.015164258 0.017955422 -0.0037684494
-0.017101733 -0.12904623 0.024741558 -0.02392651 -0.07482625 0.0411289 0.0026719668 -0.05211576
-0.12774499 0.019177541 -0.16241461 -0.011881475 0.017014923 0.03769079 -0.043237325 -0.0008348729
-0.012176035 -0.06348853 0.006641646 0.010811435 -0.080918975 -0.029426077 -0.1476254 -0.12787569
0.054252364 -0.07557899 0.053554043 -0.064842924 0.07285869 -0.10811217 -0.11214288 0.03544602
-0.11357536 0.024183845 -0.12483854 -0.15801546 0.0061657405 -0.022122549 -0.074369356 0.058007766
0.024840541 -0.09867862 0.03209698 0.04776844 -0.05364226 0.0043290993 0.0048381886 -0.101353884
-0.06204242 -0.10185675 0.07565917 -0.02287629 -0.12089494 -0.029689465 -0.01307734 -0.008615368
-0.1418165 -0.090779126 0.011120499 -0.12148508 0.022706436 0.039273158 -0.0694479 -0.085198924

dense2.bias f4 [33]
00000000: 126b 5fbc 52f4 8dbd 62e3 2b3d caad e53d
00000010: a290 203d b08e 20ba 3127 ffbb 7e71 55bd
00000020: 58d0 e0bd ad6f b3bd 4b4a a43c 4a76 a63b
00000030: e877 aabc d8de c73d fd77 5b3d 80d5 8fbd
00000040: 8e7f e7bb 6639 c23d e620 5d3d c482 cfbd
00000050: b7ad 91bc a2fa 7e3d c863 ca3d 3c08 e6bd
00000060: 3900 a2bc 498f 803d 2aa4 d33c 738e 75bd
00000070: 7952 9cbc 54cf a23c 1f5d 7bbd 2dfc 6cbd
00000080: b400 253b
-0.013636367 -0.06931366 0.041964896 0.11214788 0.039200433 -0.0006124778 -0.0077866544 -0.052110188
-0.109772384 -0.08761535 0.020054957 0.005080019 -0.020809129 0.09759301 0.053581227 -0.07023144
-0.0070647663 0.09483604 0.053986453 -0.101323634 -0.017783029 0.06225074 0.09882313 -0.11232039
-0.019775497 0.062773295 0.025835115 -0.059950303 -0.019082295 0.019874252 -0.061368104 -0.05785768
0.002517742
