ResNet-PyTorch/ResNet/pnet.pth (torch, 688136 bytes, 10 tensors)

conv1.weight f4 [128, 1, 5]
000000 0b 6b e3 3c bc 2d 92 3e b4 a7 d6 3e 55 69 fd bd
       0.027761003 0.28550518 0.41924822 -0.12373606
000010 e5 5d 79 3e 58 8a bf 3e 12 fb 23 bd 21 a8 7d 3e
       0.24352224 0.37410235 -0.04003436 0.24771167
000020 05 2f bd bc fc b1 9a bd f8 35 9a be 03 1b 5d 3e
       -0.02309371 -0.07553479 -0.301193 0.21592335
000030 39 14 82 3e 04 f2 b2 3d 77 58 3f be 54 ad 24 3c
       0.25406054 0.08737567 -0.1868609 0.01005109
000040 0b 43 f4 3e bf f2 5f bd e0 40 18 3f 01 15 8f 3e
       0.477074 -0.05467486 0.5947399 0.27945712
000050 cb 84 b7 be 61 2e c0 be dd 8c d0 be 73 84 b9 be
       -0.358435 -0.37535384 -0.4073247 -0.36233863
000060 40 08 dc be 57 32 03 be ec e7 ce bd af 61 b5 be
       -0.42975044 -0.12812172 -0.10102829 -0.3542609
000070 a9 61 21 be 2b 13 8d 3e aa 01 c1 3e 51 51 19 3e
       -0.1575991 0.27553686 0.37696582 0.14972426
000080 47 9d 23 3d 48 0e 87 be 3d 74 ac bc 27 38 9a be
       0.039944913 -0.26378083 -0.02105152 -0.30120966
000090 e1 6c cd be 5b e0 87 3e b5 0a 95 3e 8b c1 8c 3e
       -0.4012213 0.26538357 0.2910973 0.27491412
0000a0 15 7f 88 be b3 04 cd 3c 23 fa 86 be 8c 47 e1 3e
       -0.26659456 0.025026655 -0.26362714 0.43999898
0000b0 1c fa 8d 3e ff 2d 94 3e c6 69 59 bd 73 c1 2e 3e
       0.2772988 0.28941342 -0.05307939 0.17065983
0000c0 7c 48 c8 be 27 39 c0 be e6 47 ac 3e 9a 4c c5 3e
       -0.391178 -0.37543604 0.33648604 0.38535005
0000d0 40 f3 b0 be 97 11 95 be e8 23 32 3e 8f 26 bf bd
       -0.34560585 -0.29114982 0.1739651 -0.09333526
0000e0 ec 3b c3 bc a7 4a f1 bd ec 51 d0 3e 65 8e 55 3e
       -0.023832284 -0.11781817 0.406875 0.208551
0000f0 0c 72 ff 3e a6 7b 86 3e 0a 41 7d be f1 39 bc bd
       0.49891698 0.2626621 -0.24731842 -0.09190739
000100 ca ff a7 bd ae 57 27 be 09 62 87 3e bf 7e 1f bd
       -0.08203085 -0.16342041 0.26441982 -0.038939234
000110 b6 da b8 be 9c df 97 3e d9 9c 03 3c 79 f4 11 be
       -0.36104363 0.29662788 0.008033001 -0.14253415
000120 e6 61 85 3e c8 fe cc 3d c7 34 24 be 7f d2 bb be
       0.26051253 0.10009533 -0.16035758 -0.36684033
000130 3a 73 b1 3e 9c 42 d5 bd 8d 86 30 be 81 55 dc be
       0.34658223 -0.10413095 -0.17238827 -0.43033984
000140 49 9e 0a 3e 41 b9 a9 be 24 09 92 be 95 dc 96 3d
       0.13536943 -0.3314915 -0.285226 0.073662914
000150 fb c0 d2 be 6f a5 e2 be 8c 8a 62 3d 15 3a 98 3e
       -0.41162857 -0.4426684 0.05530791 0.29731813
000160 d3 b7 d2 be f8 04 07 3d 28 e8 0f be 90 0b a6 be
       -0.41155872 0.032963723 -0.14053404 -0.32430696
000170 37 db 64 3e ec e8 bc bd eb cd 41 3e 9a 73 18 be
       0.22349249 -0.09224114 0.18926208 -0.14887848
000180 9a 29 81 bd d5 de b0 be df f1 73 be ea 5a c6 3e
       -0.06306763 -0.34545007 -0.23822735 0.38741237
000190 de a4 95 3e d2 3a 7a bd 8c b4 09 3e 86 a7 5d 3d
       0.29227346 -0.06109125 0.1344778 0.05411484
0001a0 f0 10 ce be 20 38 46 be 6f 15 de be 6f a1 c6 be
       -0.40247297 -0.19357347 -0.43375728 -0.3879504
0001b0 64 b9 21 3e 55 18 c5 3e 4a 48 f1 3e 57 16 18 be
       0.15793377 0.38495126 0.47125465 -0.14852272
0001c0 2e 4b 6f bd f1 8d d7 3e 53 42 10 3d ca 4d a1 3e
       -0.058421306 0.4210048 0.0352195 0.3150466
0001d0 c1 2f 3f be de 32 4c 3e 22 61 e8 3c d0 1f cd be
       -0.1867056 0.1994128 0.028366629 -0.40063334
0001e0 c2 eb bf be 22 13 3c 3e b9 4b 92 3c a7 05 b9 3d
       -0.37484556 0.18366674 0.017858373 0.09034281
0001f0 57 29 5b 3e 77 a5 1f 3e 9e 48 b3 3e 80 f9 80 bd
       0.21402489 0.15590464 0.3501634 -0.06297588
000200 c2 a5 8a be 16 5c c1 3d 66 d7 f0 be 21 4b 78 bc
       -0.27079588 0.09441392 -0.47039336 -0.015154631
000210 c9 ce f1 be 76 55 c6 3e 6e 98 e6 3c 6b 13 a4 3c
       -0.47228077 0.38737077 0.028148856 0.02002879
000220 9d 92 d0 be fe ff d0 3e d9 79 bc bd b0 b7 71 be
       -0.40736857 0.40820307 -0.09202928 -0.23605227
000230 75 53 be be 37 46 b0 3d 2d 32 81 be 5c 36 22 3e
       -0.37173048 0.086071424 -0.25233594 0.15841049
000240 e7 03 b2 3e 0a 03 69 3e e9 63 94 bd 19 93 e4 be
       0.34768602 0.22755066 -0.07245619 -0.44643477
000250 e5 c2 fe bd 36 2d c1 be 8f 79 7e 3b 8d 81 d1 3e
       -0.12439517 -0.37729806 0.0038829779 0.40919152
000260 1e 24 1a be 77 17 91 3e b4 7d a5 3c 60 ae 8c 3e
       -0.1505284 0.28338215 0.020201541 0.27476788
000270 6b 1b 36 bd 90 c7 8b be 1b ec d5 be 3c 3e 24 3e
       -0.04445974 -0.27300692 -0.41781697 0.16039366
000280 06 c6 65 3e e6 29 79 3e c6 08 f9 3e 5b 5b ce 3e
       0.22438821 0.24332389 0.48639506 0.40304074
000290 ce 33 31 3d da 1f 83 3a a5 d9 dc be 1f 23 8b 3e
       0.043262295 0.0010003999 -0.431348 0.27175233
0002a0 44 4c a2 3c 45 cc 90 3e 52 f8 39 be e7 6f b7 be
       0.019811757 0.28280845 -0.18161133 -0.35827562
0002b0 a2 1a 9e be 9a e0 a1 3d 47 6a 96 be d8 37 a6 bd
       -0.30879694 0.079041675 -0.29377958 -0.0811612
0002c0 35 5f 24 be 01 29 4e be 5a 7b 8c bd f0 38 f5 bd
       -0.16051944 -0.20132829 -0.06859465 -0.119737506
0002d0 3c 87 d9 be 70 80 dd be 6b f9 75 3e 8a d5 b2 3b
       -0.42485988 -0.43262053 0.24020927 0.0054575847
0002e0 02 3d 9e be 5b 29 cf 3d fa 6d d2 be 6e 7d 00 3f
       -0.3090592 0.1011531 -0.4109953 0.5019139
0002f0 93 23 04 3f be 5e 89 3e 88 8c b4 3e c3 4a 68 bc
       0.5161678 0.26830095 0.35263467 -0.014177981
000300 99 76 91 3e d6 ce 06 3c 21 e2 b0 be 0a ce 56 be
       0.28410795 0.0082280245 -0.34547523 -0.20977035
000310 83 3a 3e 3e bb fb 1c bd 42 d9 b5 3e bb 8f bc be
       0.18577008 -0.038326006 0.35517317 -0.36828408
000320 18 7e 1d bd e2 80 66 be d5 a1 55 3e e9 e7 6e be
       -0.03845033 -0.22510102 0.20862515 -0.23330654
000330 db 7f 79 be 0e 64 86 3c 24 6c 24 bd 01 3c 42 3d
       -0.24365179 0.016405132 -0.040142193 0.047420505
000340 e9 b0 af be 45 c3 99 be 37 44 06 3e 06 96 e5 3d
       -0.3431466 -0.3003179 0.1311196 0.11210255
000350 1d 75 57 3d 44 7d a6 3e 64 1f ee be 2d b8 a6 3e
       0.052601922 0.32517445 -0.46508324 0.3256239
000360 d3 73 be be 44 f6 ba be 84 39 c9 3d c1 6c c3 be
       -0.37197742 -0.3651601 0.09825423 -0.3816891
000370 ca b4 04 be 7f 3d 69 3e 41 d4 c6 bd 42 28 97 3e
       -0.1295959 0.22777365 -0.09708453 0.29522902
000380 27 7f 57 bd 0f 34 5b 3e 21 9a db bc 39 c0 17 3f
       -0.052611496 0.21406578 -0.026806893 0.59277683
000390 98 65 37 3e 8c 95 f8 3b 10 34 11 3e 06 c8 f2 3e
       0.17909849 0.0075861868 0.14180017 0.4741823
0003a0 ce 5a 02 3f bd 6d e7 3e 00 d2 e5 bd f2 b0 41 3e
       0.50919807 0.4520091 -0.11221695 0.18915156
0003b0 4d f5 41 be 4b 5e 29 be 30 27 bc 3e 59 3b 3b bd
       -0.18941231 -0.16539876 0.36748648 -0.045710895
0003c0 98 2f bc be 25 5a a5 3e 81 99 b4 be ea cb 78 3e
       -0.3675506 0.32295337 -0.35273364 0.24296537
0003d0 1c 3d 8f be ec ac f7 be e5 1f 29 3e a2 d1 27 bd
       -0.2797631 -0.48374116 0.16516073 -0.040971406
0003e0 3a 33 b0 3e 04 28 8b 3e 59 1a c2 3d b6 9d 18 3e
       0.34414083 0.27178967 0.09477682 0.14903912
0003f0 98 06 63 bd 95 29 e1 bc 77 9e 7b bd 6e 49 66 be
       -0.05542621 -0.027485648 -0.06143042 -0.22488949

conv1.bias f4 [128]
000000 6d c4 b6 be 05 53 c0 3e 7c 53 87 be 59 f4 2d bd
       -0.35696736 0.3756334 -0.2643088 -0.042469356
000010 3a 29 28 3d 99 30 91 be 45 85 96 3d c3 1d 92 bc
       0.04105494 -0.2835739 0.07349638 -0.017836457
000020 07 c1 2d be c2 7a 6a 3e f2 ab a3 be 65 f2 cd be
       -0.16968165 0.22898391 -0.3196712 -0.40223995
000030 c4 bc 20 bc 2c d2 1a be f5 12 bb be 50 44 40 3d
       -0.00981063 -0.15119237 -0.365379 0.046940148
000040 b2 9e df bd 6e 07 83 be 15 8d 18 be b3 f6 8d be
       -0.109189406 -0.25591606 -0.14897569 -0.2772728
000050 4c a3 cf be 73 7d cc 3c 57 25 7c 3e 12 c3 e6 bd
       -0.40554273 0.024962163 0.24623619 -0.112676755
000060 85 43 84 bd 6a 1a af be a9 be 88 3e 5b 58 0a bd
       -0.06458191 -0.3419984 0.26707962 -0.03377567
000070 3e 86 f8 3c fe e8 2a 3e b4 3c 6f be 7b e3 27 3e
       0.03033745 0.16690442 -0.23363 0.1639537
000080 ea d8 5e 3e d6 77 94 be 89 59 c7 be 34 d4 28 be
       0.21762434 -0.28997678 -0.38935497 -0.16487199
000090 07 86 a0 3e d7 6d a5 3e 04 33 c5 bd 47 14 e4 be
       0.31352255 0.32310364 -0.09628871 -0.4454672
0000a0 a9 b3 52 bd d1 8b e7 3d 58 ee 45 bd 5a cb de 3d
       -0.05144087 0.11305965 -0.048323005 0.1087863
0000b0 b6 eb 67 be 4d 16 74 3c 6a f6 bf 3d a8 0a a9 be
       -0.2264851 0.014897895 0.09373172 -0.33015943
0000c0 87 26 be 3e bd ac e7 bd a1 b8 19 be 1a 62 8e be
       0.3713877 -0.11312244 -0.15011837 -0.2780922
0000d0 81 58 c0 3e d5 36 c9 bd 97 91 df bd 5e 0a ad bd
       0.37567523 -0.098249115 -0.10916441 -0.08449243
0000e0 80 33 fb be f7 e5 2f 3e 47 b7 f1 bd 40 ec 9e 3e
       -0.4906273 0.17177568 -0.118025355 0.3103962
0000f0 d1 54 b9 3e fd 57 01 be 07 90 f3 bd bd 66 bb be
       0.36197522 -0.12631221 -0.118927054 -0.3660182
000100 75 8e 13 be cd 43 47 3e fa f2 a4 be 0f 84 a9 3e
       -0.14409812 0.19459458 -0.32216626 0.33108565
000110 6d e5 bb 3e a1 f9 87 3e d1 27 09 be f8 e5 4f 3e
       0.36698475 0.2655764 -0.13394095 0.2030257
000120 5e af 30 3e b7 ac c2 be 39 70 8a bd 7c c6 cf 3d
       0.17254397 -0.38022396 -0.06759686 0.1014528
000130 3c 16 63 3e 56 cd a4 be 9b 75 93 be 42 92 83 3e
       0.2217645 -0.3218791 -0.28800663 0.25697523
000140 e7 d5 2f 3e a7 aa e5 3e e5 65 18 3e 91 65 86 bd
       0.17171441 0.4485676 0.1488262 -0.06562341
000150 46 22 23 be fc d7 b9 3e 9b 2d df 3e c6 9b 9e be
       -0.15931043 0.36297596 0.43589482 -0.3097822
000160 c5 4d 08 3e 07 4c d3 3e a1 84 a8 3e ff e7 f0 3e
       0.13310917 0.41268942 0.32913688 0.47052
000170 23 4c b3 3e 53 e1 e2 be 5f 4d b2 3e 3c ce 42 3e
       0.35019025 -0.44312534 0.34824654 0.19023985
000180 df 86 95 be d2 72 d0 3e 4e 51 ec 3d 1b bb 99 3e
       -0.2920446 0.407126 0.11538945 0.30025563
000190 b0 aa a7 3d e6 b8 d6 3e 4c 67 2c 3d 18 6e 6e 3e
       0.08186853 0.4193794 0.0420907 0.23284185
0001a0 6a d5 85 3e 85 9f 1a be 20 7b 4d 3e 0f b0 9e be
       0.26139385 -0.15099914 0.200665 -0.30993697
0001b0 0c 50 90 3d 5b b1 9d be 47 de b9 3d 28 17 cf be
       0.07046518 -0.30799374 0.09075599 -0.40447354
0001c0 66 1c 66 be 67 5b 7a 3e ce 26 b8 be f3 5b 88 3e
       -0.2247177 0.2444893 -0.35967106 0.26632652
0001d0 97 03 9c be a8 74 61 3e 67 f7 dc bd a8 3e 93 bd
       -0.3047149 0.22017157 -0.10789376 -0.07189685
0001e0 52 c5 5f be c2 59 8d 3e 32 5b c9 3d 84 ce ce 3e
       -0.21852615 0.27607542 0.09831847 0.40391934
0001f0 53 a0 8a 3e c7 8a 91 3d 54 75 fe bd 18 3b 94 3e
       0.27075443 0.07106548 -0.12424722 0.28951335

batch_norm1.weight f4 [128]
000000 0f bf 90 3f 2b f4 45 3f 00 00 80 3f 7f 0d 3d 3f
       1.1308306 0.77325696 1.0 0.7384872
000010 00 00 80 3f 00 00 80 3f 3e 07 3a 3f 01 76 5f 3f
       1.0 1.0 0.726673 0.87289435
000020 9c a8 c2 3f 64 b9 89 3f 00 00 80 3f 00 00 80 3f
       1.5207705 1.0759702 1.0 1.0
000030 a9 93 3d 3f b7 5d 79 3f 00 00 80 3f 73 65 7e 3f
       0.74053437 0.9740862 1.0 0.9937355
000040 00 00 80 3f 00 00 80 3f 00 00 80 3f 00 00 80 3f
       1.0 1.0 1.0 1.0
000050 00 00 80 3f df cb c0 3f 33 c4 28 3f 00 00 80 3f
       1.0 1.5062217 0.65924376 1.0
000060 ed bc 40 3f 00 00 80 3f 0f e5 72 3f 00 00 80 3f
       0.7528828 1.0 0.94880766 1.0
000070 5e 60 b6 3f c2 d7 ad 3f de af 7d 3f 24 0a 84 3f
       1.4248159 1.3581469 0.9909648 1.0315595
000080 90 e4 41 3f 00 00 80 3f 00 00 80 3f 00 00 80 3f
       0.75739384 1.0 1.0 1.0
000090 13 72 9b 3f c0 23 41 3f c0 5f 84 3f 00 00 80 3f
       1.2144188 0.75445175 1.034172 1.0
0000a0 00 00 80 3f 89 87 ae 3f 50 9c 68 3f 7c eb b4 3f
       1.0 1.3635112 0.90863514 1.4134364
0000b0 49 a1 89 3f f3 09 32 3f 66 01 61 3f 00 00 80 3f
       1.0752345 0.6954643 0.8789276 1.0
0000c0 56 c5 57 3f 54 f5 8d 3f 00 00 80 3f 00 00 80 3f
       0.84285486 1.1090493 1.0 1.0
0000d0 48 98 95 3f 05 e6 59 3f 8f 73 86 3f ea 1f de 3f
       1.1687098 0.85116607 1.0504016 1.7353489
0000e0 f0 7f ae 3f a1 76 46 3f 59 34 91 3f e5 2b 33 3f
       1.3632793 0.77524763 1.13441 0.6998885
0000f0 ec a7 3c 3f 00 00 80 3f 00 00 80 3f 97 bf 6f 3f
       0.7369373 1.0 1.0 0.9365172
000100 e5 16 8a 3f 17 ed c0 3f 00 00 80 3f 85 be 4a 3f
       1.0788237 1.5072354 1.0 0.7919696
000110 ba c4 66 3f dc fb 3f 3f 00 00 80 3f 36 ba 4b 3f
       0.9014393 0.7499368 1.0 0.7958101
000120 2b 4c 92 3f 00 00 80 3f 00 00 80 3f d0 5e 98 3f
       1.1429495 1.0 1.0 1.1903934
000130 42 16 7c 3f 0c 41 81 3f 00 00 80 3f 8e 46 a0 3f
       0.9847146 1.0097976 1.0 1.2521532
000140 0c e9 9f 3f 5b 9c 56 3f cd 49 a6 3f 00 00 80 3f
       1.2492995 0.8383233 1.2991272 1.0
000150 5e ec bd 3f d5 de 30 3f 7a 93 37 3f 00 00 80 3f
       1.4837759 0.69090015 0.71709406 1.0
000160 d2 fe 35 3f f5 d8 36 3f 81 fd 3d 3f ae 89 43 3f
       0.7109195 0.714248 0.7421494 0.7638196
000170 70 36 71 3f 83 e7 b4 3f a7 1a 47 3f f0 40 3f 3f
       0.9422369 1.4133152 0.77775043 0.7470846
000180 00 00 80 3f 56 00 ac 3f 34 b1 5e 3f f8 6e 7f 3f
       1.0 1.3437603 0.8698914 0.997787
000190 6b 6f 4d 3f 5c 12 33 3f 8a 37 ae 3f 09 1a 58 3f
       0.80248135 0.6994989 1.3610699 0.84414726
0001a0 58 d8 47 3f 48 bb 98 3f 99 51 98 3f 00 00 80 3f
       0.7806449 1.1932154 1.1899902 1.0
0001b0 3c ab 59 3f 00 00 80 3f 60 79 45 3f d6 36 95 3f
       0.8502691 1.0 0.7713833 1.165736
0001c0 00 00 80 3f 7a 4a 9c 3f 00 00 80 3f b7 b6 9f 3f
       1.0 1.2210228 1.0 1.2477635
0001d0 00 00 80 3f 9e 59 93 3f 00 00 80 3f 00 00 80 3f
       1.0 1.1511724 1.0 1.0
0001e0 00 00 80 3f 14 a5 3b 3f f4 35 4c 3f 39 b1 87 3f
       1.0 0.73298764 0.79769826 1.0600959
0001f0 45 f6 7c 3f dd 87 78 3f 00 00 80 3f 14 e9 22 3f
       0.9881328 0.9708231 1.0 0.636369

batch_norm1.bias f4 [128]
000000 22 9d ee bc f5 74 49 be a1 c1 72 3b b2 57 0e be
       -0.029127661 -0.19673522 0.0037041681 -0.1390064
000010 c2 3f d4 ba f0 e0 9f bb 6f 67 25 be e6 cb 2a be
       -0.0016193318 -0.0048791096 -0.16152738 -0.16679344
000020 90 7d ab 3c 10 d3 29 bd 5d c4 f5 bb ad 00 c6 bb
       0.020933896 -0.04146105 -0.007500215 -0.006042561
000030 03 fe c5 bd f4 ec 84 bb 89 fa d1 3b 15 ce 47 b9
       -0.096675895 -0.0040565673 0.00640804 -0.0001905489
000040 65 66 2e 3b 29 52 76 3b c3 87 92 39 67 47 24 3a
       0.0026611325 0.0037585592 0.0002794844 0.00062667433
000050 27 1f 85 bb f5 03 a4 3d af 08 22 be 89 09 85 3b
       -0.0040625515 0.08008567 -0.15823625 0.0040599746
000060 3a f4 59 be 77 6e b9 3a 58 a3 94 bd 8b df a5 39
       -0.21284571 0.0014147301 -0.07257718 0.00031637805
000070 c2 f3 0f be d8 b2 85 3d 08 a8 0b bd 4a fb 86 bd
       -0.1405783 0.06528252 -0.034095794 -0.06590898
000080 39 77 23 be aa a5 dd bb 0f 55 91 3b 62 c1 9b bb
       -0.15963449 -0.0067641335 0.0044351886 -0.0047532776
000090 e1 dc e3 3c 4a ef 7e be b9 c7 56 bd 94 c1 e1 3b
       0.027815284 -0.24895969 -0.052436564 0.0068895314
0000a0 9b b7 77 3b 8a e1 6b 3d 00 92 b7 bd 4e fd 89 3d
       0.0037798646 0.057588138 -0.08963394 0.06737767
0000b0 78 2a 69 bb 60 b5 2b be 02 a4 07 be 2d 41 85 bb
       -0.0035578292 -0.16768408 -0.13246158 -0.0040666074
0000c0 37 db e7 bd bc 4a e4 bd 0d 6e 90 bb f4 d5 81 bb
       -0.11321109 -0.11147067 -0.0044076503 -0.003962273
0000d0 4f a2 f5 3b bc ec f6 bb e2 88 a2 bb 69 ec a0 bd
       0.0074961553 -0.007535545 -0.0049601654 -0.07857592
0000e0 10 a9 5e 3d 52 88 8e be 85 69 1f 3c 78 65 89 be
       0.05436045 -0.2783838 0.009729748 -0.26835227
0000f0 e4 dc 77 be 75 16 cd 39 2b f0 37 3b f1 a6 4b bd
       -0.24205357 0.0003911738 0.0028066735 -0.049719755
000100 67 f9 8c bd 68 92 3e 3d b5 e4 7d bb f2 e8 8c be
       -0.06883507 0.046526343 -0.0038741056 -0.27521473
000110 37 bd 66 be 68 2b 3d be fe e4 da 3b 49 76 19 be
       -0.22533117 -0.1847359 0.00668013 -0.14986528
000120 34 a0 e7 3c df 89 e8 3a d0 87 81 3a 0a 5a a1 bc
       0.028274633 0.0017741284 0.0009882394 -0.019696254
000130 b0 27 79 bd d0 bc 11 bd 91 e3 91 bb 0b 9d 6d 3d
       -0.060828865 -0.035580456 -0.004452177 0.058011096
000140 13 07 a1 3c ad ae af bd e0 4d eb 3c 8b 83 06 bb
       0.019656694 -0.08578239 0.028723657 -0.0020525183
000150 9c 39 3d bd fc cc 4d be 36 69 88 be c1 c0 7a 3b
       -0.04619752 -0.20097727 -0.2664277 0.0038261863
000160 92 5b 45 be 24 5b 3a be 51 58 1a be d6 16 5e be
       -0.19273213 -0.1819883 -0.15072753 -0.21688399
000170 8a e5 67 bd c7 ee 54 3d 8f be 75 be 66 54 43 be
       -0.05661539 0.05198553 -0.23998474 -0.19075164
000180 96 7a b6 ba 2b 25 69 3d b3 47 24 be 1f 09 87 bd
       -0.0013922032 0.05692021 -0.16042976 -0.065935366
000190 0f 5a 30 be 94 22 6b be ee ac 75 3d dc a7 22 be
       -0.17221855 -0.2296241 0.05997937 -0.15884346
0001a0 ca d5 0f be 84 4a e1 bb 73 f9 a7 bd bc f0 b6 3b
       -0.14046398 -0.006875338 -0.082018755 0.005582897
0001b0 ba c0 82 bd 3b c1 3f 3a 93 00 1c be 71 15 d0 3b
       -0.06384416 0.00073148654 -0.15234594 0.0063502123
0001c0 a6 72 95 3b a7 b2 a6 bc e1 45 28 bb 5a 8d 9a 3d
       0.0045607863 -0.02034886 -0.0025676417 0.07546492
0001d0 d7 3f 85 bb 66 3f 06 bd 03 cc b7 bb 51 52 2f 3b
       -0.004066448 -0.032775305 -0.005609037 0.0026751945
0001e0 75 52 93 bb 13 18 92 be 7b b5 18 be cb c4 14 bd
       -0.0044959136 -0.28533992 -0.1491298 -0.03632049
0001f0 88 d5 1a bd 6b ec 56 bd 1a 7c ec 3b 7d 14 60 be
       -0.037801296 -0.05247156 0.0072169425 -0.21882816

batch_norm1.running_mean f4 [128]
000000 cb 13 90 3d be 55 19 3f 00 00 00 00 66 86 07 3f
       0.07035025 0.5989646 0.0 0.5293945
000010 00 00 00 00 00 00 00 00 3d e2 3c 3e 54 f1 73 3d
       0.0 0.0 0.18445678 0.05955632
000020 30 63 ec 3a 86 0e 81 3d 00 00 00 00 00 00 00 00
       0.0018034931 0.06301598 0.0 0.0
000030 e3 5c fd 3d 04 00 00 00 00 00 00 00 04 00 00 00
       0.12371232 6e-45 0.0 6e-45
000040 00 00 00 00 00 00 00 00 00 00 00 00 00 00 00 00
       0.0 0.0 0.0 0.0
000050 00 00 00 00 a1 3e be 39 a7 2e 10 3f 00 00 00 00
       0.0 0.00036286286 0.56321186 0.0
000060 cc b3 8a 3c 00 00 00 00 fa d5 8f 3d 00 00 00 00
       0.016931437 0.0 0.07023235 0.0
000070 d9 e8 0b 3d d5 dc 19 3b 1a bd 48 3d 07 5b 21 3d
       0.034157608 0.0023477573 0.049008466 0.03939345
000080 66 ab 54 3f 00 00 00 00 00 00 00 00 00 00 00 00
       0.83074033 0.0 0.0 0.0
000090 a6 85 01 3d a8 22 45 3f dc 59 01 3d 00 00 00 00
       0.031621598 0.77006006 0.031579837 0.0
0000a0 00 00 00 00 a7 88 16 3a 2d 6b 9d 3c ed e9 21 39
       0.0 0.00057424087 0.019216144 0.000154413
0000b0 04 00 00 00 88 15 d6 3e 6b 4f 34 3f 00 00 00 00
       6e-45 0.41813302 0.7043368 0.0
0000c0 00 cf 3a 3e d0 a4 10 3d 00 00 00 00 00 00 00 00
       0.18243027 0.035313427 0.0 0.0
0000d0 0b 9f 8f 3d 04 00 00 00 04 00 00 00 7c 5a 3a 3c
       0.07012757 6e-45 6e-45 0.011374112
0000e0 41 f2 bf 3c b8 74 d2 3d eb 0c 8b 3c cb 97 cc 3e
       0.023430945 0.102761686 0.016973933 0.3995956
0000f0 19 59 b6 3e 00 00 00 00 00 00 00 00 a6 9c a8 3d
       0.3561485 0.0 0.0 0.08233003
000100 58 59 f8 3c bc a9 d8 3a 00 00 00 00 df 88 98 3e
       0.03031604 0.0016530077 0.0 0.29791924
000110 85 99 af 3e 30 43 11 3f 00 00 00 00 62 72 d0 3e
       0.34296814 0.56743145 0.0 0.40712267
000120 de 93 80 3c 00 00 00 00 00 00 00 00 c9 d1 55 3d
       0.015695509 0.0 0.0 0.05220202
000130 a7 30 7e 3d ea 9f 56 3d 00 00 00 00 26 6f 0b 3c
       0.062058117 0.0523986 0.0 0.008510387
000140 1c 44 22 3d 3e 03 55 3e be 88 60 3b 00 00 00 00
       0.039615735 0.20802018 0.0034261192 0.0
000150 a8 74 05 38 ef b7 21 3f b1 f0 23 3f 00 00 00 00
       3.1818316e-05 0.63171285 0.6403914 0.0
000160 a8 51 0e 3f 87 90 47 3f 5d 2c 5c 3f 24 1a 28 3f
       0.5559335 0.77954906 0.86005193 0.6566489
000170 60 81 f7 3d 4d 3d a9 3b 88 52 a0 3e 73 33 ee 3e
       0.12085223 0.0051647783 0.31312966 0.46523628
000180 00 00 00 00 cd 54 9a 3c 03 6e 09 3f 96 39 b1 3d
       0.0 0.018839264 0.5368349 0.08653562
000190 1c 6b b1 3e d9 3a bc 3e 7e 2f f3 3c 38 ef db 3e
       0.3465203 0.36763647 0.029685732 0.42955947
0001a0 4b 41 23 3e 04 00 00 00 b3 dc 9b 3d 00 00 00 00
       0.15942876 6e-45 0.076104544 0.0
0001b0 55 7d 2e 39 00 00 00 00 b7 3a f3 3e 04 00 00 00
       0.00016640623 0.0 0.47505733 6e-45
0001c0 00 00 00 00 97 48 18 3d 00 00 00 00 ac 32 0b 3c
       0.0 0.037178602 0.0 0.008495968
0001d0 00 00 00 00 83 7e 1b 3d 00 00 00 00 00 00 00 00
       0.0 0.037962448 0.0 0.0
0001e0 00 00 00 00 81 17 96 3e 73 1d e6 3e f5 ca b6 3d
       0.0 0.29314807 0.44944343 0.0892543
0001f0 99 e4 66 3d 0c c0 09 3d 00 00 00 00 20 2b 2e 3f
       0.05637035 0.033630416 0.0 0.68034554

batch_norm1.running_var f4 [128]
000000 64 27 73 3c d4 7e 12 3e 04 00 00 00 48 6d 40 3e
       0.014840934 0.14306194 6e-45 0.18791687
000010 04 00 00 00 04 00 00 00 ae 2b 98 3c 21 18 86 3b
       6e-45 6e-45 0.018575516 0.004092232
000020 7a 77 87 38 57 92 d3 3b 04 00 00 00 04 00 00 00
       6.459556e-05 0.006456654 6e-45 6e-45
000030 d9 c3 4f 3c 04 00 00 00 04 00 00 00 04 00 00 00
       0.012680971 6e-45 6e-45 6e-45
000040 04 00 00 00 04 00 00 00 04 00 00 00 04 00 00 00
       6e-45 6e-45 6e-45 6e-45
000050 04 00 00 00 77 f5 b9 37 95 e8 1a 3e 04 00 00 00
       6e-45 2.2168022e-05 0.15127786 6e-45
000060 60 31 21 3a 04 00 00 00 be 10 06 3c 04 00 00 00
       0.000614902 6e-45 0.008182703 6e-45
000070 36 fd e2 3a 0b 8e 08 39 5e bc e5 3b 55 33 33 3b
       0.0017317894 0.00013022886 0.0070109805 0.0027343829
000080 09 9d be 3e 04 00 00 00 04 00 00 00 04 00 00 00
       0.37229183 6e-45 6e-45 6e-45
000090 82 f1 81 3b 6e dd 92 3e 1c ed 31 3b 04 00 00 00
       0.0039655576 0.28684562 0.0027149385 6e-45
0000a0 04 00 00 00 aa 2e 88 37 d5 31 79 3a 3c e1 73 36
       6e-45 1.6234193e-05 0.0009506022 3.6340925e-06
0000b0 04 00 00 00 d7 c5 f9 3d ff 4b a2 3e 04 00 00 00
       6e-45 0.12195938 0.31698605 6e-45
0000c0 61 31 b6 3c 5d 6c 23 3b 04 00 00 00 04 00 00 00
       0.022240343 0.0024936416 6e-45 6e-45
0000d0 bd 10 32 3c 04 00 00 00 04 00 00 00 00 12 12 3a
       0.0108682485 6e-45 6e-45 0.000557214
0000e0 32 9d 74 3b bb 4e 02 3c 43 03 96 3a df 26 87 3d
       0.003732514 0.007953341 0.0011445064 0.06599211
0000f0 e8 0e 72 3d 04 00 00 00 04 00 00 00 55 7e 97 3c
       0.059096247 6e-45 6e-45 0.018492857
000100 54 85 15 3b 6a 47 b7 38 04 00 00 00 74 8a 2e 3d
       0.0022815065 8.739422e-05 6e-45 0.042612508
000110 89 64 5c 3d b8 60 29 3e 04 00 00 00 ed 4f ac 3d
       0.053806815 0.16540802 6e-45 0.08413682
000120 c2 ba 97 3a 04 00 00 00 04 00 00 00 4c d8 62 3b
       0.0011576044 6e-45 6e-45 0.0034613786
000130 f5 ad b5 3b d3 a4 1f 3c 04 00 00 00 83 87 46 3a
       0.005544419 0.009743887 6e-45 0.00075732934
000140 28 22 66 3b d3 9e 00 3d 4c e4 25 39 04 00 00 00
       0.0035115574 0.031401467 0.00015820673 6e-45
000150 f4 7c 9e 35 fc af 32 3e 78 cc 3d 3e 04 00 00 00
       1.1808283e-06 0.17449945 0.1853503 6e-45
000160 ae 9d 28 3e f8 0b 8c 3e f6 7e ba 3e a4 e2 47 3e
       0.164664 0.2735288 0.36424989 0.1952005
000170 92 9f 84 3c 7d 8b e7 39 7e bd 2d 3d 65 97 d6 3d
       0.01618937 0.0004416368 0.042417042 0.10478095
000180 04 00 00 00 a9 c9 2c 3b be 02 29 3e 87 54 26 3c
       6e-45 0.0026365316 0.16504952 0.010151989
000190 33 52 85 3d 09 2a 83 3d 53 80 d9 3a 44 f7 c6 3d
       0.06509819 0.06404502 0.001659403 0.09715131
0001a0 7a 55 5a 3c 04 00 00 00 73 cc dc 3b 04 00 00 00
       0.013326043 6e-45 0.0067382394 6e-45
0001b0 11 07 29 36 04 00 00 00 7b df 0c 3e 04 00 00 00
       2.5187076e-06 6e-45 0.13757126 6e-45
0001c0 04 00 00 00 be 07 89 3b 04 00 00 00 bb 20 3a 3a
       6e-45 0.004181831 6e-45 0.0007100214
0001d0 04 00 00 00 f6 58 6f 3b 04 00 00 00 04 00 00 00
       6e-45 0.003652153 6e-45 6e-45
0001e0 04 00 00 00 e7 a7 19 3d df 98 de 3d 09 c5 76 3c
       6e-45 0.03751364 0.108690016 0.015061625
0001f0 c1 2f d0 3b a5 45 a4 3a 04 00 00 00 8b 54 69 3e
       0.006353349 0.0012532963 6e-45 0.22786157

dense1.weight f4 [100, 1664]
000000 22 92 15 be fa ab 22 3e ac 0c 49 3e 4d 4f 5f 3e
       -0.14606526 0.15885916 0.1963374 0.21807595
000010 84 81 fc 3d 96 65 a9 3d b4 e3 98 3c ed 29 6e bd
       0.12329391 0.08271329 0.018663265 -0.058145452
000020 41 9f d7 bd 06 cc 53 bd 2e f3 06 3d be bb a9 bd
       -0.10528422 -0.051708244 0.032946758 -0.08287762
000030 f3 0b b2 bd ed b0 32 3d 75 1f 55 bd ec 4a 9a 3d
       -0.086936854 0.04362576 -0.052031953 0.075338215
000040 54 5c d8 3c 4d 1a 5e 3d 1b bd 63 3d 23 b5 b6 bc
       0.026411213 0.0542243 0.055600267 -0.02230317
000050 cc 59 5e 3d 01 24 86 bd 30 88 61 bd 31 16 46 bd
       0.054284856 -0.06549836 -0.05506152 -0.048361007
000060 c9 13 5d 3d 8b a1 95 3d 64 8e 2f bd fd 91 18 bc
       0.053973947 0.073062025 -0.042860404 -0.00931215
000070 0e fe 8d bc 65 20 fa 38 8d b1 03 bd 7d 5d e2 bb
       -0.017333057 0.00011926963 -0.032151747 -0.0069081173
000080 9c 24 5c ba 06 12 2e bc 3a 7b c7 bc 7c 11 32 bc
       -0.0008397789 -0.010624414 -0.024350751 -0.010868426
000090 46 73 6d bc 66 74 47 39 fa b1 c9 bc 54 66 98 3d
       -0.014492815 0.0001902148 -0.024620999 0.074413925
0000a0 f8 ae 10 3e da a0 7e bd 81 58 6b 3c 90 47 4a 3c
       0.14129245 -0.06216512 0.014364363 0.012346163
0000b0 0e 59 80 bc 3f 71 5e bd 5a 5e 07 bd 76 86 d3 bb
       -0.015667465 -0.05430722 -0.033048965 -0.006455238
0000c0 80 7f 64 bd cf 82 21 bd 34 3b f6 3c ee d9 3d bd
       -0.055785656 -0.03943139 0.030057527 -0.046350412
0000d0 4a f1 f5 bc 12 e0 3a bc cb 0c 63 3c 6d 86 58 bc
       -0.030022282 -0.011405962 0.013858031 -0.013215643
0000e0 44 29 90 ba c6 df 8a 3c e3 3e 21 3c dd 49 05 3b
       -0.0010998626 0.016952407 0.0098416535 0.0020338215
0000f0 79 64 ce bc 29 3d ae bb ba 50 3e bc 64 29 f9 bc
       -0.025194393 -0.0053173495 -0.011615926 -0.030415244
000100 ac 9a dc bc 6e 3f 7b bc a2 f2 f7 3c 1b d9 70 3c
       -0.026929222 -0.015334947 0.030267064 0.0147001995
000110 d8 d5 8a 3b 33 9e a4 3c 1e 29 46 bc e2 8c ab 3a
       0.004236918 0.020094967 -0.012094764 0.0013088251
000120 7a c8 87 ba c7 2e 25 bc 80 b9 a2 3b a6 47 a9 3c
       -0.0010359429 -0.010081953 0.004965961 0.020664047
000130 99 4c c0 3c 7c 02 01 bc 5a cf f5 bc 53 79 52 bd
       0.023474025 -0.0078741275 -0.0300061 -0.051385235
000140 5d 0d 69 bd fb 4b 93 ba 7e f9 25 3d c9 e0 29 3d
       -0.05689751 -0.0011237854 0.040521137 0.041474137
000150 51 a8 af bd 1b 2b 96 bd d6 8c c6 3b 5b 7a 02 bd
       -0.08577026 -0.073324405 0.0060592694 -0.03185497
000160 de d6 fd bc f4 8e 1c 3d c1 7a 29 3d 8e 3d 6a 3d
       -0.030986246 0.03822227 0.041376833 0.05718761
000170 82 e7 99 3d 40 bb e4 bc 0c 8d 7e bb 60 ae ad ba
       0.0751486 -0.027921319 -0.0038841395 -0.001325082
000180 e8 81 11 bd 15 bb ed 3c 62 b2 ba bd 93 25 b5 bd
       -0.03552428 0.029019872 -0.09116055 -0.08845057
000190 70 3e 83 bc 52 34 be b9 f4 d9 68 bb 52 7d 45 3c
       -0.016020983 -0.00036278606 -0.00355303 0.0120538045
0001a0 61 fe 74 3e 7f 49 64 3e 41 88 64 bd 1d c8 14 be
       0.23925163 0.22293662 -0.055794004 -0.14529462
0001b0 86 59 25 be 8b d8 67 3c 83 b9 49 3b 4d 8f 16 bc
       -0.16147432 0.014150749 0.003078074 -0.009189439
0001c0 3e 26 b7 bd a5 ec 1e bd c1 2e 0e bd 72 b2 9f bd
       -0.08942841 -0.0387999 -0.034712557 -0.077977076
0001d0 66 88 0a be df 82 56 be 9d 1a 3e be 42 e8 51 bb
       -0.13528594 -0.20948361 -0.1856484 -0.0032029306
0001e0 ad c2 03 3d f3 18 1b bd 34 90 29 3c fe bf 00 3d
       0.03216808 -0.03786559 0.010349322 0.031433098
0001f0 e3 8f c3 3c b3 bf d4 3b a3 7b 23 ba eb 2a a8 3d
       0.023872321 0.006492579 -0.000623638 0.08211311
000200 09 e7 b8 bb 9a d3 68 3a 6f 70 74 3c 3d 54 a3 3c
       -0.005642776 0.0008881629 0.014919384 0.019937629
000210 be 8c 67 3a af a7 3e 3c 23 ba db bc 92 a3 19 3b
       0.0008832923 0.011636659 -0.026822155 0.0023443443
000220 50 22 c4 bc b9 8a d7 bb 8c 78 66 bc c0 19 cc bc
       -0.023942143 -0.0065778163 -0.014066827 -0.024914622
000230 88 b9 47 3c e2 65 80 bc 60 93 15 bc 82 a9 84 bd
       0.01219023 -0.015673582 -0.009129375 -0.064776435
000240 3f 48 e3 bc 46 86 05 bd e2 c6 3a bd 23 0f 4e bd
       -0.02774441 -0.032598756 -0.045599826 -0.050307404
000250 2f c5 cc bc 27 8f 43 bd 63 3e 04 bd fe d5 82 bd
       -0.024996368 -0.047743943 -0.03228606 -0.06388472
000260 47 a6 4a bd bd b4 28 bd 96 aa b4 bc 2d 6d 10 bd
       -0.04947498 -0.04118799 -0.022053998 -0.03526037
000270 fd bd 36 bc 01 b8 20 3d 23 82 ae bc 8f b3 0d 3d
       -0.011153695 0.03923798 -0.021302288 0.03459507
000280 19 cd 1e bd a1 00 b6 bc cc be eb bc 68 df 56 bc
       -0.038769815 -0.022217097 -0.028777502 -0.013114788
000290 28 a3 5b ba a3 b1 ae 3c 51 8f a2 bd 23 e4 d0 bc
       -0.0008378499 0.021324938 -0.07937492 -0.025499409
0002a0 5b fd b4 bc 36 a9 72 3d ff 88 8a 3d 25 6c 5b 3d
       -0.022093466 0.059243403 0.06764411 0.05356993
0002b0 52 f6 b8 3d fe d4 af 3c 82 70 1d 3c c0 4a 57 bc
       0.09031357 0.021463867 0.0096093435 -0.01314038
0002c0 cc a1 c0 bc a0 04 f3 bc 21 85 c5 3c 28 65 c7 3b
       -0.02351465 -0.029665291 0.024111332 0.006085057
0002d0 a3 da c5 3c 3c 93 60 3b 1a f7 11 bc af a9 7e bc
       0.024152106 0.0034267446 -0.008909011 -0.015543385
0002e0 40 32 2c bc ce 18 af bb e5 82 1a bd 92 34 99 bb
       -0.010510027 -0.005343533 -0.037722487 -0.0046754563
0002f0 9b 47 eb bc c6 69 e0 bc 56 65 86 bc ed d6 11 bc
       -0.028720668 -0.027394187 -0.016405743 -0.00890134
000300 93 08 2f bc fa 96 ff bc 47 d0 3a 3a ec 93 ad 3c
       -0.010683197 -0.03119992 0.00071263727 0.021188699
000310 25 41 4c 3c e6 85 86 bc 87 75 0b bc c6 7e c7 ba
       0.012466704 -0.01642127 -0.008511907 -0.0015220277
000320 c2 35 2f bc c3 11 b1 bc 68 9e 60 bc 50 f0 aa 3c
       -0.010693969 -0.021614915 -0.013709642 0.020866543
000330 3c 12 26 bc 5b 01 89 ba 6c 5d b2 ba 80 39 83 bc
       -0.010136183 -0.0010452674 -0.0013608164 -0.01601863
000340 07 87 f3 bb dd 2c f2 3c 01 40 82 bb 22 e9 a2 3c
       -0.007431868 0.029562408 -0.003974915 0.019886557
000350 d7 5e 3f bc 25 4b 28 3c 44 72 ca 3c ea ba 46 bc
       -0.011680326 0.010271822 0.02471269 -0.012129525
000360 31 60 f1 3c 97 78 52 3c 06 29 45 3c 8c 6b 9f 3c
       0.029464813 0.012846134 0.0120337065 0.019460462
000370 91 c5 92 bb 8c 66 13 3d 38 5d 79 ba 18 35 07 3d
       -0.004479118 0.03598647 -0.0009512487 0.03300962
000380 35 a1 11 3d e0 5d ee 3b e8 f4 c6 3c f9 25 59 bb
       0.03555413 0.0072743744 0.024286702 -0.0033134206
000390 79 62 70 3b dc d9 f9 3c 0f 78 bb ba 58 8e ad 3c
       0.0036679788 0.030499391 -0.0014302748 0.021186039
0003a0 95 9e 15 3d 31 57 20 3d 17 ca 4a ba 21 3b 92 bb
       0.03652819 0.039145652 -0.0007735802 -0.004462615
0003b0 ae 88 13 3b d0 bb e5 3c fb da 0f 3d b0 e8 83 3c
       0.0022511887 0.028043658 0.035120945 0.016102165
0003c0 c4 51 93 3a ad 1f 75 3c 02 1d 47 3a 3d 19 ef ba
       0.0011239578 0.014961165 0.000759557 -0.0018241775
0003d0 d8 fd d8 3c 76 fe 35 bb 4c 62 11 3d b3 c2 3e 3c
       0.02648823 -0.0027770079 0.035494134 0.0116431
0003e0 14 b4 d1 3b 7f cb 3d 3b a3 64 80 bb b3 96 f3 3c
       0.006399641 0.0028960404 -0.003918247 0.029734945
0003f0 74 a3 19 3d 7c c7 09 3d 93 8b 5e 3c 1b 9d 10 3b
       0.037509397 0.03363751 0.013583082 0.0022066298

dense1.bias f4 [100]
000000 36 bc 26 3d d6 9c 81 bd aa 4b 7c bd 1e de f0 3c
       0.040706836 -0.06328742 -0.061595596 0.029402789
000010 8a fb 10 bd 92 77 49 bb 25 cb d5 3d 34 ff a6 3c
       -0.035396136 -0.0030741435 0.10439137 0.020385362
000020 4f f7 9a bd 92 d9 69 3d 65 e8 6a bd ab 9b bd bd
       -0.075667016 0.057092257 -0.057350535 -0.09258207
000030 ec 02 51 bd 52 50 8d bb 3d ec 82 3d 76 30 fd 3b
       -0.051028177 -0.0043125534 0.06392715 0.0077267243
000040 07 ef 96 bc 37 08 0c bd eb 96 04 bd 3d 3b 22 bc
       -0.018424524 -0.03418752 -0.03237049 -0.009901819
000050 1b 3e b4 bc ce c4 80 3c c2 95 44 bc 11 b9 a7 bc
       -0.02200227 0.015718844 -0.011998596 -0.020473989
000060 93 52 ac 3c e7 8e 7e bd 9e b0 ad 3d 09 89 1d bc
       0.021035468 -0.062148 0.08480953 -0.009615191
000070 c4 6c 27 bd c5 f4 6f 3d db 39 87 3c f1 4f 97 bd
       -0.04087521 0.05858304 0.01650708 -0.073882945
000080 6f 61 01 bd 2d 28 4c bd 47 63 37 bc 11 b3 ec bc
       -0.03158706 -0.049843002 -0.011193103 -0.02889398
000090 3e 6b 62 bd b5 48 62 bd 63 c0 b8 bc aa 86 16 3d
       -0.055278055 -0.05524512 -0.022552675 0.03674952
0000a0 5e 37 9b 3c 87 f0 74 bd 17 b1 1e bd 42 1f a9 bd
       0.0189473 -0.059799697 -0.038743105 -0.08257915
0000b0 23 04 8d 3c 6b 4b 25 bd e5 21 76 3c 6a 48 63 3d
       0.017213887 -0.040355127 0.0150227295 0.05548898
0000c0 37 a2 98 bd 74 f2 d8 bd 9c ec d4 bc 68 72 1d bd
       -0.07452815 -0.10593119 -0.02599173 -0.038439184
0000d0 28 53 41 3d 12 78 b1 3b 4a 10 78 3d 4b a9 19 bd
       0.047198445 0.005415925 0.06056241 -0.037514966
0000e0 a9 0b bd bd 44 ae 08 bd 12 67 6f bc 19 c3 f3 3c
       -0.092307396 -0.033369318 -0.014611976 0.029756116
0000f0 5c a3 51 bd d5 b6 9e 3d 16 1f 55 3c 84 c5 15 bd
       -0.051181182 0.07749716 0.0130079 -0.03656532
000100 13 64 03 bc c5 13 0e 3c 06 d3 10 bd aa 74 4e 3d
       -0.008019465 0.008671706 -0.035357498 0.05040423
000110 e1 81 3f bd c5 8a 87 3b dd 80 84 bc b5 12 81 bd
       -0.04675472 0.0041364157 -0.016174728 -0.06302396
000120 89 73 09 3b b9 c7 d0 bb 82 54 80 3d a9 49 d4 3b
       0.0020973405 -0.006371465 0.062661186 0.0064785075
000130 9d cd 88 bb ae 67 9b bd d7 14 10 3c 7b d8 96 3d
       -0.0041749016 -0.07588135 0.008794031 0.07365509
000140 e3 a8 2b bd 80 a1 e5 bc d4 16 ac 3b 10 cb b4 bc
       -0.04190911 -0.02803111 0.0052517448 -0.022069484
000150 34 f0 2a bd 43 22 70 3a 2a 14 16 bd 45 3e e2 bc
       -0.04173298 0.0009160379 -0.036640324 -0.027617583
000160 c9 85 99 3d 4d 5a ec bc 2d d0 97 3a ea a9 73 3b
       0.074962206 -0.028851653 0.0011582427 0.0037180134
000170 a9 f3 0a 3b e7 3f 52 bd e6 ca 96 bc da 4c e8 bc
       0.0021202362 -0.051330473 -0.018407296 -0.028356958
000180 bd 19 ec bc b1 44 04 bd a7 7d 0f bd a3 23 8b bc
       -0.028820867 -0.03229207 -0.03503194 -0.016984766

dense2.weight f4 [33, 100]
000000 b2 aa 6e 3a d1 76 1e 3d 6c ed 3c 3d 41 31 92 be
       0.0009104415 0.03868753 0.04612486 -0.28553203
000010 66 79 cc bd 3b 0a c9 3d 49 02 40 be e0 42 be 3d
       -0.099840924 0.098164044 -0.18750872 0.09290099
000020 12 83 02 be ca 36 87 3c 0f ea a2 bc 53 e7 22 be
       -0.12745312 0.016505618 -0.019886998 -0.15908556
000030 3a 2e 64 bb 4c a7 cd bd 23 54 d6 3c 3d 4d e9 bd
       -0.0034817592 -0.10041675 0.026163166 -0.11391685
000040 00 f1 8f b8 32 ec 12 3e a5 4f 82 bd 40 52 96 bd
       -6.863661e-05 0.14347914 -0.06362847 -0.07339907
000050 9a e1 db bd ec 06 1a be 05 df 79 bd 68 b3 33 3e
       -0.107363895 -0.15041703 -0.061003704 0.17548907
000060 28 4e f2 bd e1 4b 8d 3d 67 21 76 be 6d b3 28 be
       -0.11831313 0.068992384 -0.2403618 -0.16474696
000070 4c 48 1a be ad 03 9e 3c 30 6b 43 bd bc a3 28 3c
       -0.15066642 0.019288862 -0.047709644 0.010292944
000080 4e f3 e1 3d 6b af 10 3e 04 0e 5d be a9 48 61 be
       0.11032735 0.14129417 -0.21587378 -0.22000374
000090 65 6d 05 3e ab 6d de bd 64 e2 5f 3d e1 59 58 be
       0.13030012 -0.10860761 0.054659262 -0.21128036
0000a0 db 00 ae 3d db 52 97 3d 94 a1 05 bd b9 fc 6b 3b
       0.08496257 0.0738885 -0.032624796 0.0036008789
0000b0 ec 21 79 be 36 ce 55 be 35 68 68 be dc 7e b4 bd
       -0.24329346 -0.20879444 -0.22696002 -0.08813259
0000c0 0b 2a 6c bd 34 38 c6 3c 52 de 10 3e 6b a3 c4 bd
       -0.057657283 0.024196722 0.14147308 -0.09601482
0000d0 d4 a1 94 bd 3c 98 1d bd 02 e4 8c be d5 5b c4 bd
       -0.07257429 -0.03847526 -0.27517706 -0.09587828
0000e0 cd 9e 5d bd 5e 87 ae bd 1b ca 54 bd fb 63 d9 bc
       -0.054106522 -0.08521913 -0.051950555 -0.026536932
0000f0 4d f4 96 bc ba 02 fd bd 02 73 9d 3c 01 07 af 3d
       -0.018427039 -0.12354036 0.019219879 0.08546258
000100 ec b4 bc 3d a5 0f b1 be b6 ba b4 bd f7 28 9d bd
       0.092141956 -0.34582248 -0.08824675 -0.07673829
000110 45 0e c4 3b 6a bb ac 3d 28 86 22 bd 1f e2 f2 bd
       0.0059831464 0.08434184 -0.039678723 -0.118595354
000120 81 d4 ff bb b1 d6 e8 3d 33 06 06 be 9f 88 36 3d
       -0.007807315 0.11369074 -0.13088302 0.044563886
000130 cb 1d 24 bd 96 15 5b 3d f6 80 32 be e4 b7 0f 3b
       -0.040067475 0.053487383 -0.17432007 0.0021929676
000140 3a 7d 20 be 82 a0 44 bc 75 5f 0c be 37 f2 3e 3d
       -0.1567277 -0.012001159 -0.13708289 0.046617713
000150 05 ca 00 3e 3d 2e 46 3c 7c 70 89 bd d8 32 41 bd
       0.12577064 0.012095985 -0.06710908 -0.04716763
000160 04 03 21 3d 32 84 72 3d 14 19 0b 3d 2c a9 1e 3d
       0.039309517 0.059208103 0.033959463 0.038735554
000170 a0 b5 98 bd 6e c6 35 3b fb 92 25 bd 50 e8 dc bd
       -0.07456517 0.0027736682 -0.040423375 -0.107864976
000180 20 85 3b 3b cb 99 dd bb 70 e4 0a 3c 62 e2 a0 bd
       0.0028613284 -0.0067627183 0.008477315 -0.07855679
000190 d1 68 1f bc 23 71 81 3d b3 71 a9 bd 95 34 ee bd
       -0.00972958 0.06320407 -0.082736395 -0.11631123
0001a0 60 fb 38 bd 71 af 20 3d 68 29 d3 bd 9a 80 c8 3d
       -0.045161605 0.039229814 -0.10310632 0.09790154
0001b0 dc f3 69 b9 3c 88 cd bd be 0b 24 3e 57 15 1a bd
       -0.00022311456 -0.1003575 0.16020104 -0.037618008
0001c0 e6 d9 11 be fe ac 7a be c6 56 c6 bd 98 f9 39 3e
       -0.14243278 -0.24480054 -0.096845195 0.18161619
0001d0 df 28 17 bc 21 bf 3f be bc a2 bb 3d 5c 73 46 be
       -0.009226053 -0.18725254 0.091618985 -0.19379944
0001e0 b4 bc 12 be 03 75 63 be 48 7b 20 3e b3 ae ce 3d
       -0.14329797 -0.22212605 0.15672028 0.10091915
0001f0 ea 22 be 3d 60 97 cc bd 43 13 d7 bb e1 54 13 be
       0.09284003 -0.0998981 -0.0065635755 -0.14387847
000200 f6 c0 8a 3d fd d2 ca 3d be 2c f4 ba c9 55 9c bd
       0.06775086 0.09903524 -0.0018629057 -0.0763355
000210 c2 5b 9a bd 44 c1 1f be 6e 4d 20 3e 1d 26 2a be
       -0.07537033 -0.15601069 0.15654537 -0.16616102
000220 41 20 8d bd 4b 6e 64 bd 2c 69 c8 3c ce c7 ac 3d
       -0.068909176 -0.055769246 0.024464212 0.08436547
000230 67 f4 77 3d 6a c2 58 bc 7c 15 17 3e f2 80 2a bc
       0.060535815 -0.013229946 0.1475429 -0.0104067195
000240 90 7b b9 be 40 1c 3a be 9a d8 a3 bc d1 e9 52 be
       -0.36227083 -0.18174839 -0.020000745 -0.20597006
000250 d6 bf af 3c b6 d5 27 bc d7 be 85 bc 28 13 e0 3c
       0.02145378 -0.010243824 -0.016326351 0.027352884
000260 ff 81 b5 bd f3 7b 76 bd 95 2c 5c be 8a e3 17 bc
       -0.088626854 -0.0601768 -0.21501382 -0.009270558
000270 91 e4 98 bd 35 69 a4 bd c7 18 0a bd 43 22 90 bd
       -0.074654706 -0.08027879 -0.033715036 -0.07037785
000280 de 74 63 bd 77 f3 b2 bc 54 16 cf 3d e5 bb a7 bd
       -0.055531375 -0.021844609 0.101116806 -0.08190135
000290 51 fa f8 bd 1e 2f 18 be 86 1b 9f bd 49 97 78 be
       -0.12157119 -0.14861724 -0.077689216 -0.2427646
0002a0 ba 2f 02 bd ab ac b6 bd 0e 29 b4 bd 53 1b 3a bc
       -0.031783797 -0.089196526 -0.08796893 -0.011359054
0002b0 36 11 40 be ba f1 b8 3d b6 1a f0 bd 10 bd f9 3d
       -0.18756565 0.09030481 -0.11723845 0.12194264
0002c0 56 62 16 be e8 af e1 3d 8a f2 32 be 7b b0 43 be
       -0.1468595 0.110198796 -0.17475334 -0.1911029
0002d0 ff 36 f6 bd 0b 59 ab bd 11 a7 88 3d a6 23 c9 bc
       -0.120222084 -0.08366593 0.066724904 -0.024553131
0002e0 19 03 c3 bd 38 85 1c 3e 8e e3 14 be 1f a3 c5 3d
       -0.09522075 0.15285194 -0.1453993 0.096502535
0002f0 56 43 da 3c 49 d1 97 bd ed 28 32 be f2 74 d8 3c
       0.026643436 -0.07412965 -0.17398424 0.026422951
000300 c3 4d 1a bc 20 54 c5 bd 42 8b 9d 3c 6a bf 9e bd
       -0.009417954 -0.09635186 0.019231442 -0.07751353
000310 71 2a 0a be ac a2 d6 bc 73 da 0e 3d f3 1e 23 be
       -0.13492753 -0.026200615 0.0348763 -0.15929775
000320 ab c3 55 be fd a0 3a 3d 0d a8 94 bc 38 ed 4d bd
       -0.20875423 0.045563687 -0.01814654 -0.050275058
000330 7f 87 fa bc ce 8a 8b be a9 c6 d5 bd fe fe 1b bd
       -0.030582188 -0.27254337 -0.10438282 -0.038084976
000340 05 2a 18 bc ae 0b 55 3d d6 09 94 bc 0a 71 ba 3c
       -0.009287362 0.05201309 -0.018071096 0.02275898
000350 15 b3 dd bd 62 7e cf bd b7 0b 01 bd 87 33 85 be
       -0.10825173 -0.101315275 -0.031505313 -0.26015875
000360 8c 24 78 bb b4 a3 80 bd b7 1c 2a bb 7f ee c7 bd
       -0.003786358 -0.06281224 -0.0025957057 -0.097622864
000370 54 28 1a be e7 a1 98 3c f9 50 22 be cf ed 8f bd
       -0.15054446 0.018631889 -0.15851201 -0.0702778
000380 4e f1 d4 bd 36 2f 85 3c 70 ce a9 bd 55 7c 05 3d
       -0.10397588 0.016257863 -0.08291328 0.032589275
000390 95 35 b2 bd 97 ee 39 bc f2 f8 fe 3a c4 81 40 bc
       -0.08701626 -0.011348388 0.0019452854 -0.011749689
0003a0 9c 3d fe bc db 17 34 bc 48 24 e3 bd 0a c0 a4 bc
       -0.031035237 -0.010992016 -0.110909045 -0.020111103
0003b0 42 4b d5 bd a4 e1 e1 3d 17 30 44 bd 27 4d 63 bb
       -0.10414745 0.11029366 -0.047897425 -0.0034683438
0003c0 9f f9 29 bd e6 f6 b1 ba ec 0b 7e bd 2f d2 c0 3d
       -0.041497823 -0.001357761 -0.06202309 0.09415089
0003d0 ed dd 5d bc b2 3a 90 bd 58 e4 b3 bb 69 63 09 bc
       -0.013541681 -0.07042445 -0.005489867 -0.008385518
0003e0 b6 4c 3b 3d 2e 66 50 3c 03 89 33 bd b8 9c 40 be
       0.045727454 0.012719674 -0.043831836 -0.18809783
0003f0 ee d0 7d bd e5 11 8a be 5d 61 bd bd f0 d5 0c be
       -0.06196683 -0.26966777 -0.09247086 -0.13753486

dense2.bias f4 [33]
000000 e8 12 ab 3d 8a eb 23 bd 5f 2a ab bd 54 16 ee 3c
       0.083532155 -0.04001955 -0.08357691 0.029063381
000010 85 65 65 bd e7 d5 9c 3a d8 9f 94 bc 3d 2a 1f 3d
       -0.05600502 0.0011965603 -0.018142626 0.03885864
000020 85 75 92 bc de 12 8f bd 09 67 a9 3c 3e 8e e5 bd
       -0.017878303 -0.069860205 0.020679014 -0.11208771
000030 d9 0b 11 be 76 42 e5 bb b5 c3 f3 3c 85 0e 46 bd
       -0.14164676 -0.006996448 0.029756406 -0.04835369
000040 db 7d 59 3d 4d cf c6 3d bb 5d b4 3c 7f eb a7 bd
       0.05309854 0.09707508 0.02201735 -0.08199214
000050 a0 7c 19 3c dd 56 67 3d a8 00 31 3d 1e 61 38 3d
       0.009368092 0.056479324 0.043213516 0.045014493
000060 14 e1 d0 bc 54 00 62 bd 38 58 7c bb 47 31 2e bd
       -0.02549795 -0.055176094 -0.003850473 -0.042527463
000070 c6 fa 96 bd 47 fa 1a bd 1d 6b d9 bd 89 ba 22 be
       -0.0737205 -0.03783634 -0.10616133 -0.1589147
000080 c3 08 f6 3a
       0.0018770922
